runs/benign/20250814-110157/models/base_round_0_node_2.pt (torch, 33349 bytes, 2 tensors)

fc.weight f4 [10, 784]
00000000: 3743 22bb ecf5 8dbc ee66 093b 3c85 8b3c
00000010: f730 493c 93bb e8bb 6ee8 79bc 93d9 2b3c
00000020: 1e48 c53c 9cce b0bc 753a c1bc 5307 fa3b
00000030: 4058 843b 6e6d 663b 03d4 f1bc 535e e73c
00000040: 18b5 093d ec48 ca3c f537 c4bc 9378 41ba
00000050: 180a f63c 4007 883c a73c d3bc 1d5f 003d
00000060: a550 343c 254e 0b3b 25f7 bbbb 0e4e 933c
00000070: c345 cabc a5ab 57bc ecbb afbc 410e cabc
00000080: 1a4a a8bc 931d 043b e538 ccbb 20b0 8dbc
00000090: 6eb9 dbba ce38 f2bc e31e e63c cad2 f3bb
000000a0: 6b36 053d d8f6 e2bc 3c79 853c f7ab 03bd
000000b0: 3b80 0dbd e334 a33c b75b b03c 1c5a e6bb
000000c0: 37ae bb3b b7ed 83bc 2577 6dbc b881 613a
000000d0: 8345 f9bc 21b1 553c 0ec2 0cbc e50e 9fbc
000000e0: 5cb7 cfbc bf47 053d fa05 c6bc 53aa e83b
000000f0: c1e4 c53b dce2 643c 2efa 003c 3247 073d
00000100: e16a 42bc 1c80 fc3c 8857 00bd b3c7 c63c
00000110: cc03 e93c 258f 74bb 8af9 8e3b 6ea4 ca3b
00000120: ceac 07bc 8cf2 8ebc ea83 45bc 0ad9 8d3c
00000130: 81e5 ef3c e3e3 e43c 525a 003d 5e75 993c
00000140: 6570 b03c 20bc 1dbc 2ddf 033d fc92 0e3c
00000150: fc65 7c3c 3ee6 bf3c 5c0f 6ebc ce06 403c
00000160: 0aaf 88bb 805d 20bc 2e8d d43b fa5b 873c
00000170: d883 0f3d 60cb 94bc 2e09 b6bc e8a0 0b3d
00000180: b739 0fbc c5fb 12bc 93cb c93b fcc3 e1bc
00000190: d512 9a3c e11e 6ebc 3755 013b fe68 ffbc
000001a0: cac3 243b a5b6 043b ee9d 17bb 5557 eabc
000001b0: 25f9 ed3c 6ed1 0b3d dc2c d4bb caf9 c4bb
000001c0: a5aa 7e3b 81e6 d3bb f384 0cbd dcc7 1bbc
000001d0: 40b9 9abc b88b f2bb b72a 903c a0f8 8bbc
000001e0: 9c60 dabb 1e9d 8abc 8e0b 023c 1c04 0e3d
000001f0: 1c56 dbbb a0cd 8ebc 754c b6bc 7ea5 acbc
00000200: 40a4 84bc 5c31 013b 81a7 523b 0add 27bc
00000210: 77a6 47bc 1c8a 943b 95e4 b8bc 2c13 a03c
00000220: 0ccc 9f3c 8148 2dbc 5af0 b73c 01ca 44bb
00000230: 1e03 09bd a190 333c f71f 953b b750 28bc
00000240: 66c0 0d3d 6eb4 a1bb 2540 feba dc81 2fbc
00000250: f7ee c8bc 6524 ed3c 6112 e2bc a5c9 32bc
00000260: 4aaf bc3a 0f98 0a3d b34d a6bc 3ef5 db3c
00000270: b100 c0bc 3305 863c 2ed7 b73b b421 0abd
00000280: 13d1 d7bb 1c82 ec3c 110c d6bc da76 983c
00000290: c0a2 1d3c 81e4 3c3c 5ca7 123b 2506 c1bc
000002a0: 253c 3dbb 1309 9b3c c70d 093d 25da ab3c
000002b0: a78d d23c ae95 563c 8510 293c c581 adbc
000002c0: c531 b03c 508c 803c 6517 133c 9ee6 80bc
000002d0: aa21 143c 4a06 8cb9 1364 00bc fd6d 06bd
000002e0: 0a12 003c 13e6 33bc 25b1 313c c5a8 6a3c
000002f0: 659a f1bc 9726 9dbc 9c88 613c 9cf1 7b3c
00000300: b799 2abc ee5c d8bc 4e74 653c 5c10 cdbc
00000310: a37f eb3c a7bc 01bd 9eb6 ac3c f16c efbc
00000320: d379 503c 8ea5 0fbd 35cb a33c 2ebf a53b
00000330: 6cb5 d83c 65a5 ae3c dc38 dabc 0148 aeb9
00000340: 0778 8e3c 9182 ad3c e7f5 11bd 95e0 04bd
00000350: 4741 cfbc 6af5 d63c 379b c9bc ee2c 18bc
00000360: c50e 71bc 875b 8c3c fca0 0dbd 93f2 e83c
00000370: aac6 e13c 1325 41bc 40e4 02bd 2573 60ba
00000380: 785b 7d3c f5aa afbc 93d6 c4bc e529 0cbd
00000390: 3a05 dd3c 4ed6 003d 4ac4 bfba dce5 ec3b
000003a0: 530d efbb c50d 7b3c 17ce af3c f799 84bb
000003b0: f723 9bbc 1371 98bb 9400 003d b3f0 51bc
000003c0: 1eb9 e63c 857c a6bc ec89 ddbc c02d 053d
000003d0: 3c3e 6b3c fc05 edbc 4a86 78ba 7c13 e53c
000003e0: 2a19 40bc 7335 2abc 578f 0c3c 1b3d 033d
000003f0: a10e 2bbc d309 85bc de50 f9bc b715 d2ba
-0.0024759301 -0.017329179 0.0020965892 0.017031305 0.012279741 -0.0071024387 -0.015253169 0.010488885
0.02408224 -0.021582894 -0.023587445 0.0076302676 0.0040388405 0.003516044 -0.02952004 0.02824322
0.03361997 0.024692975 -0.023952464 -0.00073803327 0.03003411 0.01660502 -0.025785757 0.031340707
0.011005555 0.0021256295 -0.005736249 0.017981555 -0.024691468 -0.013163482 -0.021451913 -0.024665
-0.020543147 0.002015923 -0.0062323683 -0.017295897 -0.0016763636 -0.029568102 0.0280909 -0.0074408995
0.0325226 -0.027705595 0.01629316 -0.03214642 -0.03454612 0.01992268 0.021528108 -0.007029785
0.005727555 -0.016104562 -0.014493738 0.00086023984 -0.030428654 0.013042719 -0.008591188 -0.019416282
-0.025355987 0.032539126 -0.024172772 0.0071003824 0.0060392325 0.013970103 0.0078721475 0.03302688
-0.011866302 0.030822806 -0.031333476 0.024265146 0.028444193 -0.0037316766 0.0043632435 0.0061841523
-0.008280946 -0.01744964 -0.012055377 0.017315406 0.02928424 0.027940696 0.031336136 0.018732723
0.021537969 -0.009627372 0.03219526 0.008702036 0.015405174 0.023425218 -0.014530029 0.011720372
-0.004171257 -0.009787917 0.0064865565 0.01652335 0.035037845 -0.018163383 -0.022221174 0.034089
-0.008741788 -0.008971159 0.006158301 -0.027559273 0.018807808 -0.014533729 0.001973463 -0.031177994
0.0025141113 0.0020250466 -0.0023134905 -0.028606096 0.029049465 0.034135275 -0.006475074 -0.0060112225
0.0038859036 -0.006466687 -0.034306478 -0.009508099 -0.018887162 -0.0074019097 0.017598493 -0.017086327
-0.0066643488 -0.016920622 0.007937325 0.034671888 -0.0066936146 -0.017432034 -0.022253254 -0.021075007
-0.016191602 0.0019713258 0.0032143297 -0.010245571 -0.012185684 0.0045330655 -0.022569934 0.019540392
0.019506477 -0.010576368 0.022453476 -0.003002763 -0.03345024 0.010959775 0.0045509296 -0.01027315
0.034607314 -0.004934839 -0.0019397779 -0.010712113 -0.02452801 0.028948018 -0.027596654 -0.010912334
0.0014395502 0.03383642 -0.020300722 0.026850339 -0.02343783 0.016359901 0.005610368 -0.033723548
-0.006586203 0.028870635 -0.0261288 0.01861136 0.009621322 0.011529089 0.0022377586 -0.0235625
-0.002887496 0.018925225 0.033460405 0.020978043 0.02570231 0.01309721 0.01031888 -0.021180043
0.021508107 0.015691906 0.008977746 -0.015734967 0.009041229 -0.00026707567 -0.00783636 -0.032819737
0.007816801 -0.010980147 0.010845457 0.014322464 -0.029492566 -0.01918344 0.01376548 0.015377428
-0.010412625 -0.0264115 0.01400478 -0.025032215 0.028747385 -0.031674054 0.021083172 -0.029226752
0.012724358 -0.035069995 0.019994358 0.005058191 0.026453696 0.0213191 -0.02663844 -0.00033241513
0.017391218 0.021180423 -0.0356349 -0.03244074 -0.025299681 0.02624007 -0.024610145 -0.009288056
-0.014712994 0.017133487 -0.034577355 0.02843598 0.02756055 -0.011788624 -0.031955957 -0.000856208
0.015463702 -0.021443823 -0.024028098 -0.03421964 0.026980031 0.031454377 -0.0014630642 0.00722955
-0.0072952895 0.015323107 0.021460576 -0.0040466744 -0.018938048 -0.0046521514 0.03125055 -0.012813735
0.028164443 -0.020323047 -0.027043305 0.032514334 0.0143581 -0.028933518 -0.000948046 0.027963392
-0.01172475 -0.01038872 0.008579097 0.032040697 -0.0104404995 -0.016240036 -0.030434068 -0.00160282

fc.bias f4 [10]
00000000: 40ca 943c b3c0 c63c 251c 513b 6e79 82bb
00000010: 257b 45bb 3006 073d 9e4a 08bd e125 bcbc
00000020: 40ea 8a3c 93a6 8d3a
0.018162847 0.024261808 0.0031907645 -0.0039817607 -0.0030133214 0.032964885 -0.033274285 -0.02296728
0.016957402 0.0010807089
