runs/benign/20250814-104251/updates/round_1_node_8_delta.pt (torch, 33357 bytes, 2 tensors)

fc.weight f4 [10, 784]
000000 00 00 00 00 00 00 00 00 00 00 00 00 00 00 00 00
       0.0 0.0 0.0 0.0
000010 00 00 00 00 00 00 00 00 00 00 00 00 00 00 00 00
       0.0 0.0 0.0 0.0
000020 00 00 00 00 00 00 00 00 00 00 00 00 00 00 00 00
       0.0 0.0 0.0 0.0
000030 00 00 00 00 00 00 00 00 00 00 00 00 00 00 00 00
       0.0 0.0 0.0 0.0
000040 00 00 00 00 00 00 00 00 00 00 00 00 00 00 00 00
       0.0 0.0 0.0 0.0
000050 00 00 00 00 00 00 00 00 00 00 00 00 00 00 00 00
       0.0 0.0 0.0 0.0
000060 00 00 00 00 00 00 00 00 00 00 00 00 00 00 00 00
       0.0 0.0 0.0 0.0
000070 00 00 00 00 00 00 00 00 00 00 00 00 00 00 00 00
       0.0 0.0 0.0 0.0
000080 00 00 00 00 00 00 00 00 c0 58 8d b7 00 04 e3 b7
       0.0 0.0 -1.6849837e-05 -2.7062371e-05
000090 00 40 3c b6 00 00 00 00 00 80 dc b5 00 20 09 b6
       -2.8051436e-06 0.0 -1.642853e-06 -2.0433217e-06
0000a0 80 65 5e b8 00 90 0c b8 00 84 48 b9 00 b0 37 b7
       -5.3023454e-05 -3.351271e-05 -0.0001912266 -1.0948628e-05
0000b0 00 5d 12 b8 00 36 18 b8 00 c0 49 b7 00 80 0a b5
       -3.4895726e-05 -3.6289915e-05 -1.2025237e-05 -5.159527e-07
0000c0 00 00 00 00 00 00 00 00 00 00 00 00 00 00 00 00
       0.0 0.0 0.0 0.0
0000d0 00 00 00 00 00 00 00 00 00 00 00 00 00 00 00 00
       0.0 0.0 0.0 0.0
0000e0 00 00 00 00 00 00 00 00 00 00 00 00 00 00 00 00
       0.0 0.0 0.0 0.0
0000f0 00 00 00 00 00 00 00 00 00 d0 c1 b7 00 ff 07 b8
       0.0 0.0 -2.310425e-05 -3.2423995e-05
000100 00 e5 b3 b7 00 58 3f b7 00 62 cd b7 80 af 11 b9
       -2.14451e-05 -1.1404976e-05 -2.448354e-05 -0.00013893656
000110 00 47 88 b9 08 b1 cd b9 a0 18 11 ba 00 2e 03 ba
       -0.0002599284 -0.00039232546 -0.00055349804 -0.0005004108
000120 c0 df fd b9 00 b8 56 b9 00 b2 6d b8 00 99 2e b8
       -0.00048422627 -0.00020477176 -5.667098e-05 -4.1627325e-05
000130 00 38 30 b8 00 b8 14 b8 00 b0 03 b8 00 40 8f b6
       -4.2013824e-05 -3.5457313e-05 -3.1396747e-05 -4.2691827e-06
000140 00 00 00 00 00 00 00 00 00 00 00 00 00 00 00 00
       0.0 0.0 0.0 0.0
000150 00 00 00 00 00 00 00 00 00 00 00 00 00 00 00 00
       0.0 0.0 0.0 0.0
000160 00 00 00 00 00 00 00 00 00 d0 04 b8 00 f0 17 b8
       0.0 0.0 -3.1664968e-05 -3.6224723e-05
000170 40 a3 af b8 00 6a 5c b9 80 3d ca b9 90 b3 3a ba
       -8.375058e-05 -0.00021020323 -0.00038574263 -0.0007122094
000180 c0 b8 8d ba d2 50 c6 ba 74 08 8c ba 20 81 02 3b
       -0.0010812506 -0.0015130288 -0.0010683672 0.001991339
000190 00 60 5e 38 60 59 d3 ba 71 86 5f 3b 7b 6a 61 3b
       5.301833e-05 -0.0016124658 0.0034107233 0.0034395743
0001a0 e0 3d 2e 3a 90 c7 0c ba c0 59 fe b9 80 a8 0d b8
       0.00066467933 -0.00053703133 -0.00048513524 -3.3773948e-05
0001b0 00 60 16 b6 00 00 00 00 00 00 00 00 00 00 00 00
       -2.2407621e-06 0.0 0.0 0.0
0001c0 00 00 00 00 00 00 00 00 00 00 00 00 00 00 00 00
       0.0 0.0 0.0 0.0
0001d0 00 80 72 b6 00 d0 4c b7 00 a2 90 b8 80 de 00 b9
       -3.6135316e-06 -1.2207776e-05 -6.89663e-05 -0.00012289919
0001e0 c0 5c ef b9 b0 7b 8c ba 00 73 f7 b8 00 14 08 b7
       -0.00045654736 -0.0010718014 -0.00011799298 -8.110888e-06
0001f0 10 ef 49 3b 14 7f 06 3c 56 d8 63 3c 64 a2 de 3b
       0.0030812658 0.008209009 0.013906559 0.006794261
000200 03 d1 ba 3b a0 ae d7 3b e0 48 b5 3b 32 d4 63 3b
       0.0057011857 0.006582096 0.005532369 0.003476393
000210 d3 14 52 bb c0 f7 63 bb b6 9b 16 bb 70 81 99 ba
       -0.003205587 -0.0034785122 -0.0022980995 -0.0011711549
000220 70 8c e6 b9 e0 d4 06 b9 00 7d 43 b8 00 f0 66 b7
       -0.00043973653 -0.00012858538 -4.660804e-05 -1.3764948e-05
000230 00 00 00 00 00 00 00 00 00 40 87 b5 00 88 75 b7
       0.0 0.0 -1.007691e-06 -1.4634803e-05
000240 00 7a 25 b8 60 5d 33 b8 c0 12 6a b9 a2 73 43 ba
       -3.9452687e-05 -4.2763888e-05 -0.00022322964 -0.00074558903
000250 eb ff 0f bb 00 80 92 35 f4 25 5a 3b 8a 3a 82 3b
       -0.0021972607 1.0915101e-06 0.0033286782 0.0039742636
000260 27 7b 15 3c 16 a6 9e 3c 26 f7 e5 3c 6c 0b f5 3c
       0.0091236 0.019366305 0.028071951 0.029912673
000270 22 d7 ae 3c 60 e6 7d 3c 5c f7 81 3c fa 93 12 3c
       0.021342818 0.01549682 0.01586502 0.008946413
000280 e0 0c 54 ba 80 2f 26 ba 04 0a 80 bb 10 b3 09 bb
       -0.0008089077 -0.00063394755 -0.003907444 -0.002101127
000290 b0 33 87 ba 20 42 cf b9 40 31 e9 b8 00 b8 76 b7
       -0.0010315087 -0.00039531384 -0.00011119479 -1.4705583e-05
0002a0 00 00 00 00 00 00 00 00 00 88 4d b7 80 e6 0c b9
       0.0 0.0 -1.2250617e-05 -0.00013437308
0002b0 00 f5 55 b9 e0 19 a5 b9 28 77 50 ba dc a5 36 bb
       -0.00020404533 -0.0003149053 -0.0007952326 -0.0027869856
0002c0 e4 c3 3e bb 60 3f 0f 3b 00 85 97 b9 18 04 e2 3b
       -0.002910846 0.0021857843 -0.00028900057 0.0068974607
0002d0 19 c6 83 3c 38 84 dd 3c 68 12 d9 3c 45 d9 ab 3c
       0.016085671 0.027040586 0.026498035 0.020977626
0002e0 ab c3 ce 3c 7e 2d e1 3c 6c 10 cc 3c 48 9c 8d 3c
       0.025239786 0.027487513 0.024910174 0.017286435
0002f0 fc 68 b1 3b 28 15 0a 3a bc 07 d0 bb c0 24 6c bb
       0.0054141264 0.0005267435 -0.0063485783 -0.0036032647
000300 a0 b4 c6 ba 10 cb 0f ba 00 3e c4 b8 00 bc 8b b7
       -0.0015160032 -0.0005485276 -9.357557e-05 -1.6657636e-05
000310 00 00 60 b2 00 e0 a7 b6 00 dd 8e b8 40 b3 96 b9
       -1.3038516e-08 -5.003065e-06 -6.812252e-05 -0.0002874378
000320 38 97 11 ba b0 66 8d ba 68 f2 2b bb 79 60 c1 bb
       -0.00055538444 -0.001078805 -0.0026237015 -0.005901393
000330 c0 d9 a7 3a d0 c6 f1 39 54 14 8b 3b eb 3f 6d 3c
       0.0012805983 0.0004611523 0.0042443667 0.014480571
000340 ee 43 b1 3c 7d f8 b5 3c 30 34 47 3c 1a 58 04 3c
       0.021638837 0.022213215 0.012158439 0.008077646
000350 3a d4 2e 3c b8 05 a2 3c 3e 9b bc 3c f4 c6 e8 3c
       0.010670716 0.019778118 0.023023244 0.02841518
000360 c2 88 98 3c f0 ee c2 3a d8 43 10 bb 30 cf aa bb
       0.018619899 0.0014872234 -0.0022013094 -0.005212687
000370 80 5f 24 bb c0 c4 92 ba c0 1b cd b9 00 6f db b7
       -0.0025081336 -0.0011197552 -0.00039121322 -2.6158523e-05
000380 00 00 8c b3 80 64 96 b7 d0 ef b2 b9 38 ee 54 ba
       -6.519258e-08 -1.7928192e-05 -0.0003412948 -0.00081226556
000390 90 3e ee ba 8e 5e 62 bb 60 a7 cd bb 39 ad ae bb
       -0.0018176604 -0.0034541222 -0.006276056 -0.0053307083
0003a0 60 f4 69 3b 98 26 1e 3b 56 c5 4b 3c be 0a 8e 3c
       0.0035698637 0.002413189 0.012437185 0.017339107
0003b0 bc fd 9f 3c e0 45 dc 3b 7f c0 85 ba 8c 0b 84 bb
       0.01953017 0.006722197 -0.0010204463 -0.004029697
0003c0 60 64 cd bb ca a3 04 bc 80 25 bd 3b ee 4e b8 3c
       -0.006268069 -0.008095691 0.0057722926 0.022498574
0003d0 08 fa d8 3c 29 b2 55 3c 38 e9 d3 ba 04 1f c0 bb
       0.026486412 0.013042965 -0.0016167527 -0.0058630724
0003e0 d0 f0 77 bb c0 e2 d4 ba 3a 17 c3 b9 00 86 2a b8
       -0.0037832744 -0.0016241893 -0.00037210603 -4.0655956e-05
0003f0 00 ec 08 b7 00 e4 94 b8 dc f3 0a ba d0 83 ce ba
       -8.16118e-06 -7.099658e-05 -0.000530062 -0.0015755836

fc.bias f4 [10]
000000 44 07 f4 bc 59 b3 41 3e b3 f6 c1 bd 64 bc ab bd
       -0.02978862 0.18916072 -0.09470882 -0.08385542
000010 2c 31 0f bd 3a 73 a5 3d 04 fe d5 bc 18 da a0 3e
       -0.034959003 0.08078618 -0.0261221 0.31416392
000020 ab 7d 58 be b5 79 d3 bd
       -0.21141689 -0.10325948
