runs/benign/20250814-104251/updates/round_3_node_1_delta.pt (torch, 33357 bytes, 2 tensors)

fc.weight f4 [10, 784]
000000 00 00 00 00 00 00 00 00 00 00 00 00 00 00 00 00
       0.0 0.0 0.0 0.0
000010 00 00 00 00 00 00 00 00 00 00 00 00 00 00 00 00
       0.0 0.0 0.0 0.0
000020 00 00 00 00 00 00 00 00 00 00 00 00 00 00 00 00
       0.0 0.0 0.0 0.0
000030 00 00 00 00 00 00 00 00 00 00 00 00 00 00 00 00
       0.0 0.0 0.0 0.0
000040 00 00 00 00 00 00 00 00 00 00 00 00 00 00 00 00
       0.0 0.0 0.0 0.0
000050 00 00 00 00 00 00 00 00 00 00 00 00 00 00 00 00
       0.0 0.0 0.0 0.0
000060 00 00 00 00 00 00 00 00 00 00 00 00 00 00 00 00
       0.0 0.0 0.0 0.0
000070 00 00 00 00 00 00 00 00 00 00 00 00 00 00 00 00
       0.0 0.0 0.0 0.0
000080 00 00 00 00 00 00 00 00 00 00 00 00 00 00 00 00
       0.0 0.0 0.0 0.0
000090 00 00 00 00 00 00 00 00 00 00 00 00 80 40 b5 39
       0.0 0.0 0.0 0.00034571066
0000a0 98 20 33 3a 80 44 93 39 00 00 00 00 00 00 00 00
       0.0006833165 0.0002808906 0.0 0.0
0000b0 00 00 00 00 00 00 00 00 00 00 00 00 00 00 00 00
       0.0 0.0 0.0 0.0
0000c0 00 00 00 00 00 00 00 00 00 00 00 00 00 00 00 00
       0.0 0.0 0.0 0.0
0000d0 00 00 00 00 00 00 00 00 00 00 00 00 00 00 00 00
       0.0 0.0 0.0 0.0
0000e0 00 00 00 00 00 00 00 00 00 00 00 00 00 e0 04 37
       0.0 0.0 0.0 7.919967e-06
0000f0 00 40 37 36 00 00 00 00 00 a4 7f 37 00 72 42 39
       2.7306378e-06 0.0 1.5237369e-05 0.0001854375
000100 80 bc 3f 38 00 00 00 00 00 00 00 00 40 46 82 39
       4.5713503e-05 0.0 0.0 0.00024847873
000110 00 8d 23 3a a8 61 dd 39 00 2c 3a 38 00 3b ac 38
       0.0006238967 0.00042225164 4.4386834e-05 8.212589e-05
000120 40 a0 83 b9 e8 66 8f bb 08 88 95 bb d8 44 ab ba
       -0.00025105663 -0.004376281 -0.0045633353 -0.0013066782
000130 80 f6 56 ba c0 25 64 ba 80 e9 4c b8 00 00 00 00
       -0.00082001835 -0.0008703135 -4.8854854e-05 0.0
000140 00 00 00 00 00 00 00 00 00 00 00 00 00 00 00 00
       0.0 0.0 0.0 0.0
000150 00 00 00 00 00 00 00 00 00 00 00 00 80 5b bf b8
       0.0 0.0 0.0 -9.124633e-05
000160 28 cb d7 ba 00 34 0a 37 00 20 e3 36 80 0b 8b 39
       -0.0016463744 8.237548e-06 6.7688525e-06 0.00026520714
000170 90 72 2b 3a 60 84 0b bb 18 a0 9e bb fa e5 02 bb
       0.00065402035 -0.0021288618 -0.004840862 -0.0019973502
000180 8c 54 0f 3b db 03 0d 3c f8 b6 90 3a 68 fd f3 bb
       0.0021870462 0.008606876 0.0011040857 -0.00744598
000190 29 01 5d bc 8a 9f 8b bc 4a 93 e9 bc b4 46 f0 bc
       -0.013489046 -0.017043848 -0.028512616 -0.029330589
0001a0 4c 54 a1 bc 5a 81 7f bc 1c b3 0c bc df 30 84 bb
       -0.019693516 -0.015594805 -0.008587625 -0.004034146
0001b0 2c ac f4 ba 80 b5 2b 38 00 00 00 00 00 00 00 00
       -0.0018667034 4.0938612e-05 0.0 0.0
0001c0 00 00 00 00 00 00 00 00 00 00 00 00 d0 23 43 b9
       0.0 0.0 0.0 -0.0001860999
0001d0 00 00 77 35 00 80 07 36 80 ad 6e 39 50 a4 b6 ba
       9.201467e-07 2.0191073e-06 0.00022762083 -0.0013934467
0001e0 00 e0 f7 bb e8 15 e4 bb dc b0 e7 3b fc 88 45 3c
       -0.0075645447 -0.0069606192 0.007070644 0.012056585
0001f0 96 ef 8c 3c f8 4f 17 3d 24 e7 22 3d e4 e9 1a 3d
       0.017204087 0.0369415 0.039771214 0.03782071
000200 88 72 4b 3c d0 fd ae 3b 6c bb 22 bc dc 06 15 bc
       0.012417443 0.0053403154 -0.00993238 -0.009095874
000210 8c 47 bd bc d7 3b e4 bc cc 46 56 bc 08 e8 87 bc
       -0.023105405 -0.027860565 -0.013078403 -0.016590133
000220 d6 72 50 bc b9 56 5a bb 40 da a4 ba 00 00 00 00
       -0.0127226915 -0.003331585 -0.0012577251 0.0
000230 00 00 00 00 00 00 00 00 00 00 00 00 d4 ce cb ba
       0.0 0.0 0.0 -0.001554931
000240 00 e8 20 b7 00 5b bf 37 6c e3 60 3a 80 57 d8 39
       -9.59076e-06 2.281135e-05 0.00085788104 0.00041263923
000250 b4 30 b1 bb 80 87 3b bc 6b b0 1e 3c 9b e7 86 3c
       -0.005407417 -0.01144588 0.009685616 0.01646786
000260 ee b1 0e 3d 33 b5 85 3d b7 cf c5 3d e8 6f d2 3d
       0.034837656 0.06528702 0.09658759 0.10275251
000270 42 62 a3 3d 5e 1a 83 3d 04 b2 5c 3d 83 92 2e 3d
       0.079777256 0.064015135 0.053880706 0.042620193
000280 b1 76 92 3c ae b8 77 3c 32 f3 32 bc be 31 09 bd
       0.017878862 0.015119715 -0.01092224 -0.033494703
000290 06 99 ef bc 08 31 6a bc 48 53 1f bb c0 55 a1 ba
       -0.029247772 -0.0142939165 -0.0024311114 -0.0012308881
0002a0 00 00 00 00 00 00 00 00 00 00 00 00 00 d8 8b b8
       0.0 0.0 0.0 -6.6682696e-05
0002b0 80 b1 0f b9 80 63 3e 39 80 bb b4 38 14 c2 ac bb
       -0.00013703667 0.00018156879 8.6179934e-05 -0.0052721594
0002c0 e6 c6 e1 bc 20 6b 85 bc 7c 8e 85 3c cc 8c f8 3c
       -0.027560662 -0.016286433 0.016303293 0.030340575
0002d0 56 5a c0 3c b4 8b 9c 3d e2 2b ca 3d 25 ce dd 3d
       0.023480576 0.07643834 0.09871651 0.108303346
0002e0 5c 62 e2 3d 86 2c b8 3d bc e1 b6 3d 8a 76 76 3d
       0.11053917 0.08992867 0.08929774 0.06017164
0002f0 a2 a0 2c 3d ab cb 64 3d 00 0f 1e 3d 08 fe a1 bc
       0.04214538 0.055858295 0.038588524 -0.019774452
000300 cb c3 5d bd 76 08 0d bd 99 ff 8a bc 10 45 8e bb
       -0.0541418 -0.034431897 -0.016967582 -0.004341729
000310 00 00 00 00 00 00 00 00 00 00 00 00 80 0b 6d b9
       0.0 0.0 0.0 -0.00022606365
000320 30 9f ef b9 a0 00 59 ba c0 1d 39 bb 92 ac 61 bc
       -0.00045704236 -0.0008277986 -0.0028246492 -0.013774054
000330 1e 1a f4 bc 80 47 a0 3a af 33 0b 3d ed b3 0e 3d
       -0.02979761 0.001222834 0.033984836 0.03483956
000340 e0 fd 47 3d 5e ab 34 3d 06 19 63 3d 77 0c a4 3d
       0.0488261 0.04410874 0.055443786 0.0801019
000350 b7 59 a6 3d 78 d0 d0 3d 8a 6d d7 3d c1 40 84 3d
       0.081225805 0.10196012 0.1051894 0.06457663
000360 f0 39 d2 3c 94 6f 10 3d 8d 52 1e 3d 22 6c 34 3c
       0.025662392 0.03526266 0.038652945 0.011012109
000370 87 ee 23 bd 91 c6 25 bd e8 de 2f bc 40 6c 85 ba
       -0.0400224 -0.04047257 -0.010734297 -0.0010179356
000380 00 19 41 3a 00 00 00 00 00 38 ab 37 54 5c 41 b9
       0.0007366091 0.0 2.0410866e-05 -0.00018440309
000390 60 47 01 ba c4 30 c4 bb 08 89 4e bc 6e 6a a3 bc
       -0.0004931595 -0.0059872586 -0.012605913 -0.01994821
0003a0 3c f6 2b bc 8c 92 88 3c 96 5d ab 3c 63 73 95 3c
       -0.010495719 0.016671441 0.020918649 0.018243497
0003b0 cf 9f 12 3c c0 6b c7 3b c1 d9 16 3d 7e fd 74 3d
       0.008949234 0.006085843 0.03682876 0.05981206
0003c0 ca 12 c4 3d cc 62 d3 3d be ab da 3d 50 36 7b 3d
       0.09573896 0.103215784 0.106772885 0.061331093
0003d0 1e 45 03 3d fc 32 9c 3c 5f 70 87 3d 01 91 6d 3d
       0.032048337 0.01906728 0.0661323 0.057999615
0003e0 f0 31 51 bb 7f d7 07 bd c6 30 46 bc 00 8c 68 b8
       -0.0031920634 -0.033164497 -0.012096589 -5.5443496e-05
0003f0 00 00 00 00 00 00 00 00 54 bc 35 3a 00 78 8f b8
       0.0 0.0 0.0006932665 -6.841123e-05

fc.bias f4 [10]
000000 80 a2 4e 3d 28 19 70 bd fd 72 46 bd 02 01 8b bd
       0.05044794 -0.05861774 -0.048449505 -0.067873016
000010 3c 8c b7 bc 62 30 d3 3e b4 49 71 bd f8 99 33 bd
       -0.022405736 0.4124785 -0.05890818 -0.043848008
000020 c8 5b e5 bd 06 35 50 bd
       -0.111991465 -0.050831817
