runs/benign/20250814-104251/updates/round_5_node_7_delta.pt (torch, 33357 bytes, 2 tensors)

fc.weight f4 [10, 784]
000000 00 00 00 00 00 00 00 00 00 00 00 00 00 00 00 00
       0.0 0.0 0.0 0.0
000010 00 00 00 00 00 00 00 00 00 00 00 00 00 00 00 00
       0.0 0.0 0.0 0.0
000020 00 00 00 00 00 00 00 00 00 00 00 00 00 00 00 00
       0.0 0.0 0.0 0.0
000030 00 00 00 00 00 00 00 00 00 00 00 00 00 00 00 00
       0.0 0.0 0.0 0.0
000040 00 00 00 00 00 00 00 00 00 00 00 00 00 00 00 00
       0.0 0.0 0.0 0.0
000050 00 00 00 00 00 00 00 00 00 00 00 00 00 00 00 00
       0.0 0.0 0.0 0.0
000060 00 00 00 00 00 00 00 00 00 00 00 00 00 00 00 00
       0.0 0.0 0.0 0.0
000070 00 00 00 00 00 00 00 00 00 00 00 00 00 00 00 00
       0.0 0.0 0.0 0.0
000080 00 00 00 00 00 00 00 00 00 00 32 b3 00 00 9c b3
       0.0 0.0 -4.1443855e-08 -7.264316e-08
000090 00 00 ca b4 00 20 1b b6 00 30 ba b6 00 90 80 b6
       -3.7625432e-07 -2.3115426e-06 -5.54882e-06 -3.831461e-06
0000a0 00 80 7f b5 00 f0 87 b6 00 c0 c2 b6 00 40 60 b7
       -9.5181167e-07 -4.051253e-06 -5.8040023e-06 -1.3366342e-05
0000b0 00 e0 58 b7 00 38 34 b7 00 10 33 b7 00 00 07 b7
       -1.2926757e-05 -1.0741875e-05 -1.0672957e-05 -8.046627e-06
0000c0 00 c8 7b b6 00 80 8d b5 00 00 00 00 00 00 00 00
       -3.751833e-06 -1.0542572e-06 0.0 0.0
0000d0 00 00 00 00 00 00 00 00 00 00 00 00 00 00 00 00
       0.0 0.0 0.0 0.0
0000e0 00 00 00 00 00 00 00 00 00 00 00 00 00 00 e3 b5
       0.0 0.0 0.0 -1.6912818e-06
0000f0 00 00 80 b0 00 60 b0 b5 00 b0 f0 b6 00 d0 2c b7
       -9.313226e-10 -1.3140962e-06 -7.1730465e-06 -1.0300428e-05
000100 00 99 3a b8 00 0f 1f b9 80 be 04 b9 40 5e a7 b9
       -4.4488348e-05 -0.0001516901 -0.00012659468 -0.00031922944
000110 80 6e f8 b9 10 1f 7b b9 80 1d 8f b9 e0 38 eb b9
       -0.00047384575 -0.00023948797 -0.00027297065 -0.00044865068
000120 80 19 fb b9 00 8f ac b9 80 90 9e b9 a0 7b a1 b9
       -0.0004789345 -0.0003291294 -0.0003024377 -0.0003080042
000130 80 f1 86 b9 00 8c 11 b9 40 cd 97 b8 00 7c 06 b8
       -0.00025738403 -0.00013880432 -7.238472e-05 -3.2063574e-05
000140 00 20 21 b6 00 00 90 b2 00 00 00 00 00 00 00 00
       -2.4009496e-06 -1.6763806e-08 0.0 0.0
000150 00 00 00 00 00 00 00 00 00 00 00 00 00 c8 60 b7
       0.0 0.0 0.0 -1.3398007e-05
000160 00 90 43 b7 00 b6 8b b7 00 a8 ef b7 00 87 2a b9
       -1.1656433e-05 -1.6654842e-05 -2.8569251e-05 -0.00016262755
000170 a0 0b 9d b9 40 c4 18 ba 20 6d 81 ba fa c7 c9 ba
       -0.00029954035 -0.00058275834 -0.0009874441 -0.0015394681
000180 80 32 04 bb 28 fe 1a bb 18 1b 3f bb 60 bb 43 bb
       -0.0020171702 -0.0023650024 -0.0029160436 -0.0029866323
000190 d0 a2 1e bb a0 5f 33 bb a0 6a 63 bb 20 2a 49 bb
       -0.002420593 -0.002737023 -0.0034701005 -0.0030695274
0001a0 c0 c5 cd ba 98 ab 8e ba 00 37 29 ba 28 5b a9 b9
       -0.0015699193 -0.0010884879 -0.0006455034 -0.0003230211
0001b0 20 ca 32 b9 80 e8 d9 b7 00 c0 df b4 00 00 00 00
       -0.000170507 -2.5976682e-05 -4.1676685e-07 0.0
0001c0 00 00 00 00 00 00 80 b0 00 80 67 b5 00 a0 bb b5
       0.0 -9.313226e-10 -8.624047e-07 -1.3979152e-06
0001d0 00 30 28 b7 00 6a c4 b8 c0 68 cb b9 30 84 a1 ba
       -1.0024756e-05 -9.365752e-05 -0.00038797222 -0.001232272
0001e0 e0 9c e3 ba e0 41 32 bb cf 44 92 bb 5c 75 b9 bb
       -0.0017365478 -0.002719991 -0.004463769 -0.0056597423
0001f0 86 30 09 bc 4c dd 21 bc d4 54 31 bc 6c 5f 44 bc
       -0.008373385 -0.009879421 -0.010823447 -0.011985641
000200 ca 34 39 bc 99 6d 1c bc 70 5b 05 bc f8 20 e4 bb
       -0.01130409 -0.0095476145 -0.008139476 -0.006961938
000210 98 b3 8d bb c0 2c 42 bb f0 6e d6 ba a8 b7 48 ba
       -0.0043243878 -0.0029628724 -0.0016359966 -0.00076567614
000220 00 c6 bb b9 c0 88 53 b8 00 00 7c b3 00 00 00 00
       -0.0003581494 -5.043368e-05 -5.8673322e-08 0.0
000230 00 00 00 00 00 00 00 00 00 00 f6 b4 00 3d 85 b7
       0.0 0.0 -4.582107e-07 -1.588324e-05
000240 00 dd ad b8 a0 bb de b9 72 89 c5 ba e0 14 19 bb
       -8.290447e-05 -0.0004248293 -0.0015070869 -0.002335839
000250 b0 c3 68 bb 30 ca a4 bb 70 0e e3 bb 4c b0 19 bc
       -0.003551703 -0.0050289854 -0.0069292113 -0.009380411
000260 78 af 5c bc b0 eb 84 bc 1a 75 b6 bc bc 46 eb bc
       -0.013469569 -0.016225666 -0.022272635 -0.028720252
000270 f2 e1 e4 bc 7c f0 dc bc bb ab bf bc a2 4c 81 bc
       -0.02793977 -0.02697014 -0.023397317 -0.015783612
000280 78 93 11 bc 90 58 8f bb c8 53 20 bb b0 08 8e ba
       -0.008885257 -0.004374571 -0.0024464 -0.0010836329
000290 00 00 c9 b9 80 6b ca b8 80 43 a6 b7 00 00 00 00
       -0.00038337708 -9.652134e-05 -1.9820174e-05 0.0
0002a0 00 00 00 00 00 00 00 00 00 10 ca b6 00 e2 9f b8
       0.0 0.0 -6.0219318e-06 -7.6238066e-05
0002b0 00 7a 80 b9 c0 a2 86 ba 58 1e 26 bb 50 1c 4e bb
       -0.0002450496 -0.0010271892 -0.0025347676 -0.003144998
0002c0 48 26 93 bb 10 3a e7 bb 38 5d 1c bc 82 b6 67 bc
       -0.0044906475 -0.007056482 -0.009543709 -0.014142634
0002d0 5f 1e 96 bc eb 44 d4 bc fa 90 08 bd 60 95 20 bd
       -0.018325029 -0.025911769 -0.033341385 -0.039204955
0002e0 dc a7 23 bd d4 2b 18 bd 2c 91 03 bd 26 3c de bc
       -0.039955005 -0.037151173 -0.03212087 -0.02712829
0002f0 e8 b1 a3 bc a0 4c 21 bc 98 ff 96 bb 80 9d 08 bb
       -0.019982293 -0.009844929 -0.004608106 -0.002084583
000300 00 3b 62 ba 80 c9 e8 b9 00 f8 f2 b8 00 00 00 00
       -0.00086300075 -0.00044400617 -0.00011585653 0.0
000310 00 00 00 00 00 80 1e b5 00 08 ab b8 80 86 87 b9
       0.0 -5.904585e-07 -8.1554055e-05 -0.00025849417
000320 60 13 4c ba c0 92 be ba d0 0d 3a bb 40 8c 8a bb
       -0.00077848695 -0.0014539585 -0.002838958 -0.004228145
000330 f0 c6 f5 bb bc 75 32 bc 1a 16 80 bc 72 37 b6 bc
       -0.007500522 -0.010892328 -0.015635539 -0.022243235
000340 44 90 f6 bc 1a 84 0c bd 2f 56 16 bd d4 82 12 bd
       -0.030098088 -0.03430567 -0.036703285 -0.0357693
000350 b1 22 0e bd 78 5c 05 bd dc ce fc bc 58 3a f1 bc
       -0.034701053 -0.03255889 -0.030860357 -0.029446766
000360 60 1e d5 bc cc 96 8e bc 10 c7 09 bc 61 a1 86 bb
       -0.02601546 -0.01740589 -0.008409277 -0.0041085933
000370 40 c6 9b ba 00 18 84 b9 00 d8 44 b8 00 00 00 00
       -0.0011884645 -0.00025194883 -4.6931207e-05 0.0
000380 00 00 00 00 00 00 64 b2 80 f6 78 b8 40 7f fe b9
       0.0 -1.3271347e-08 -5.935738e-05 -0.00048541464
000390 d0 f4 9f ba 58 53 e9 ba a0 44 6a bb 18 91 fa bb
       -0.0012203697 -0.0017801328 -0.003574647 -0.007646691
0003a0 10 5b 43 bc a6 36 8a bc 71 9d cd bc d4 2d 02 bd
       -0.011923566 -0.016871762 -0.025099488 -0.031781986
0003b0 0c 22 08 bd c9 d0 05 bd d7 12 fd bc 88 ac da bc
       -0.033235595 -0.032669816 -0.030892773 -0.026693597
0003c0 a0 d5 d9 bc d0 29 de bc 64 37 de bc dc bd dd bc
       -0.026591122 -0.027119547 -0.027126022 -0.027068071
0003d0 22 65 dc bc 54 67 ae bc 10 75 61 bc b8 77 b7 bb
       -0.026903693 -0.021289505 -0.01376082 -0.0055989884
0003e0 00 32 b3 ba 00 31 c9 b9 80 17 99 b8 00 40 a2 b5
       -0.0013671517 -0.00038374215 -7.299986e-05 -1.2088567e-06
0003f0 00 00 00 00 00 00 0b b5 c0 3a 8d b7 80 54 06 ba
       0.0 -5.1781535e-07 -1.6835867e-05 -0.0005124286

fc.bias f4 [10]
000000 3a c4 93 bd 80 0c 0d bb 3d 51 4c 3d b2 e6 09 3d
       -0.072151616 -0.0021522343 0.049882162 0.033667274
000010 b6 b8 69 bd 60 0b 24 bd 96 82 4c 3d 30 90 8a bc
       -0.05706092 -0.04004991 0.049929224 -0.016914457
000020 e8 0b da bd d7 30 25 3e
       -0.10646802 0.16131912
