runs/benign/20250814-104251/updates/round_3_node_7_delta.pt (torch, 33357 bytes, 2 tensors)

fc.weight f4 [10, 784]
000000 00 00 00 00 00 00 00 00 00 00 00 00 00 00 00 00
       0.0 0.0 0.0 0.0
000010 00 00 00 00 00 00 00 00 00 00 00 00 00 00 00 00
       0.0 0.0 0.0 0.0
000020 00 00 00 00 00 00 00 00 00 00 00 00 00 00 00 00
       0.0 0.0 0.0 0.0
000030 00 00 00 00 00 00 00 00 00 00 00 00 00 00 00 00
       0.0 0.0 0.0 0.0
000040 00 00 00 00 00 00 00 00 00 00 00 00 00 00 00 00
       0.0 0.0 0.0 0.0
000050 00 00 00 00 00 00 00 00 00 00 00 00 00 00 00 00
       0.0 0.0 0.0 0.0
000060 00 00 00 00 00 00 00 00 00 00 00 00 00 00 00 00
       0.0 0.0 0.0 0.0
000070 00 00 00 00 00 00 00 00 00 00 00 00 00 00 00 00
       0.0 0.0 0.0 0.0
000080 00 00 00 00 00 00 00 00 00 c0 19 b4 00 00 84 b4
       0.0 0.0 -1.4319085e-07 -2.4586916e-07
000090 00 c0 a1 b5 00 20 c5 b6 00 30 38 b7 00 20 ef b6
       -1.2051314e-06 -5.874783e-06 -1.09784305e-05 -7.1264803e-06
0000a0 00 70 0d b6 00 f0 e8 b6 00 b0 14 b7 00 48 c4 b7
       -2.107583e-06 -6.9420785e-06 -8.862466e-06 -2.3398548e-05
0000b0 00 68 9c b7 00 f8 42 b7 00 20 6e b7 00 00 3e b7
       -1.8645078e-05 -1.1621043e-05 -1.4193356e-05 -1.13248825e-05
0000c0 00 e4 af b6 00 40 c4 b5 00 00 00 00 00 00 00 00
       -5.241949e-06 -1.4621764e-06 0.0 0.0
0000d0 00 00 00 00 00 00 00 00 00 00 00 00 00 00 00 00
       0.0 0.0 0.0 0.0
0000e0 00 00 00 00 00 00 00 00 00 00 00 b1 00 e0 0d b6
       0.0 0.0 -1.8626451e-09 -2.1141022e-06
0000f0 00 00 00 b2 00 00 d3 b5 00 44 15 b7 00 46 a1 b7
       -7.450581e-09 -1.5720725e-06 -8.896925e-06 -1.9225292e-05
000100 80 8b 42 b8 40 f9 5e b9 c0 8d 49 b9 80 64 ae b9
       -4.6383124e-05 -0.00021264423 -0.0001922166 -0.00033262745
000110 c0 13 0a ba d4 fd b8 b9 00 30 e1 b9 50 88 1b ba
       -0.0005267225 -0.00035284332 -0.00042951107 -0.0005933093
000120 20 cc 20 ba 00 63 ef b9 00 51 cb b9 c0 d2 c6 b9
       -0.00061339326 -0.00045659393 -0.00038779527 -0.00037922524
000130 40 01 a6 b9 00 ca 31 b9 00 16 c5 b8 00 2d 1d b8
       -0.0003166292 -0.00016955286 -9.39779e-05 -3.7473626e-05
000140 00 80 70 b6 00 00 c0 b2 00 00 00 00 00 00 00 00
       -3.5837293e-06 -2.2351742e-08 0.0 0.0
000150 00 00 00 00 00 00 00 00 00 00 00 b2 00 86 8d b7
       0.0 0.0 -7.450581e-09 -1.6870908e-05
000160 00 20 76 b7 00 2a b5 b7 00 64 36 b8 00 e9 5c b9
       -1.4670193e-05 -2.159644e-05 -4.3485314e-05 -0.00021067634
000170 e0 54 da b9 a0 2c 3b ba 80 29 8a ba 63 13 e4 ba
       -0.00041643437 -0.00071401335 -0.0010540932 -0.0017400797
000180 a8 33 1b bb 7d 97 3a bb 80 c5 5d bb 60 af 5d bb
       -0.0023681913 -0.0028471642 -0.0033839643 -0.0033826455
000190 ac 8a 44 bb f0 5e 49 bb 50 68 68 bb a8 e9 52 bb
       -0.0029989881 -0.0030726753 -0.0035462566 -0.0032182727
0001a0 20 c5 f2 ba 84 6c ab ba 80 61 52 ba 86 5c e1 b9
       -0.0018521883 -0.0013078605 -0.0008025393 -0.0004298428
0001b0 c0 0f 77 b9 00 2e 1e b8 00 e0 6a b5 00 00 00 00
       -0.00023561623 -3.7712976e-05 -8.7497756e-07 0.0
0001c0 00 00 00 00 00 00 00 b2 00 c0 bd b5 00 f0 d7 b5
       0.0 -7.450581e-09 -1.4137477e-06 -1.6088597e-06
0001d0 00 80 74 b7 00 e0 04 b9 00 a0 ea b9 a0 b3 b4 ba
       -1.4573336e-05 -0.00012671947 -0.00044751167 -0.0013786443
0001e0 10 9c 00 bb f8 1d 3e bb ee 6c 9a bb 2b 02 c9 bb
       -0.001962427 -0.0029009562 -0.0047126925 -0.0061342916
0001f0 57 b8 0c bc 82 e7 26 bc 06 19 2c bc d2 1f 36 bc
       -0.008588872 -0.010187032 -0.010504013 -0.011115985
000200 e2 5b 1d bc 6a 4b f2 bb c8 7e ca bb e3 7d cb bb
       -0.009604426 -0.007394244 -0.0061796643 -0.006210075
000210 cc 2a 87 bb 00 d9 56 bb 38 8c f2 ba d8 39 68 ba
       -0.004124975 -0.003278315 -0.0018504923 -0.0008858717
000220 c0 78 e3 b9 20 77 88 b8 00 00 05 b4 00 00 00 00
       -0.0004338678 -6.507174e-05 -1.238659e-07 0.0
000230 00 00 00 00 00 00 00 00 00 00 78 b5 00 93 cc b7
       0.0 0.0 -9.23872e-07 -2.4387147e-05
000240 00 8a fa b8 90 7c 08 ba 08 26 de ba 50 ec 2b bb
       -0.000119466335 -0.00052065495 -0.001694859 -0.0026233383
000250 20 c5 7e bb c0 a7 ab bb 64 0a e9 bb 9c a7 1e bc
       -0.003887482 -0.005238503 -0.0071118344 -0.009683516
000260 a2 02 5b bc 50 a9 7b bc a4 31 a0 bc bc 57 c8 bc
       -0.013367327 -0.015360191 -0.01955492 -0.024455898
000270 80 a3 c1 bc c4 67 b6 bc aa 92 9c bc 66 b5 51 bc
       -0.023637533 -0.022266276 -0.019112904 -0.012799596
000280 74 69 e5 bb 40 a6 7b bb 00 b1 2a bb a8 40 a0 ba
       -0.0070010964 -0.0038398653 -0.0026045442 -0.00122263
000290 80 25 f3 b9 90 6f fe b8 40 f9 df b7 00 00 00 00
       -0.0004637651 -0.00012132444 -2.6699738e-05 0.0
0002a0 00 00 00 00 00 00 00 00 00 f8 04 b7 00 f1 f0 b8
       0.0 0.0 -7.925555e-06 -0.000114889815
0002b0 80 1c b4 b9 60 a6 a0 ba 60 c0 37 bb c8 99 65 bb
       -0.0003435351 -0.0012256615 -0.0028038248 -0.0035034288
0002c0 88 92 a3 bb 80 c6 ef bb f0 ff 23 bc 22 bc 68 bc
       -0.004991833 -0.007317364 -0.010009751 -0.014205011
0002d0 8c 27 8d bc 8c 28 c3 bc 70 2d f8 bc f7 1e 10 bd
       -0.017230771 -0.023823045 -0.030295104 -0.03518578
0002e0 05 08 11 bd d4 cc 05 bd 34 a0 e5 bc 55 32 be bc
       -0.03540804 -0.032666042 -0.028030492 -0.02321736
0002f0 85 51 87 bc b8 4a f5 bb 68 9e 7a bb 40 75 0f bb
       -0.016518364 -0.007485714 -0.003824139 -0.0021889955
000300 80 66 80 ba 00 a7 ff b9 00 2f 13 b9 00 00 00 00
       -0.0009796172 -0.00048761815 -0.00014036521 0.0
000310 00 00 00 00 00 40 94 b5 00 b3 c4 b8 40 71 a3 b9
       0.0 -1.1045486e-06 -9.37935e-05 -0.0003117416
000320 98 37 76 ba d0 22 e1 ba 80 5f 49 bb 5c 0c 98 bb
       -0.00093924394 -0.0017176513 -0.0030727088 -0.004640145
000330 24 9e 01 bc 9c 25 38 bc 7b 2f 80 bc 96 7e aa bc
       -0.007911239 -0.0112394355 -0.01564764 -0.020812314
000340 e6 58 e2 bc 57 2f 00 bd ad de 08 bd d0 5f 06 bd
       -0.02763028 -0.031295147 -0.033415485 -0.032806218
000350 90 92 02 bd 9c 66 f3 bc b4 26 e2 bc 68 af d3 bc
       -0.031878054 -0.029712014 -0.027606346 -0.025840476
000360 c8 36 b8 bc 49 85 68 bc 8c 34 d4 bb 34 7a 71 bb
       -0.02248706 -0.014191934 -0.0064759906 -0.003684652
000370 e0 b8 9f ba 80 5c 92 b9 00 3c 7f b8 00 00 00 00
       -0.0012185834 -0.00027916208 -6.0852617e-05 0.0
000380 00 00 00 00 00 00 28 b3 00 38 b3 b8 ff 70 1b ba
       0.0 -3.9115548e-08 -8.545816e-05 -0.00059296185
000390 30 a1 c0 ba 48 84 0b bb 00 f5 7e bb 1e 70 02 bc
       -0.0014696475 -0.0021288563 -0.0038903356 -0.007961301
0003a0 48 21 47 bc 5a d3 89 bc 32 e4 be bc f6 cf ee bc
       -0.012153931 -0.016824413 -0.023302171 -0.029151898
0003b0 d0 69 f8 bc c0 9b f1 bc fb a5 e3 bc 1e a4 c9 bc
       -0.030323893 -0.029493213 -0.027789107 -0.02461439
0003c0 d4 f5 cc bc 50 d4 d1 bc d8 44 ce bc b8 3a c2 bc
       -0.025019564 -0.025613934 -0.025179312 -0.02370964
0003d0 b2 ca c2 bc 82 e2 95 bc 7e 22 30 bc a0 6b 78 bb
       -0.023778293 -0.018296484 -0.010750411 -0.0037905946
0003e0 80 d3 b6 ba 80 26 f7 b9 00 e8 d7 b8 00 e0 34 b6
       -0.001394853 -0.00047140196 -0.00010295212 -2.6952475e-06
0003f0 00 00 00 00 00 80 d4 b5 60 f6 3d b8 a0 c9 24 ba
       0.0 -1.5832484e-06 -4.5290566e-05 -0.0006286148

fc.bias f4 [10]
000000 05 ee 93 bd 40 0c 06 3c e4 ff 27 3d 54 41 d8 3c
       -0.07223133 0.008181632 0.04101552 0.026398338
000010 58 ac 60 bd 90 6c f3 bc d5 6e 41 3d 70 ea 11 bc
       -0.05485186 -0.029714853 0.04722484 -0.008905992
000020 90 7c e0 bd fe 27 1c 3e
       -0.109612584 0.15249631
