runs/benign/20250814-104251/updates/round_4_node_1_delta.pt (torch, 33357 bytes, 2 tensors)

fc.weight f4 [10, 784]
0	0x00000000	0.0
1	0x00000000	0.0
2	0x00000000	0.0
3	0x00000000	0.0
4	0x00000000	0.0
5	0x00000000	0.0
6	0x00000000	0.0
7	0x00000000	0.0
8	0x00000000	0.0
9	0x00000000	0.0
10	0x00000000	0.0
11	0x00000000	0.0
12	0x00000000	0.0
13	0x00000000	0.0
14	0x00000000	0.0
15	0x00000000	0.0
16	0x00000000	0.0
17	0x00000000	0.0
18	0x00000000	0.0
19	0x00000000	0.0
20	0x00000000	0.0
21	0x00000000	0.0
22	0x00000000	0.0
23	0x00000000	0.0
24	0x00000000	0.0
25	0x00000000	0.0
26	0x00000000	0.0
27	0x00000000	0.0
28	0x00000000	0.0
29	0x00000000	0.0
30	0x00000000	0.0
31	0x00000000	0.0
32	0x00000000	0.0
33	0x00000000	0.0
34	0x00000000	0.0
35	0x00000000	0.0
36	0x00000000	0.0
37	0x00000000	0.0
38	0x00000000	0.0
39	0x39818dc0	0.0002471041
40	0x3a0008d0	0.00048841257
41	0x39528600	0.0002007708
42	0x00000000	0.0
43	0x00000000	0.0
44	0x00000000	0.0
45	0x00000000	0.0
46	0x00000000	0.0
47	0x00000000	0.0
48	0x00000000	0.0
49	0x00000000	0.0
50	0x00000000	0.0
51	0x00000000	0.0
52	0x00000000	0.0
53	0x00000000	0.0
54	0x00000000	0.0
55	0x00000000	0.0
56	0x00000000	0.0
57	0x00000000	0.0
58	0x00000000	0.0
59	0x37032000	7.815659e-06
60	0x36350000	2.6971102e-06
61	0x00000000	0.0
62	0x37331800	1.0674819e-05
63	0x39115680	0.00013860501
64	0x380f8c00	3.4224242e-05
65	0x00000000	0.0
66	0x00000000	0.0
67	0x393a3c00	0.00017760694
68	0x39e9cd00	0.0004459396
69	0x3a125b3e	0.0005583054
70	0x394f3300	0.00019760057
71	0x38bb3b00	8.9278445e-05
72	0xb9636900	-0.00021687523
73	0xbb8b5c40	-0.0042529404
74	0xbb9131a4	-0.0044309665
75	0xbaa56a10	-0.001262011
76	0xba3912d0	-0.0007059993
77	0xba41c400	-0.0007391572
78	0xb8212d00	-3.84273e-05
79	0x00000000	0.0
80	0x00000000	0.0
81	0x00000000	0.0
82	0x00000000	0.0
83	0x00000000	0.0
84	0x00000000	0.0
85	0x00000000	0.0
86	0x00000000	0.0
87	0xb8c37b00	-9.321235e-05
88	0xbadae9b0	-0.0016701724
89	0x36e2e800	6.762333e-06
90	0x36d56000	6.3590705e-06
91	0x39593100	0.00020712987
92	0x3a685230	0.00088623445
93	0xbae4a040	-0.0017442778
94	0xbb8b8600	-0.0042579174
95	0xbac354c0	-0.0014902577
96	0x3b366998	0.0027833935
97	0x3c156aac	0.009119671
98	0x3ae02ea0	0.0017103739
99	0xbbddcf18	-0.0067690723
100	0xbc4e0300	-0.012573957
101	0xbc835f8a	-0.016036768
102	0xbcdea79f	-0.027179537
103	0xbce79aa9	-0.02827199
104	0xbc9d4a1a	-0.019200373
105	0xbc70b6a0	-0.014691979
106	0xbbfc3a84	-0.0076974053
107	0xbb72e478	-0.0037062448
108	0xbaea156c	-0.0017859167
109	0x37db2800	2.612546e-05
110	0x00000000	0.0
111	0x00000000	0.0
112	0x00000000	0.0
113	0x00000000	0.0
114	0x00000000	0.0
115	0xb9473a68	-0.00018999877
116	0x356f0000	8.903444e-07
117	0x3627c000	2.4996698e-06
118	0x39f1a840	0.00046092458
119	0xb9f27ac0	-0.00046249293
120	0xbbd54508	-0.0065084733
121	0xbbb02c2c	-0.0053763594
122	0x3c1584fa	0.009125942
123	0x3c5d5a73	0.013510334
124	0x3c8acbbe	0.016942855
125	0x3d15a8ab	0.036537807
126	0x3d1ead64	0.038739577
127	0x3d104493	0.035221647
128	0x3c3af9fa	0.011412138
129	0x3be99730	0.0071286187
130	0xbc1750b4	-0.00923555
131	0xbc0e861a	-0.0086989645
132	0xbcb8a5d3	-0.022540009
133	0xbcd4bb5d	-0.025968248
134	0xbc499f3d	-0.012306032
135	0xbc811518	-0.015757129
136	0xbc46d93d	-0.012136755
137	0xbb4cfb50	-0.0031277724
138	0xba9fced8	-0.0012192382
139	0x00000000	0.0
140	0x00000000	0.0
141	0x00000000	0.0
142	0x00000000	0.0
143	0xbacef514	-0.0015789592
144	0xb5c8c000	-1.495704e-06
145	0x3918aaa0	0.00014559412
146	0x3b019672	0.001977351
147	0x3b0ea7ac	0.002176742
148	0xbb408560	-0.0029376373
149	0xbc19c450	-0.009385183
150	0x3c4064ee	0.0117428135
151	0x3c9c6b81	0.01909423
152	0x3d12d408	0.03584674
153	0x3d818ff0	0.06326282
154	0x3dbd871f	0.09254288
155	0x3dc4a64a	0.096020296
156	0x3d9bb971	0.076037295
157	0x3d81050a	0.06299789
158	0x3d627c14	0.05529411
159	0x3d29f04e	0.041488938
160	0x3c8a8d8a	0.016913194
161	0x3c7d9778	0.0154780075
162	0xbc2829c8	-0.010263868
163	0xbcfa3e0e	-0.030547168
164	0xbcde0ffc	-0.027107231
165	0xbc5c0085	-0.013427858
166	0xbb1806ce	-0.0023197415
167	0xbaa2e2b8	-0.0012427187
168	0x00000000	0.0
169	0x00000000	0.0
170	0x00000000	0.0
171	0xb839aa00	-4.4265762e-05
172	0xb761e800	-1.3465062e-05
173	0x39d261c0	0.0004012715
174	0x3af5f460	0.0018764846
175	0xbb230db8	-0.0024880003
176	0xbcdfecca	-0.02733459
177	0xbc6ca4d8	-0.014443599
178	0x3c92f536	0.017939191
179	0x3d038ab6	0.032114707
180	0x3ccb6fe4	0.024833627
181	0x3d9dbfab	0.077025734
182	0x3dc8cc6d	0.09804616
183	0x3dd89fe0	0.10577369
184	0x3dd587e1	0.104263075
185	0x3da99518	0.082803905
186	0x3dacc1d6	0.08435409
187	0x3d68315c	0.056687698
188	0x3d25f54c	0.040517136
189	0x3d64e5f1	0.05588335
190	0x3d2530b5	0.040329654
191	0xbc8353f8	-0.01603125
192	0xbd4a9554	-0.049458817
193	0xbd080eda	-0.03321729
194	0xbc918da7	-0.01776774
195	0xbbacb9ac	-0.0052711572
196	0x00000000	0.0
197	0x00000000	0.0
198	0x00000000	0.0
199	0xb91cbf80	-0.00014948659
200	0xb9ac3d00	-0.00032851845
201	0xb9e91400	-0.00044456124
202	0xb9f64780	-0.00046974048
203	0xbc5475fc	-0.012967583
204	0xbcd7af8a	-0.02632882
205	0x3b9c80a4	0.0047760773
206	0x3d1cfd70	0.038327634
207	0x3d1cb249	0.038255963
208	0x3d4f56da	0.050619937
209	0x3d40600f	0.04696661
210	0x3d652562	0.055943854
211	0x3d9fc8b9	0.07801957
212	0x3d9a9e50	0.07549727
213	0x3db76d7e	0.08956431
214	0x3dc169e6	0.09444027
215	0x3d6e4ebe	0.058180563
216	0x3cc0da3c	0.023541562
217	0x3d074045	0.033020277
218	0x3d1fc954	0.03901036
219	0x3c84d51a	0.016214896
220	0xbd0915e1	-0.03346813
221	0xbd1dac68	-0.038494498
222	0xbc2bd718	-0.010488294
223	0xba866960	-0.0010254793
224	0x3a4925a0	0.0007673148
225	0x00000000	0.0
226	0x37a09e00	1.914706e-05
227	0xb8ffd1f0	-0.000121984514
228	0xb9bc18c0	-0.00035876594
229	0xbbc11cc0	-0.00589332
230	0xbc3fe490	-0.011712208
231	0xbc8d3708	-0.017238155
232	0xbbc14548	-0.0058981515
233	0x3cb239f7	0.021756155
234	0x3cdcce0d	0.026953721
235	0x3ccc978b	0.024974605
236	0x3c537868	0.012907125
237	0x3c104108	0.008804567
238	0x3d12a95a	0.035806037
239	0x3d671668	0.056417853
240	0x3daf2b18	0.08553141
241	0x3db978a1	0.09056211
242	0x3dbf9c2b	0.093559586
243	0x3d62d406	0.055377983
244	0x3cf70ff8	0.030158982
245	0x3ca3c1f2	0.019989941
246	0x3d88b191	0.06674493
247	0x3d8577ba	0.06516977
248	0x3bcf6b68	0.0063299425
249	0xbcee9b68	-0.029126838
250	0xbc3f7f94	-0.011688132
251	0xb88de900	-6.7668036e-05
252	0x00000000	0.0
253	0x00000000	0.0
254	0x3a35f762	0.0006941465
255	0x375f5800	1.3312325e-05

fc.bias f4 [10]
0	0x3d7095e0	0.058736682
1	0xbd7407b0	-0.059577644
2	0xbd413540	-0.047169924
3	0xbd8a3bea	-0.06749709
4	0xbcae8ffe	-0.021308895
5	0x3ec58bb8	0.3858316
6	0xbd7c1bf8	-0.06155011
7	0xbd31c020	-0.043396115
8	0xbdbfc818	-0.09364337
9	0xbd4e8a9c	-0.050425157
