runs/benign/20250814-104251/updates/round_1_node_3_delta.pt (torch, 33357 bytes, 2 tensors)

fc.weight f4 [10, 784]
0	0x00000000	0.0
1	0x00000000	0.0
2	0x00000000	0.0
3	0x00000000	0.0
4	0x00000000	0.0
5	0x00000000	0.0
6	0x00000000	0.0
7	0x00000000	0.0
8	0x00000000	0.0
9	0x00000000	0.0
10	0x00000000	0.0
11	0x00000000	0.0
12	0xb6917000	-4.3343753e-06
13	0xb71f3800	-9.490177e-06
14	0x00000000	0.0
15	0x00000000	0.0
16	0x00000000	0.0
17	0x00000000	0.0
18	0x00000000	0.0
19	0x00000000	0.0
20	0x00000000	0.0
21	0x00000000	0.0
22	0x00000000	0.0
23	0x00000000	0.0
24	0x00000000	0.0
25	0x00000000	0.0
26	0x00000000	0.0
27	0x00000000	0.0
28	0x00000000	0.0
29	0x00000000	0.0
30	0x00000000	0.0
31	0x00000000	0.0
32	0x00000000	0.0
33	0x00000000	0.0
34	0x00000000	0.0
35	0x00000000	0.0
36	0x00000000	0.0
37	0x00000000	0.0
38	0x00000000	0.0
39	0x00000000	0.0
40	0xb6d01800	-6.201677e-06
41	0xb6d2a000	-6.277114e-06
42	0xb75e3000	-1.3243407e-05
43	0xb7dd8800	-2.6408583e-05
44	0xb6f3b000	-7.2624534e-06
45	0xb72e7000	-1.0397285e-05
46	0xb7243000	-9.786338e-06
47	0x00000000	0.0
48	0x00000000	0.0
49	0x00000000	0.0
50	0x00000000	0.0
51	0x00000000	0.0
52	0x00000000	0.0
53	0x00000000	0.0
54	0x00000000	0.0
55	0x00000000	0.0
56	0x00000000	0.0
57	0x00000000	0.0
58	0x00000000	0.0
59	0x00000000	0.0
60	0x00000000	0.0
61	0x00000000	0.0
62	0xb7924000	-1.7434359e-05
63	0xb87d8000	-6.043911e-05
64	0xb8527d80	-5.0184783e-05
65	0xb8548780	-5.0670933e-05
66	0xb8c8fc00	-9.583682e-05
67	0xb9261d00	-0.00015841797
68	0xb9447d00	-0.00018738583
69	0xb997e8c0	-0.00028974377
70	0xb9854f80	-0.0002542697
71	0xb949d700	-0.00019248948
72	0xb98475c0	-0.00025264733
73	0xb9906b00	-0.00027545542
74	0xb9afd480	-0.00033536926
75	0xb9515b00	-0.00019965693
76	0xb8f6c700	-0.00011767261
77	0xb8fa1200	-0.00011924282
78	0xb8c9bcc0	-9.619584e-05
79	0xb7b87600	-2.1989457e-05
80	0x00000000	0.0
81	0x00000000	0.0
82	0x00000000	0.0
83	0x00000000	0.0
84	0x00000000	0.0
85	0x00000000	0.0
86	0x00000000	0.0
87	0x00000000	0.0
88	0xb2c00000	-2.2351742e-08
89	0xb7871600	-1.6103499e-05
90	0xb906f200	-0.00012869388
91	0xb9ab6a80	-0.0003269501
92	0xb9e91ae0	-0.00044461247
93	0xba3df040	-0.0007245578
94	0xba847520	-0.0010105707
95	0xbaa90034	-0.0012893737
96	0xbaec8930	-0.0018046256
97	0xbb0d9c52	-0.0021608067
98	0xbaf53c1c	-0.0018709931
99	0xbb05ab20	-0.0020396188
100	0xbaf6de70	-0.0018834602
101	0xbad41900	-0.0016181767
102	0xbaac8500	-0.0013162196
103	0xba707798	-0.00091730943
104	0xba1c5640	-0.000596378
105	0xb9a4a390	-0.0003140238
106	0xb9415d00	-0.0001844056
107	0xb8b23d60	-8.4991334e-05
108	0xb82cad00	-4.1169114e-05
109	0xb659fc00	-3.2482203e-06
110	0x00000000	0.0
111	0x00000000	0.0
112	0x00000000	0.0
113	0x00000000	0.0
114	0xb3940000	-6.891787e-08
115	0x00000000	0.0
116	0xb6f7c000	-7.3835254e-06
117	0xb917af00	-0.00014465675
118	0xb98e5480	-0.00027147308
119	0xb9f00200	-0.00045777857
120	0xba4d4c80	-0.0007831529
121	0xbaca4ed0	-0.0015434865
122	0x39dbbf28	0.00041913358
123	0xba182150	-0.0005803304
124	0xba287210	-0.0006425688
125	0xbba0eb8a	-0.004910891
126	0xbbfb3f64	-0.007667469
127	0xbbed30b4	-0.007238472
128	0xbc0c4656	-0.008561691
129	0xbbe67278	-0.0070326887
130	0xbbacd558	-0.005274456
131	0xbb877f26	-0.0041350303
132	0xbb430057	-0.0029754841
133	0xbb03356c	-0.0020020856
134	0xba929078	-0.0011181971
135	0xba1cb640	-0.0005978085
136	0xb9adee60	-0.00033174735
137	0xb891d340	-6.953487e-05
138	0xb6c22000	-5.785376e-06
139	0x00000000	0.0
140	0x00000000	0.0
141	0x00000000	0.0
142	0x00000000	0.0
143	0xb4250000	-1.5366822e-07
144	0xb8186200	-3.6330894e-05
145	0xb97f8a40	-0.00024370197
146	0xba64c330	-0.0008726595
147	0xbac7f90d	-0.0015256718
148	0xbaffcb02	-0.0019515457
149	0x39ceaa80	0.00039418414
150	0x3b0ce054	0.0021496015
151	0xba8501f0	-0.0010147672
152	0xbb819cba	-0.003955451
153	0xbbb75048	-0.005594287
154	0xbc03e4dd	-0.008050171
155	0xbbe43648	-0.0069644786
156	0xbc213d25	-0.009841238
157	0xbc16c5ac	-0.009202402
158	0xbc071784	-0.008245353
159	0xbbae6d98	-0.005323123
160	0xbb76c938	-0.0037656557
161	0xbb81e0f0	-0.003963582
162	0xbb5a3954	-0.003329833
163	0xbb0ca87c	-0.002146273
164	0xba908a30	-0.0011027511
165	0xb9d77c70	-0.0004110071
166	0xb92b852c	-0.00016357441
167	0xb75fb800	-1.3334677e-05
168	0x00000000	0.0
169	0x00000000	0.0
170	0xb6762000	-3.6675483e-06
171	0xb6ada000	-5.174428e-06
172	0xb8fe1500	-0.000121155754
173	0xba2e6ff0	-0.0006654253
174	0xbad860e0	-0.0016508363
175	0xbb3d1e9c	-0.0028857356
176	0xb9a99980	-0.00032348558
177	0x3a2fc940	0.0006705709
178	0xbb227d60	-0.0024793968
179	0xbbdac878	-0.00667673
180	0xbbda0014	-0.0066528413
181	0xbbea6b20	-0.0071538836
182	0xbbfabfc0	-0.007652253
183	0xbc13d898	-0.009023808
184	0xbc0c68f4	-0.008569945
185	0xbc1c0dcc	-0.009524774
186	0xbc43abf4	-0.011942852
187	0xbc13397d	-0.008985874
188	0xbbc56fb8	-0.006025281
189	0xbb47c613	-0.0030483052
190	0xbba3e18c	-0.0050012525
191	0xbb8c1698	-0.0042751543
192	0xbb1d7028	-0.002402315
193	0xba8c5ab0	-0.0010708179
194	0xb9155c80	-0.00014244206
195	0xb7813800	-1.5404075e-05
196	0x00000000	0.0
197	0xb6084000	-2.0302832e-06
198	0xb808e400	-3.263727e-05
199	0xb88a2600	-6.587431e-05
200	0xb9baf170	-0.0003565657
201	0xba9865b0	-0.0011626985
202	0xbb31dd98	-0.0027140137
203	0xbb94e9cc	-0.0045444723
204	0xba6e8750	-0.00090991426
205	0xbb4b91f6	-0.0031062341
206	0xbbe7af38	-0.0070704482
207	0xbc0254d5	-0.007954796
208	0xbc167b69	-0.009184697
209	0xbc3efd5a	-0.011657083
210	0xbc59b38a	-0.013287434
211	0xbc67d52d	-0.014149946
212	0xbc63be92	-0.013900416
213	0xbc594db8	-0.0132631585
214	0xbc554ac8	-0.0130183175
215	0xbc6c3c54	-0.01441868
216	0xbc2d3f0c	-0.010574114
217	0xbbc5bb5c	-0.006034298
218	0xbbeb2584	-0.007176103
219	0xbbc2b97e	-0.0059425225
220	0xbb5505c8	-0.0032504667
221	0xba95f870	-0.0011441838
222	0xb9494880	-0.00019195862
223	0xb74f0000	-1.23381615e-05
224	0x00000000	0.0
225	0xb7565d00	-1.2777047e-05
226	0xb8f92600	-0.00011880323
227	0xb9b610a6	-0.0003472615
228	0xba62e660	-0.00086555444
229	0xbaed29c8	-0.0018094117
230	0xbb8ab3d8	-0.004232865
231	0xbb866bd0	-0.0041022077
232	0xbb6c01c0	-0.0036011785
233	0xbbb8efb8	-0.005643811
234	0xbbbf8cd4	-0.0058456454
235	0xbc1d4850	-0.00959976
236	0xbc4949fc	-0.012285706
237	0xbc5bbd7c	-0.013411876
238	0xbc6e75b1	-0.014554427
239	0xbc885f8e	-0.016647127
240	0xbc9c455a	-0.019076038
241	0xbca73991	-0.020413192
242	0xbc9d6128	-0.019211367
243	0xbca34e89	-0.01993491
244	0xbc7ca3ce	-0.015419913
245	0xbc2933e2	-0.010327311
246	0xbc1e0f8b	-0.00964726
247	0xbbf6b748	-0.007529173
248	0xbb993590	-0.0046755746
249	0xbb057040	-0.0020361096
250	0xb9c90c04	-0.0003834666
251	0xb7375000	-1.0926276e-05
252	0xb6297000	-2.5248155e-06
253	0xb79b6c00	-1.8527731e-05
254	0xb8f6fe50	-0.000117775635
255	0xba022140	-0.0004964061

fc.bias f4 [10]
0	0xbd8b2e80	-0.067959785
1	0x3e6ace21	0.22930194
2	0xbd813c69	-0.063103504
3	0xbde7f976	-0.11326878
4	0x3d26d642	0.040731676
5	0x3e8a7856	0.27044934
6	0xbd9f68d6	-0.07783668
7	0x3e3e75a0	0.18599558
8	0xbe88db92	-0.2673002
9	0xbe0c4c42	-0.13700965
