runs/benign/20250814-104251/updates/round_4_node_0_delta.pt (torch, 33357 bytes, 2 tensors)

fc.weight f4 [10, 784]
0.0 0.0 0.0 0.0 0.0 0.0 0.0 0.0
0.0 0.0 0.0 0.0 0.0 0.0 0.0 0.0
0.0 0.0 0.0 0.0 0.0 0.0 0.0 0.0
0.0 0.0 0.0 0.0 0.0 0.0 0.0 0.0
-1.3038516e-08 -5.3551048e-08 -3.8859434e-07 -1.4565885e-06 -5.206093e-06 -5.58421e-06 -1.3997778e-05 -1.1218712e-05
-1.7034821e-05 -1.9947067e-05 -6.550923e-05 -0.00023369491 -0.0004503848 -0.00021874718 -6.3795596e-05 -9.084493e-05
-7.6575205e-05 -2.9556453e-05 -7.996336e-06 -2.7939677e-09 0.0 0.0 0.0 0.0
0.0 0.0 0.0 0.0 -9.946525e-07 -2.5494955e-06 -0.00057731196 -0.0008670036
-0.0004345188 -0.0004031472 -0.00096354634 -0.0011012442 -0.0020498745 -0.0051233685 -0.00867822 -0.009247275
-0.006585298 -0.0051484667 -0.0029650275 -0.0025169216 -0.0015453296 -0.0007093586 -0.00021763006 -0.00010242686
-7.742643e-05 -2.2407621e-06 0.0 0.0 0.0 0.0 0.0 0.0
-0.00079682097 -0.0008247709 -0.0011410285 -0.0012078136 -0.0014849314 -0.0015332624 0.00047353283 -0.0029994084
-0.0070101283 -0.007986311 -0.009464417 -0.0084434375 -0.004957449 -0.0032886602 -0.0087315645 -0.009663759
-0.008922957 -0.008462185 -0.007364439 -0.005181046 -0.0025211195 -0.00052911625 -0.00011407491 0.0
0.0 0.0 -3.7252903e-07 -8.5347565e-06 -0.0013582557 -0.0023135878 -0.001425501 -0.0015611667
0.0007128529 0.0033122115 -0.00030840375 0.0005799839 0.015709992 0.015626855 0.0009265989 -0.0018805824
-0.0043908656 -0.0016731396 -0.018455803 -0.023720535 -0.005519001 -0.0041949376 -0.0077041825 -0.0055201496
-0.0053648176 -0.0007963865 -3.6407262e-05 0.0 0.0 0.0 -2.5536865e-06 -4.821457e-06
-0.0037483107 -0.0043464145 -0.005499149 -0.004781184 -0.0035162494 -0.003052082 0.00027482025 0.014257217
0.014039108 0.013662286 0.01228065 0.028219283 0.019614689 0.030585304 0.019388491 -0.005243011
-0.0019785706 0.0027954914 -0.0030193683 -0.012423886 -0.0103578605 -0.003163538 -0.00065066316 0.0
0.0 0.0 -5.029142e-08 -2.8051436e-06 -0.004916109 -0.004373722 -0.007008331 -0.012108201
-0.0030843131 -0.0059734434 0.0066237003 0.022329377 0.007207781 -0.0018518455 0.000512965 0.012636207
0.021527767 0.0391012 0.031110942 0.024840593 0.01616409 0.022223692 0.021223325 -0.0011940598
-0.007927708 -0.005710559 -0.0010281149 -3.2093376e-06 0.0 0.0 0.0 -3.3453107e-06
-0.0035706367 -0.0033704303 -0.00867172 -0.015683427 -0.011359699 -0.00014373846 0.011819098 0.017918056
0.00061361864 -0.00577721 0.0009142179 0.024562933 0.041859254 0.059066728 0.050514996 0.03130891
0.023117945 0.025631173 0.042916477 0.020818986 -0.000823874 -0.0049838386 -0.0016497448 -0.00023095403
0.0 -1.6405247e-05 0.0 -9.569805e-06 -0.0022362787 -0.0041958 -0.00815364 -0.014307227
-0.020947572 -0.0039217323 0.018060828 0.011399025 0.003496632 -0.0026401775 0.016771343 0.037221678
0.05325988 0.06702828 0.047657974 0.024768159 0.021520004 0.03192286 0.05294028 0.042987935
0.0052290633 -0.004370339 -0.0023352439 -0.0005235132 0.0 0.0 0.0 -0.0019436702
00000000: 0000 0000 0000 0000 0000 0000 0000 0000
00000010: 0000 0000 0000 0000 0000 0000 0000 0000
00000020: 0000 0000 0000 0000 0000 0000 0000 0000
00000030: 0000 0000 0000 0000 0000 0000 0000 0000
00000040: 0000 0000 0000 0000 0000 0000 0000 0000
00000050: 0000 0000 0000 0000 0000 0000 0000 0000
00000060: 0000 0000 0000 0000 0000 0000 0000 0000
00000070: 0000 0000 0000 0000 0000 0000 0000 0000
00000080: 0000 60b2 0000 66b3 00a0 d0b4 0080 c3b5
00000090: 00b0 aeb6 0060 bbb6 00d8 6ab7 0038 3cb7
000000a0: 00e6 8eb7 0054 a7b7 0062 89b8 000c 75b9
000000b0: a021 ecb9 805f 65b9 00ca 85b8 0084 beb8
000000c0: 0097 a0b8 00f0 f7b7 0028 06b7 0000 40b1
000000d0: 0000 0000 0000 0000 0000 0000 0000 0000
000000e0: 0000 0000 0000 0000 0000 0000 0000 0000
000000f0: 0080 85b5 0018 2bb6 c056 17ba a047 63ba
00000100: 20d0 e3b9 805d d3b9 8096 7cba a057 90ba
00000110: 3057 06bb eee1 a7bb 182f 0ebc e281 17bc
00000120: 7cc9 d7bb 78b4 a8bb e850 42bb f0f2 24bb
00000130: a88c caba 40f4 39ba a033 64b9 00ce d6b8
00000140: 0060 a2b8 0060 16b6 0000 0000 0000 0000
00000150: 0000 0000 0000 0000 0000 0000 0000 0000
00000160: c0e1 50ba 7035 58ba 908e 95ba 804f 9eba
00000170: 08a2 c2ba c0f7 c8ba 8044 f839 b991 44bb
00000180: 38b5 e5bb 04d9 02bc a410 1bbc 5856 0abc
00000190: 1972 a2bb 9086 57bb d60e 0fbc be54 1ebc
000001a0: 9831 12bc faa4 0abc 6451 f1bb c4c5 a9bb
000001b0: 5e39 25bb 64b4 0aba 803b efb8 0000 0000
000001c0: 0000 0000 0000 0000 0000 c8b4 8030 0fb7
000001d0: 8007 b2ba 909f 17bb e0d7 baba 10a0 ccba
000001e0: c0de 3a3a b011 593b 40b1 a1b9 100a 183a
000001f0: 3eb2 803c e403 803c 00e7 723a e07d f6ba
00000200: 40e1 8fbb 404d dbba a030 97bc 9151 c2bc
00000210: bcd8 b4bb b075 89bb 5e73 fcbb 5fe2 b4bb
00000220: 5acb afbb 98c4 50ba 00b4 18b8 0000 0000
00000230: 0000 0000 0000 0000 0060 2bb6 00c8 a1b6
00000240: 38a6 75bb 5e6c 8ebb 3532 b4bb 7aab 9cbb
00000250: e070 66bb 7005 48bb c015 9039 1a97 693c
00000260: 4904 663c c8d7 5f3c c834 493c 202c e73c
00000270: fcae a03c 088e fa3c 9dd4 9e3c 90cd abbb
00000280: e8aa 01bb 9034 373b 98e0 45bb 8e8d 4bbc
00000290: 04b4 29bc 5c53 4fbb 4491 2aba 0000 0000
000002a0: 0000 0000 0000 0000 0000 58b3 0040 3cb6
000002b0: 5017 a1bb 7051 8fbb 24a6 e5bb 7a61 46bc
000002c0: 3022 4abb e0bc c3bb a00b d93b 19ec b63c
000002d0: 402f ec3b a0b9 f2ba 8078 063a 1808 4f3c
000002e0: 005b b03c 9428 203d 60dc fe3c 807e cb3c
000002f0: 8e6a 843c 760e b63c 8adc ad3c 0082 9cba
00000300: 38e3 01bc a41f bbbb d0c1 86ba 0060 57b6
00000310: 0000 0000 0000 0000 0000 0000 0080 60b6
00000320: 5801 6abb 70e2 5cbb d413 0ebc 887a 80bc
00000330: 081e 3abc 80b8 16b9 e4a4 413c e3c8 923c
00000340: 40db 203a c04e bdbb 20a8 6f3a 3438 c93c
00000350: 9c74 2b3d f4ef 713d d0e8 4e3d c63d 003d
00000360: d861 bd3c 77f8 d13c 30c9 2f3d 948c aa3c
00000370: 40f9 57ba 784f a3bb 403c d8ba 402c 72b9
00000380: 0000 0000 009e 89b7 0000 0000 008e 20b7
00000390: 888e 12bb ec7c 89bb d896 05bc dc68 6abc
000003a0: 3e9a abbc e081 80bb 4df4 933c fac2 3a3c
000003b0: c027 653b d406 2dbb 0e64 893c c275 183d
000003c0: 0827 5a3d 1f46 893d 0235 433d 98e6 ca3c
000003d0: b84a b03c 8bc1 023d e8d7 583d 1e14 303d
000003e0: 9058 ab3b 1035 8fbb e40a 19bb 603c 09ba
000003f0: 0000 0000 0000 0000 0000 0000 c0c2 feba

fc.bias f4 [10]
-0.0050658584 0.023112595 -0.02702646 -0.07786313 0.04436127 0.15560502 0.05727037 -0.07068956
-0.097736835 -0.00196708
00000000: 80ff a5bb a056 bd3c 9866 ddbc b476 9fbd
00000010: 2ab4 353d ec56 1f3e 5694 6a3d b0c5 90bd
00000020: 402a c8bd 20ea 00bb
