runs/benign/20250814-104251/models/global_round_3.pt (torch, 33309 bytes, 2 tensors)

fc.weight f4 [10, 784]
000000 bc 3a 8a 3c 00 56 86 bc 15 32 fa bc 63 d0 8b bc
       0.01687371 -0.01639843 -0.03054146 -0.01706714
000010 33 9f b4 bc 6e ce ca 3a 3a 6b aa 3c e5 be e7 3c
       -0.022048568 0.0015472898 0.020803083 0.028289268
000020 ce 35 da bc d7 d2 18 bc a5 e9 ea 3c 65 cb 60 bc
       -0.026636984 -0.009327612 0.028675864 -0.013720368
000030 5d b5 be bc 05 81 9e bc 00 af c9 3c 1b 97 9b bc
       -0.02327984 -0.01934863 0.02461958 -0.018992951
000040 67 df d2 bc e5 99 83 bb 5c ff ea bb cc be db 3c
       -0.025741292 -0.0040161484 -0.0071715545 0.026824377
000050 ce d9 1b 3c ca 9a 1b 3c 7c 2c 4a bc 77 6e 35 3c
       0.009512378 0.009497354 -0.012339707 0.0110737
000060 25 b8 ee bb 14 b3 04 3d 25 e4 1b 3c 81 77 4e 3b
       -0.0072851353 0.032397345 0.009514843 0.0031504335
000070 75 da 89 3c 01 e3 c7 bc dc d4 92 bc 97 bc b0 bc
       0.016827801 -0.024400236 -0.017923765 -0.021574302
000080 27 6a 67 bc 46 f0 a3 bb bd 80 87 3a 50 85 b6 bc
       -0.01412443 -0.005003008 0.001033805 -0.022280365
000090 a5 08 e4 3c 43 6d 91 bc 2d d5 bf 3c ec 79 a5 3c
       0.027836153 -0.017752295 0.02341708 0.020199738
0000a0 78 9b b1 bb 53 5e dd bc 0b fa 04 3d 18 b6 0f 3d
       -0.0054201446 -0.027022516 0.032465022 0.035085768
0000b0 3d b0 44 3c 9b d1 aa bc 53 ab b2 bc b5 44 ae 3c
       0.012004909 -0.0208519 -0.02181021 0.021272996
0000c0 75 29 96 3b 2b 79 f5 3c 83 32 fa 3c c6 7f 18 bc
       0.004582579 0.029965004 0.030541664 -0.009307807
0000d0 0a a2 09 bd 81 be bb bb 8a 02 e2 bb 25 ad d5 39
       -0.033601798 -0.005729497 -0.0068972753 0.0004075553
0000e0 93 c4 22 38 be 3f 05 3d 49 42 0c 3c 86 de 92 3c
       3.8806884e-05 0.032531492 0.0085607255 0.017928373
0000f0 ae 44 7e bc 3f f3 a6 3b 97 26 48 bc ca 57 15 bc
       -0.015519304 0.005094915 -0.012216232 -0.009115169
000100 09 5a c2 bb 4d 25 0c bc 4d 6a 3b bc 7f c6 f4 bc
       -0.005931143 -0.008553815 -0.011438918 -0.029879807
000110 11 e7 00 3d d3 b2 12 bb 4c cf 0f bd 2d 1c 6e 3c
       0.031470362 -0.002238442 -0.035109803 0.014533085
000120 c8 a8 d3 3c f2 e8 13 bd d8 b0 d1 3c ba d1 5c bc
       0.025837317 -0.036110826 0.025597021 -0.013477737
000130 f2 d4 48 3c 8b 2b 15 bd a2 15 c8 bb c0 6f 69 3c
       0.012257801 -0.03641848 -0.0061060945 0.014247835
000140 48 c6 b9 3c b8 83 c0 bc b8 23 f8 bb 5c a0 14 3c
       0.022677556 -0.023500308 -0.0075726174 0.009071436
000150 8a 3d 12 bd 10 78 11 3d 49 a1 08 bd af f7 23 bc
       -0.03570322 0.03551489 -0.03335694 -0.010007783
000160 24 22 0d bc ae ef 41 bc b5 a4 eb 3c 9c d0 06 bd
       -0.008614097 -0.011836929 0.028765062 -0.03291379
000170 4d 6b 41 bc c4 a4 8c bc 2a 05 28 bd 20 60 f7 b9
       -0.011805368 -0.01716841 -0.04102055 -0.0004718313
000180 0e d7 98 bc df 6c 9d bb e1 24 98 bc a3 7f 53 bd
       -0.018657234 -0.004804238 -0.018572273 -0.051635396
000190 9d 05 c1 bb 29 30 6d bd 33 e0 cc bc 9b 7a f5 bc
       -0.0058905617 -0.057907257 -0.02500925 -0.02996569
0001a0 03 09 39 bd 3f 21 ca bb b3 13 fc bc 07 af aa ba
       -0.04517461 -0.006168514 -0.030771112 -0.0013022133
0001b0 56 a0 f7 3b 48 b9 4b 3b e3 17 9c 3b dc be dc 39
       0.0075569553 0.0031085778 0.0047635897 0.0004210387
0001c0 ac d1 f5 bc ea c7 05 3c d8 95 99 3c 4d cd e1 3a
       -0.030007206 0.008165339 0.018748209 0.0017227322
0001d0 53 62 0a 3d b5 c6 1a bd 99 69 c2 3c d0 88 ed bc
       0.033785176 -0.037787158 0.023731994 -0.028995901
0001e0 84 67 21 bd d9 79 e5 bc bc 96 c9 bb 31 1b 2e 3c
       -0.03940536 -0.028012203 -0.006152002 0.0106266
0001f0 db 2e 63 3c 61 80 53 3c a4 db 26 3d c7 55 25 3d
       0.013866152 0.012909026 0.04073681 0.040365007
000200 63 de 16 bc 2b c0 9f 3c 24 3a 4d bd 7e 43 5c bc
       -0.009208295 0.019500813 -0.050104275 -0.013443826
000210 67 a0 c1 bc 85 b9 c3 bc 3d 25 18 bc 95 45 42 3a
       -0.023636056 -0.023892174 -0.009286222 0.0007410881
000220 29 7b 76 bc 05 4d 38 3b e8 ff 71 3c 7c 5c d4 3c
       -0.015044012 0.002812208 0.014770485 0.025923006
000230 65 d5 be bc d3 48 8d 3b 0a a5 d6 bc 1d a9 ba 3b
       -0.023295114 0.00431166 -0.026201744 0.0056964294
000240 ad 40 e7 bc ec 2a cd bb 0d 32 a9 3a 15 8e 6b bc
       -0.028229082 -0.00626122 0.0012908593 -0.014377137
000250 b8 34 a7 bc 7a 7d 6c bd d4 e4 ad bc 0a cc 70 bc
       -0.02041088 -0.05773685 -0.021227278 -0.014697084
000260 93 14 0d 3b 30 e0 a2 3d 43 29 86 3d f4 a9 07 3e
       0.0021527156 0.079529166 0.06550839 0.13248426
000270 e9 74 9e 3d 3a 18 d7 3d 37 48 8a 3c a6 1a 2d 3d
       0.077371426 0.10502668 0.016880138 0.042261742
000280 49 2d 9c bc 42 84 2f bd ea 92 bf bc da 48 89 bc
       -0.019064562 -0.04285074 -0.023385484 -0.016758371
000290 a3 19 0e bd ab a0 e0 b9 a4 63 0d bb 3e 72 19 bc
       -0.034692418 -0.00042844316 -0.0021574283 -0.009365616
0002a0 51 e6 b7 3c 2c 11 73 bc d8 e2 da bc f6 c0 c9 bc
       0.02244869 -0.014835637 -0.026719496 -0.024628144
0002b0 0d 1b bb bc a0 a8 95 bc c8 f9 92 bc 2f c8 f7 bc
       -0.022840047 -0.018268883 -0.01794137 -0.030246822
0002c0 4f f8 27 bd f3 b7 92 bd 7e 68 43 bd e3 c1 b4 bc
       -0.04100829 -0.07163992 -0.047707073 -0.022065109
0002d0 8a 22 0f 3d c8 18 2a 3d 3b a5 dd 3d 10 49 bb 3d
       0.03494505 0.04152754 0.10822531 0.09144795
0002e0 db e1 cf 3d 86 1c 0e 3e 07 e5 09 3e 98 f2 6d 3d
       0.101505004 0.13878068 0.13466273 0.058092684
0002f0 d8 30 25 3d ab e7 0b 3d cc 91 c1 bc 1b 4c 9b bd
       0.040329784 0.034156483 -0.023629092 -0.07582875
000300 b0 9b 73 bd d9 d1 f0 bc 19 84 9f bc e9 fd af bc
       -0.059474647 -0.029396938 -0.019472169 -0.021483378
000310 30 c5 e4 3c 9b 25 e8 bc 67 bd ca bc fb 8c 98 bc
       0.027926058 -0.028338244 -0.024748517 -0.018621912
000320 96 02 0a bc e3 74 03 bd 9a 72 26 bd 84 ae ad bc
       -0.008423468 -0.032093894 -0.040636636 -0.02120138
000330 35 90 31 bd e2 d8 9d bc 68 a6 e1 bc 32 79 5f 39
       -0.043350417 -0.019268457 -0.027545169 0.00021312086
000340 d9 46 b3 3c 0f b7 24 3d 0d b4 ff 3c a3 94 9f 3d
       0.021884369 0.04021364 0.031213785 0.07792022
000350 a8 32 9f 3d 53 09 2a 3e 83 c1 04 3e 87 e0 e6 3d
       0.07773334 0.1660512 0.12964444 0.11273294
000360 94 2e 91 3d 38 67 9b 3b fa 63 b9 b9 38 bf e8 bb
       0.07088962 0.0047425292 -0.00035360438 -0.007102873
000370 73 44 61 bd 20 5d 52 bd 54 31 f8 bc c7 01 d9 bb
       -0.05499692 -0.051358342 -0.030296959 -0.0066225263
000380 2d da 89 bc d7 c3 64 bb 6f f5 da 3b 49 00 8d ba
       -0.016827667 -0.0034906769 0.00668209 -0.0010757531
000390 48 e4 9c 3c 14 7d 3c bc 9e 44 8e bd dc c8 e0 bc
       0.019151822 -0.01150443 -0.069466814 -0.027439527
0003a0 95 be 60 bd 97 53 2d bd 7b bc f6 3c 15 25 b0 3c
       -0.054869253 -0.042316046 0.030119171 0.021502057
0003b0 1c 87 55 3c 8a 48 04 3b dc a2 f8 3c 82 30 9b 3d
       0.013032701 0.0020184838 0.030351095 0.075776115
0003c0 2b 3d 01 3e 53 b8 fc 3d bd 6b ec 3d 03 23 cb 3d
       0.1262099 0.123398446 0.11543987 0.09918787
0003d0 b5 29 9e 3d 94 a7 f1 3c 68 63 2c 3d 96 12 6c 3d
       0.07722799 0.029498853 0.04208699 0.057634912
0003e0 f5 f9 71 bd c2 38 76 bd 04 4f d1 bb 5a 17 c1 3c
       -0.05907627 -0.060112722 -0.006387593 0.023570705
0003f0 71 65 07 3c 59 cd ff 3c b8 2a f9 ba a0 8c 9c bc
       0.008263932 0.031225847 -0.0019009924 -0.019110024

fc.bias f4 [10]
000000 09 68 15 be 0e 25 8f 3e 8e 34 3a bd 92 8e 03 be
       -0.14590468 0.27957958 -0.045460276 -0.12847355
000010 62 a4 22 3c 34 b8 0f 3f ca e2 96 bd 4c 4e 99 3e
       0.009926887 0.56140447 -0.07367475 0.29942548
000020 e9 fa 14 bf 4c c3 c4 bd
       -0.5819536 -0.096075624
