runs/benign/20250814-104251/models/global_round_1.pt (torch, 33309 bytes, 2 tensors)

fc.weight f4 [10, 784]
00000000: bc3a 8a3c 0056 86bc 1532 fabc 63d0 8bbc
00000010: 339f b4bc 6ece ca3a 3a6b aa3c e5be e73c
00000020: ce35 dabc d7d2 18bc a5e9 ea3c 65cb 60bc
00000030: 88b4 bebc de7e 9ebc 5faf c93c 1797 9bbc
00000040: 67df d2bc e599 83bb 5cff eabb ccbe db3c
00000050: ced9 1b3c ca9a 1b3c 7c2c 4abc 776e 353c
00000060: 25b8 eebb 14b3 043d 25e4 1b3c 8177 4e3b
00000070: 75da 893c 01e3 c7bc dcd4 92bc 97bc b0bc
00000080: 1c6a 67bc f1ef a3bb 1abd 873a e47b b6bc
00000090: 3924 e43c af54 91bc a501 c03c b636 a53c
000000a0: a27e b4bb 2e67 ddbc 005f 053d 7c28 0e3d
000000b0: 6748 323c cb14 afbc 7663 b2bc a098 ae3c
000000c0: e640 973b a897 f53c 3f3a fa3c 807f 18bc
000000d0: 0aa2 09bd 81be bbbb 8a02 e2bb 25ad d539
000000e0: 93c4 2238 be3f 053d 4a42 0c3c fddb 923c
000000f0: 8144 7ebc 8101 a73b d163 45bc 7e05 11bc
00000100: 1170 b9bb c11c 05bc 2fd4 30bc 13a5 eebc
00000110: 0e8c 053d e7a0 5ab9 fa25 03bd a535 933c
00000120: e58e ed3c c7cc 04bd 0996 e73c ad1b 44bc
00000130: f0c1 583c 4e83 12bd 6b04 c1bb 3ad4 6a3c
00000140: 4a10 ba3c f580 c0bc b823 f8bb 5ca0 143c
00000150: 8a3d 12bd 1078 113d 48a1 08bd 528c 23bc
00000160: 61b8 03bc 3d32 2bbc 67e1 f93c 68ea f6bc
00000170: 5ee4 17bc 77d2 69bc 00cc 1bbd 51ca 413b
00000180: 957f 65bc f987 93b9 5ead 3abc a8bb 2cbd
00000190: 6165 cd3b 06c2 36bd 758a 14bc 5562 7bbc
000001a0: 9ca7 0abd a702 1a3b 602c d1bc 30bc c03a
000001b0: 15cc 103c fee0 573b 6e4b 9d3b dcbe dc39
000001c0: acd1 f5bc f0c7 053c a497 993c 3d82 e83a
000001d0: 26fd 0b3d 881e 12bd 3028 da3c d055 c8bc
000001e0: d926 08bd 1fbb adbc 47fe 20bb cf8e 4b3c
000001f0: 90d0 273c 26ef 863b 9bc2 0b3d b8e9 0d3d
00000200: 9b14 b2bb 09d3 b93c b5e2 1fbd 11f2 adba
00000210: 0bec 35bc d2c0 1ebc f08a 5d38 3a63 113c
00000220: cc85 13bc cadc 983b e114 773c 9c60 d43c
00000230: 65d5 bebc d348 8d3b 069d d6bc ba85 c53b
00000240: 55f0 dcbc b35f 53bb 15e0 ce3b 2438 eebb
00000250: 9334 23bc c666 41bd 91c1 9ebc 8953 93bc
00000260: f4b3 dfbb e02d 6a3d 46b4 083d d430 c33d
00000270: 6651 4f3d 796c a33d 582e 9dba c1c5 163d
00000280: b885 97bc 0638 29bd fcc2 58bc 97a0 bfb9
00000290: e6a6 bcbc 4a54 973b 9de7 a6ba 9cf1 14bc
000002a0: 51e6 b73c 7f10 73bc 01cb dabc 5c96 c8bc
000002b0: c27e abbc 7392 83bc 2fa3 3dbc ae6c 94bc
000002c0: 53b7 d1bc 818c 74bd f9e0 47bd 2517 fcbc
000002d0: e552 de3c d3ba a33c be82 a33d 0389 713d
000002e0: 986a 7f3d 0f81 c93d 327e d13d dced 1b3d
000002f0: e843 f73c df5a 8f3c 18b8 f6bc 3644 7ebd
00000300: d9e1 24bd ec5d 94bc bc2c 76bc db0c a8bc
00000310: 30c5 e43c 7a12 e8bc f53c cabc 6cdd 95bc
00000320: c12b cabb 3d70 e8bc 99a4 03bd 75c9 93bb
00000330: a045 dbbc 8a7e 59bc cb86 05bd 19ed ebbb
00000340: 39bc 643c d5f9 013d b89e 9e3c 768c 523d
00000350: 78a4 293d 7620 ee3d 9f98 a93d 146f ab3d
00000360: 309f 763d f79a ecbb 9256 85bc ba65 e2bb
00000370: ebff 20bd 545d 1bbd a7c7 dabc f446 cebb
00000380: a22b 8bbc a3b3 63bb e535 de3b 2af5 deb9
00000390: 2b17 b53c 8c57 93bb 80fe 68bd 9ef1 2ebc
000003a0: dc4b 2abd ae34 17bd f8e8 e93c 7ca7 aa3c
000003b0: 0a22 433c 2d3a 413b 38d2 943c 2b79 5e3d
000003c0: 9c81 ba3d 137c 9f3d 3b20 8f3d 0959 8d3d
000003d0: 61ab 753d 124c 833c f517 753c eff0 1d3d
000003e0: da0c 57bd cd4d 41bd 9d90 0ebb 59d5 c23c
000003f0: c868 073c 1ded ff3c 0398 faba 5c64 91bc
0.01687371 -0.01639843 -0.03054146 -0.01706714 -0.022048568 0.0015472898 0.020803083 0.028289268
-0.026636984 -0.009327612 0.028675864 -0.013720368 -0.023279443 -0.019347604 0.024619756 -0.018992944
-0.025741292 -0.0040161484 -0.0071715545 0.026824377 0.009512378 0.009497354 -0.012339707 0.0110737
-0.0072851353 0.032397345 0.009514843 0.0031504335 0.016827801 -0.024400236 -0.017923765 -0.021574302
-0.01412442 -0.0050029685 0.0010356039 -0.022275873 0.027849304 -0.017740576 0.023438284 0.02016769
-0.00550826 -0.027026739 0.032561302 0.034706578 0.01088152 -0.02137222 -0.021775942 0.021313012
0.004615891 0.029979542 0.030545352 -0.009307742 -0.033601798 -0.005729497 -0.0068972753 0.0004075553
3.8806884e-05 0.032531492 0.008560726 0.017927164 -0.015519262 0.005096615 -0.012047724 -0.008851407
-0.0056591113 -0.008124531 -0.010792776 -0.029131448 0.03260427 -0.00020850041 -0.03201864 0.017969916
0.028998801 -0.032421853 0.028269785 -0.011969489 0.013229832 -0.035769753 -0.0058904192 0.014332825
0.022712845 -0.023498992 -0.0075726174 0.009071436 -0.03570322 0.03551489 -0.033356935 -0.009982185
-0.008039565 -0.010448989 0.030502988 -0.03014107 -0.009270756 -0.01427137 -0.038036346 0.0029570053
-0.014007469 -0.00028139332 -0.011393873 -0.04217115 0.006268189 -0.04461863 -0.009066214 -0.015343268
-0.03385125 0.0023500116 -0.025533855 0.0014704522 0.008837719 0.0032940502 0.0048002517 0.0004210387
-0.030007206 0.008165345 0.018749066 0.0017739009 0.034176968 -0.035673648 0.026630491 -0.024454981
-0.033240173 -0.02120739 -0.0024565624 0.012424185 0.010242596 0.004117864 0.034121137 0.03464672
-0.0054345853 0.022683637 -0.039034564 -0.0013270994 -0.01110364 -0.009689527 5.28199e-05 0.008873755
-0.009004068 0.004664992 0.0150806615 0.025924973 -0.023295114 0.00431166 -0.026197921 0.0060279043
-0.026970068 -0.0032253086 0.0063133338 -0.007269876 -0.009961265 -0.047217153 -0.019379409 -0.017984169
-0.006826872 0.057172656 0.033375047 0.095307976 0.050614737 0.07979674 -0.0011991961 0.036809687
-0.01849638 -0.041313194 -0.013230082 -0.00036550008 -0.023028802 0.0046182023 -0.0012733821 -0.009090807
0.02244869 -0.014835476 -0.026708128 -0.02448576 -0.020934466 -0.016061043 -0.0115745505 -0.018118229
-0.025600111 -0.059704307 -0.048798535 -0.030772755 0.027139137 0.019986546 0.079839215 0.058968555
0.062357515 0.09839069 0.10229148 0.038068637 0.030183747 0.017499385 -0.03011708 -0.06207677
-0.040254448 -0.018111192 -0.015025314 -0.020513942 0.027926058 -0.028329123 -0.02468727 -0.018294059
-0.0061697667 -0.028373832 -0.032139394 -0.0045100995 -0.026766598 -0.013274798 -0.03259925 -0.007199895
0.013960891 0.0317324 0.019362792 0.051403485 0.041416615 0.11627285 0.08281063 0.08370796
0.060210407 -0.0072206217 -0.016276632 -0.0069090994 -0.039306562 -0.0379308 -0.02670653 -0.0062950794
-0.01698858 -0.0034744523 0.006781327 -0.000425258 0.022105774 -0.0044965204 -0.056883335 -0.010677723
-0.04157625 -0.036915474 0.028553471 0.020831816 0.011909971 0.0029484138 0.018166646 0.054314774
0.09106752 0.07787337 0.06988569 0.06901748 0.059977893 0.016027484 0.014959325 0.03855985
-0.05250249 -0.047193337 -0.0021753677 0.023783373 0.008264728 0.031240994 -0.0019118789 -0.01774805

fc.bias f4 [10]
00000000: a453 c2bd 416d 5d3e c935 14bd 0902 9ebd
00000010: 2d7b b93c 7bdc a73e fa51 52bd 0e86 473e
00000020: 83eb babe 1b22 6ebd
-0.094886094 0.21623708 -0.036184106 -0.07715232 0.022641743 0.327854 -0.05134771 0.19484732
-0.36507806 -0.058137994
