runs/benign/20250814-232436/models/global_round_4.pt (torch, 33309 bytes, 2 tensors)

fc.weight f4 [10, 784]
0	0xbc22b240	-0.009930193
1	0xbceabc95	-0.028654376
2	0xbc10a5a0	-0.008828551
3	0x3c375393	0.011189359
4	0xbc67f413	-0.014157313
5	0xbcbfdd93	-0.023421085
6	0xbcaeeaa3	-0.021352118
7	0x3cc19241	0.02362931
8	0xbcc28223	-0.023743695
9	0xbcb747a3	-0.022373026
10	0xbc76b025	-0.015056645
11	0x3a595e01	0.0008291901
12	0xbc4674bf	-0.012112795
13	0x3c714d26	0.014727866
14	0xbcc3b551	-0.02389017
15	0xbcf4dcc9	-0.029890435
16	0x3cf549fe	0.029942509
17	0x3cf67868	0.030086711
18	0xbc87de2e	-0.016585436
19	0xbd0ffd24	-0.035153523
20	0x3ce07e93	0.027404105
21	0xb824f6dc	-3.9330553e-05
22	0xbc044a57	-0.008074365
23	0xbd11e766	-0.03562107
24	0x3c5c1c25	0.013434445
25	0x3d0cf0c4	0.0344093
26	0xbccb9bf5	-0.02485464
27	0x3b7f70ca	0.003897714
28	0xbb790d4a	-0.0038002306
29	0xbc1286f3	-0.008943307
30	0x3cac158a	0.021006364
31	0xbce85a1e	-0.028363284
32	0xbcae6b2a	-0.021291334
33	0xbcd96984	-0.026539572
34	0x3bcd9732	0.0062741274
35	0x3d0fdeb4	0.035124496
36	0x3c77944c	0.01511104
37	0xbb840055	-0.00402836
38	0x3d05fec5	0.03271367
39	0xbc1ead98	-0.009684943
40	0x3c969812	0.01838306
41	0x3ce71e5f	0.028212724
42	0xbd01cc80	-0.031689167
43	0x3cfe5ca8	0.031050041
44	0xbbe051be	-0.006845682
45	0xb994af8c	-0.00028359552
46	0xb9ce8af9	-0.00039394925
47	0xbd07ea6b	-0.033182543
48	0xbcc5e1bf	-0.024155496
49	0xbc967b05	-0.018369207
50	0xbc886358	-0.016648933
51	0xbbd0abe8	-0.006368149
52	0x3c1de21c	0.009636428
53	0x3ccd7f4e	0.025085118
54	0xbcdb02ce	-0.026734736
55	0xbbb97101	-0.005659223
56	0x3c1842dc	0.009293284
57	0x3bc181d3	0.005905369
58	0x3d094fc1	0.033523325
59	0x3d080fb2	0.033218093
60	0x3bbf54ef	0.0058389823
61	0x3d0d9d3b	0.034573775
62	0xbc82671b	-0.015918305
63	0x3d07ab15	0.03312214
64	0xbce69001	-0.028144838
65	0xbcf757fa	-0.030193318
66	0x3cef0126	0.029175352
67	0xbbebfcd6	-0.0072017713
68	0xbd2076f2	-0.039175935
69	0xbb635ce8	-0.0034692828
70	0xbd48c319	-0.049014185
71	0xbd1d1cd2	-0.038357563
72	0xbd15d6cf	-0.03658181
73	0x3c2c353b	0.010510738
74	0x3c684fcd	0.014179182
75	0xbbbafb6a	-0.0057062404
76	0x3c836910	0.016041309
77	0xbcaeb28b	-0.02132537
78	0x3c8ba41e	0.01704603
79	0x3c2c5dbc	0.010520395
80	0xbcfc38a3	-0.030788725
81	0xbc1b453e	-0.009476958
82	0x3cc7903e	0.024360772
83	0xbc4b2d21	-0.012400896
84	0xbc06782e	-0.008207364
85	0x3b573725	0.0032839265
86	0xbd0b1866	-0.033958815
87	0xbd127aa7	-0.0357615
88	0xbcf37117	-0.029717011
89	0xbbad26b3	-0.0052841543
90	0xbc661e29	-0.014045277
91	0xbd54cec9	-0.05195502
92	0x3c8ef925	0.017452786
93	0xbbeadb2a	-0.0071672397
94	0x3c7003a1	0.014649303
95	0xbd143825	-0.036186356
96	0xbd5f0cd0	-0.05445558
97	0x3c8addbb	0.016951432
98	0xbabe3012	-0.0014510176
99	0xbd390979	-0.04517505
100	0xbdaaeab0	-0.08345544
101	0xbd2d3016	-0.042282186
102	0xbdd81249	-0.105503626
103	0xbd901273	-0.07034769
104	0xbdb41628	-0.087932885
105	0xbd75737c	-0.059924588
106	0xbd201427	-0.03908172
107	0x3ca762a0	0.02043277
108	0xbcb12e0b	-0.0216284
109	0x3cfa0a0b	0.030522367
110	0xbc9a6b36	-0.01884995
111	0x3b1920b7	0.0023365447
112	0x3ca3f630	0.020014852
113	0xbbee74ea	-0.007277121
114	0x3b07903e	0.002068534
115	0x3cd08496	0.025453847
116	0x3cc2490b	0.02371647
117	0xbb9b35d4	-0.0047366414
118	0xbbfbc858	-0.007683795
119	0xbcf4abd9	-0.0298671
120	0xbc4d09bd	-0.012514529
121	0xbbe41add	-0.00696121
122	0xbd256e8f	-0.04038864
123	0x3a961241	0.0011449532
124	0x3d55324d	0.052049924
125	0x3d7d41bd	0.06183027
126	0x3cf3347e	0.029688116
127	0x3d252fce	0.040328793
128	0xbd37a4b8	-0.044834822
129	0x3c7061c9	0.014671751
130	0xbcdbb6b6	-0.026820522
131	0xbcf808b6	-0.030277591
132	0xbda9a1ce	-0.08282815
133	0xbd96c09c	-0.07360956
134	0xbd809512	-0.06278433
135	0xbd1618f0	-0.036644876
136	0xbd879b42	-0.0662141
137	0x3cb20d5a	0.021734882
138	0x3c94d5fc	0.018168442
139	0x3c8b90f4	0.017036892
140	0xbc76894a	-0.015047381
141	0x3d05b4cf	0.032643136
142	0xbcc89500	-0.024485111
143	0xbc7465b2	-0.014916824
144	0xbd2ff8f7	-0.04296204
145	0x3c311c01	0.010809899
146	0xbd2ad2f2	-0.04170508
147	0xbcb2e1b5	-0.021836141
148	0xbd51282e	-0.05106371
149	0xbd9b1039	-0.075714536
150	0xbc2f8b8e	-0.010714425
151	0x3ca493fd	0.020090098
152	0x3d46cef1	0.0485372
153	0x3dd5eab5	0.104451574
154	0x3e2bf81b	0.16793863
155	0x3e12c00c	0.14331073
156	0x3dac77b6	0.084212705
157	0x3dd11a0b	0.102100454
158	0x3dc7029e	0.09717296
159	0x3cc9920b	0.024605772
160	0x3b422f18	0.002963012
161	0xbc3e5bfc	-0.0116186105
162	0xbd590a37	-0.052988257
163	0xbd9c016e	-0.0761746
164	0xbd31a4d1	-0.04337007
165	0xbaaffe36	-0.0013427201
166	0xbc200e2e	-0.009769006
167	0x3ceec104	0.029144771
168	0xbaaa4f25	-0.0012993558
169	0xbceaa6d3	-0.028644001
170	0xbb88746a	-0.0041642683
171	0x3cd19f30	0.025588602
172	0xbd32b645	-0.043630857
173	0xbd2a52b5	-0.04158278
174	0xbd7bafc1	-0.06144691
175	0xbd918c83	-0.071068786
176	0xbde0fda3	-0.10985877
177	0xbd9036df	-0.07041716
178	0x3bc056e6	0.005869734
179	0x3d2014f0	0.039082468
180	0xbc954ef2	-0.01822612
181	0x3db27b6f	0.08714949
182	0x3e1a277e	0.15054128
183	0x3dd94c4c	0.106102556
184	0x3e386402	0.180069
185	0x3e407a61	0.18796684
186	0x3df7dcb5	0.121026434
187	0x3db341ee	0.087528095
188	0x3d03f557	0.032216396
189	0x3d529f7d	0.05142163
190	0x3d460720	0.04834664
191	0xbdae8996	-0.08522336
192	0xbe1154fa	-0.14192572
193	0xbd909522	-0.07059695
194	0xbc91640c	-0.017747901
195	0xbc9aa6e2	-0.018878404
196	0xbcd56a9e	-0.026051816
197	0xbc5333ce	-0.012890769
198	0xbccb9c00	-0.02485466
199	0xbc52515e	-0.012836782
200	0xbd2a9f54	-0.041655853
201	0xbcfc1285	-0.03077055
202	0xbc9c447e	-0.019075628
203	0xbd5e4446	-0.05426433
204	0xbd819080	-0.06326389
205	0xbc8dbc48	-0.017301694
206	0x3c63b6d6	0.013898572
207	0x3cd1621f	0.025559483
208	0x3cb5aa47	0.022175921
209	0x3d0b0e66	0.03394928
210	0x3d61b7e6	0.05510702
211	0x3dbc4847	0.09193473
212	0x3e0b1832	0.13583449
213	0x3e57bc54	0.21067935
214	0x3e712173	0.23547916
215	0x3e07fc49	0.13279833
216	0x3d2fd115	0.042924006
217	0x3c346244	0.0110097565
218	0x3d1f7903	0.038933765
219	0x3bb075f9	0.005385157
220	0xbdf0739b	-0.117408
221	0xbdcd8c50	-0.10036528
222	0xbd2b5dd3	-0.041837525
223	0xbc9dc8f8	-0.019260868
224	0x3cd067ad	0.025440061
225	0xbc39fda3	-0.011351976
226	0x3c8d101e	0.0172196
227	0xbcd27186	-0.025688898
228	0x3c83128e	0.016000059
229	0xbc834886	-0.016025793
230	0xbd1cdc33	-0.038295936
231	0xbdfdcadc	-0.12392208
232	0xbda12aa4	-0.07869461
233	0xbd49e54e	-0.049290948
234	0x3ce0c261	0.027436437
235	0xba238b9c	-0.000623876
236	0x3cb2c5d1	0.021822842
237	0xbc78ab41	-0.015177549
238	0x3ccf2090	0.025284082
239	0x3df98307	0.121831946
240	0x3e0921e7	0.13391839
241	0x3e484185	0.19556244
242	0x3e479313	0.19489698
243	0x3e0d3202	0.13788608
244	0x3d825f87	0.06365877
245	0x3d71873b	0.058966856
246	0x3ddeb888	0.1087504
247	0x3db6ae94	0.08920017
248	0xbccbea8a	-0.02489211
249	0xbd9cdd0d	-0.076593496
250	0xbcbff88f	-0.023433952
251	0x3c9b8460	0.01898402
252	0x3c271e34	0.010200072
253	0xbb2481a6	-0.002510169
254	0xbabb7536	-0.0014301899
255	0x3bf082bb	0.007339803

fc.bias f4 [10]
0	0xbeaa4df0	-0.33262587
1	0x3eceee7b	0.4041632
2	0xbcd5919b	-0.026070407
3	0xbe965998	-0.2936523
4	0xbcc21d90	-0.023695737
5	0x3fa3239a	1.274524
6	0xbe31c755	-0.17361195
7	0x3f0b0ed6	0.5431951
8	0xbf8de26c	-1.1084723
9	0xbe581e95	-0.21105416
