runs/mal_signflip_20/20250814-233734/models/global_round_0.pt (torch, 33309 bytes, 2 tensors)

fc.weight f4 [10, 784]
-0.0281114 0.034072146 -0.019428296 0.024220238 -0.014060779 0.026960239 0.007172917 0.0122091435
-0.001346337 -0.017269544 -0.0038479525 -0.0027682954 0.029765699 0.02066643 0.010701762 0.025440339
0.01171898 0.022519203 -0.017152183 0.011059408 -0.029506966 -0.018417712 0.018533772 -0.012580459
-0.034803882 -0.03423079 -0.015297167 -0.0280598 -0.003812211 0.015594538 -0.0012600933 0.0057526915
-0.006671808 -0.032184955 0.0013164639 0.029982524 -0.019481866 -0.031345733 0.0160191 -0.022175804
0.030240193 0.0020946872 0.017512947 -0.01492623 -0.0228569 0.031804394 -0.012371205 0.0044908724
-0.011318308 0.028624022 -0.034999505 0.03273873 0.010900621 0.034198925 0.015497098 -0.016519612
-0.029874463 -0.024947597 -0.033830404 -0.00017252655 0.012317273 0.028599143 -0.006326686 0.020397073
-0.03137875 -0.0063570593 0.03757153 0.040367022 0.043758 -0.0055833673 0.0628094 0.06559078
0.047599804 0.06208078 -0.0034312818 0.023473814 0.011241522 0.0023750528 -0.021448294 0.03268116
0.0053882487 -0.03274562 0.0025789058 -0.01294314 -0.026733097 0.020516243 -0.012560924 0.007005312
0.008889064 0.043941125 0.018899512 0.04055619 -0.018861355 0.011177926 0.0027836524 0.04029425
0.08068744 0.0018641669 0.0483437 0.123748966 0.123669446 0.075083815 0.086554006 0.05675767
0.092180975 0.07942557 0.038975187 0.058662385 0.0046297484 0.02082122 0.0039963205 0.015408648
-0.027271787 -0.021435104 -0.029081808 -0.008192778 -0.008863841 0.008450472 0.028557278 0.073397025
0.084276415 0.02373481 0.039675873 0.04877712 0.060198925 -0.041232485 -0.046314623 -0.06836396
0.0017336553 -0.0035119776 -0.016094863 0.06463662 0.13094844 0.10035014 0.023477536 0.057861414
0.032828126 0.034446232 -0.026158607 0.011944789 0.034124095 0.008275565 0.023643468 0.016044408
0.01952761 0.038192462 0.016562784 0.052182395 0.07950409 0.059966978 0.094744354 -0.0013214533
-0.0053687952 -0.154826 -0.20544651 -0.27301103 -0.18935433 -0.21420817 -0.19381675 -0.06865808
0.045702472 0.028981043 0.11699987 0.10409723 0.052150756 0.02168628 -0.02844682 -0.01079094
0.004630102 0.033285838 0.02103554 -0.030272506 0.04133066 0.04584845 0.05344226 0.108484335
0.10601371 0.06693551 -0.011441984 -0.09338036 -0.061095603 -0.1713012 -0.16367353 -0.22734699
-0.25177506 -0.25856003 -0.23890112 -0.092557 -0.015044471 -0.07613157 -0.08024216 0.05618892
0.16031712 0.114213765 0.054306418 -0.013318659 0.02234378 0.017419584 0.010777632 0.028141499
-0.019269004 -0.001098872 0.04135875 0.13539355 0.09858842 -0.005670761 -0.12507106 -0.09371598
-0.043104798 -0.011587483 -0.09282428 -0.17883606 -0.27095288 -0.34381485 -0.25065032 -0.17669642
-0.08662326 -0.052342616 -0.104126014 -0.017540025 0.08087944 0.100417845 0.050448067 -0.024154343
-0.012107184 0.015858436 0.0006651766 -0.017447777 0.021916388 0.05295816 0.079364434 0.11162549
0.07080227 -0.059728295 -0.08256634 0.03328274 0.02699246 0.03204903 -0.07588337 -0.16659395
-0.3101319 -0.27439964 -0.34357587 -0.117895566 -0.03020372 -0.0466153 -0.097837776 -0.12294589
0.051973354 0.105652936 0.038055565 0.009629614 -0.0027910927 0.02198037 -0.009941647 0.057381418
00000000: e149 e6bc 3c8f 0b3d 1728 9fbc 8569 c63c
00000010: 2e5f 66bc b8db dc3c ca0a eb3b dc08 483c
00000020: 9377 b0ba dc78 8dbc ee2d 7cbb 4a6c 35bb
00000030: 32d7 f33c a54c a93c 7156 2f3c 4268 d03c
00000040: f700 403c 317a b83c bc82 8cbc 8532 353c
00000050: 98b8 f1bc bee0 96bc 23d4 973c 451e 4ebc
00000060: 848e 0ebd 9635 0cbd f8a0 7abc aadd e5bc
00000070: 4ad6 79bb 3c80 7f3c b729 a5ba 1381 bc3b
00000080: 2f9f dabb 5fd4 03bd 338d ac3a e99d f53c
00000090: 6f98 9fbc 6264 00bd 7d3a 833c 08aa b5bc
000000a0: 48ba f73c 0547 093b 5077 8f3c 258d 74bc
000000b0: 653e bbbc 5345 023d 98b0 4abc 2b28 933b
000000c0: 6d70 39bc ed7c ea3c a45b 0fbd 0c19 063d
000000d0: 8598 323c 2c14 0c3d 8ae7 7d3c 2354 87bc
000000e0: 4abb f4bc e75e ccbc c091 0abd 3ee8 34b9
000000f0: 63ce 493c c048 ea3c 1750 cfbb c317 a73c
00000100: 0187 00bd e14e d0bb 9be4 193d e457 253d
00000110: 973b 333d aef4 b6bb 37a2 803d 7554 863d
00000120: 03f8 423d 6a48 7e3d 5bdf 60bb 284c c03c
00000130: 5c2e 383c c6a6 1b3b 55b4 afbc aedc 053d
00000140: e88f b03b 4520 06bd dc02 293b 770f 54bc
00000150: 5eff dabc ae11 a83c 55cc 4dbc d18c e53b
00000160: 70a3 113c 9cfb 333d 26d3 9a3c 3f1e 263d
00000170: 2183 9abc 9f23 373c f06d 363b 950b 253d
00000180: 753f a53d 1057 f43a 0b04 463d 1970 fd3d
00000190: 6846 fd3d 8bc5 993d 3a43 b13d bb7a 683d
000001a0: 61c9 bc3d e0a9 a23d 72a4 1f3d f847 703d
000001b0: 25b5 973b 4391 aa3c 91f3 823b 8e74 7c3c
000001c0: 1569 dfbc ac98 afbc f93c eebc 003b 06bc
000001d0: a539 11bc d973 0a3c f4f0 e93c 2e51 963d
000001e0: 1d99 ac3d 816f c23c 2b83 223d 84ca 473d
000001f0: 2693 763d 65e3 28bd 67b4 3dbd 6702 8cbd
00000200: d23b e33a 3529 66bb 60d9 83bc 3460 843d
00000210: 5917 063e 6084 cd3d f653 c03c 1700 6d3d
00000220: c976 063d 7e17 0d3d 934a d6bc 14b4 433c
00000230: b5c5 0b3d 3c96 073c f2af c13c 906f 833c
00000240: 5ef8 9f3c b36f 1c3d adae 873c 35bd 553d
00000250: 0ad3 a23d ef9f 753d 5409 c23d 9d34 adba
00000260: b8ec afbb b58a 1ebe 9260 52be 1ac8 8bbe
00000270: 1ae6 41be 6359 5bbe e677 46be 9c9c 8cbd
00000280: 8432 3b3d a769 ed3c a19d ef3d ee30 d53d
00000290: 089c 553d 6da7 b13c 4e09 e9bc 7ccc 30bc
000002a0: 1cb8 973b bb56 083d ba52 ac3c 0cfe f7bc
000002b0: 574a 293d 96cb 3b3d 45e6 5a3d 092d de3d
000002c0: b71d d93d 7c15 893d 2977 3bbc 343e bfbd
000002d0: 623f 7abd 9569 2fbe 099a 27be a6cd 68be
000002e0: a9e8 80be fb61 84be 7fa2 74be 868e bdbd
000002f0: 167d 76bc deea 9bbd 0056 a4bd 5a26 663d
00000300: 2c2a 243e e8e8 e93d 6870 5e3d 8136 5abc
00000310: 4e0a b73c 84b3 8e3c aa94 303c 0089 e63c
00000320: 08da 9dbc 0708 90ba cb67 293d 9ba4 0a3e
00000330: bae8 c93d cbd1 b9bb a112 00be 2aee bfbd
00000340: a88e 30bd 6dd9 3dbc a81a bebd cd20 37be
00000350: 56ba 8abe 8008 b0be 3d55 80be e8ef 34be
00000360: 8967 b1bd 3665 56bd 0540 d5bd 19b0 8fbc
00000370: 1fa4 a53d dfa7 cd3d a2a2 4e3d 54df c5bc
00000380: 365d 46bc 8de9 813c 3f5f 2e3a a4ee 8ebc
00000390: ff89 b33c a8ea 583d d289 a23d e89b e43d
000003a0: c800 913d a8a5 74bd 8b18 a9bd 7b53 083d
000003b0: 4b1f dd3c d845 033d be68 9bbd 9b97 2abe
000003c0: 9cc9 9ebe 1c7e 8cbe 2de9 afbe 3b73 f1bd
000003d0: cb6d f7bc afef 3ebd 2c5f c8bd 0ecb fbbd
000003e0: 03e2 543d 9160 d83d 27e0 1b3d 87c5 1d3c
000003f0: c4ea 36bb 2d10 b43c 4ae2 22bc c708 6b3d

fc.bias f4 [10]
0.19244131 0.053316906 -0.00062544626 -0.008159148 -0.16046529 -0.5789655 0.025708469 -0.4061542
0.7258281 0.2288719
00000000: 560f 453e d462 5a3d fdf4 23ba f2ad 05bc
00000010: 0351 24be 1537 14bf 919a d23c 71f3 cfbe
00000020: dfcf 393f 655d 6a3e
