runs/benign/20250813-131410/models/global_round_0.pt (torch, 33309 bytes, 2 tensors)

fc.weight f4 [10, 784]
000000 20 d8 1b bc 50 98 9c bc 45 1a 9b 3c dc 05 37 3b
       -0.009511977 -0.019115597 0.018933425 0.0027927076
000010 67 82 d0 bc 54 9a 0a bd 52 d2 00 3d a3 91 d5 bc
       -0.025452806 -0.033838585 0.031450577 -0.026070422
000020 20 da 12 bc 41 38 6f bc 8d c4 02 bd 00 79 03 bc
       -0.008963138 -0.014600814 -0.031925727 -0.008024454
000030 fe 7a 3a bb cd 66 52 3c 90 da 95 bc 9b 4a 0f 3d
       -0.0028454657 0.012841892 -0.018292695 0.03498326
000040 ee eb 12 bb e3 7d 04 3d fa d7 c2 bc 6a 62 ea bc
       -0.0022418457 0.032346617 -0.023784626 -0.02861138
000050 33 83 1c 3c 9c 97 88 bc 13 85 27 bb e7 ef c0 3c
       0.009552765 -0.016673855 -0.0025561496 0.023551894
000060 1b 1c 12 bd a5 29 54 bc 11 62 ae bc 83 e9 c1 bc
       -0.035671335 -0.012949382 -0.021286996 -0.023670917
000070 51 98 bd 3c 2e f4 18 bc 73 f8 9f bc 93 b2 75 bc
       0.02314392 -0.009335561 -0.01952765 -0.014996189
000080 98 81 9f 3c 55 5b 0e 3d 90 26 f6 bc b1 bf a0 3c
       0.019470975 0.03475507 -0.030047685 0.019622656
000090 c4 17 94 3c 1d 70 81 3c dc 5a f0 bc 5d dd 11 bd
       0.018077739 0.01580053 -0.0293402 -0.0356115
0000a0 46 9c ac bc f1 4b ae bb 53 00 d1 bc cc e9 87 3c
       -0.02107061 -0.0053191115 -0.02551285 0.016590975
0000b0 45 60 0c 3d b2 20 e4 bc 5a b7 5a 3b 20 bd 00 3d
       0.034271497 -0.027847622 0.0033373446 0.031430364
0000c0 3c a5 e2 3c 92 19 0d 3d 7b 81 02 bd 5e 1c c7 bb
       0.02766668 0.034448214 -0.031861763 -0.0060763797
0000d0 47 8f ca bc ae 8d 20 bc 65 1d 82 bc 38 a5 e2 3b
       -0.024726523 -0.009799404 -0.015883157 0.0069166683
0000e0 3e 54 fb 3c b0 2c 9c 3c bf 68 ac bc 5f 84 39 3c
       0.030679818 0.019064277 -0.02104604 0.011323064
0000f0 69 c7 0b 3d 84 c8 8a 3c 64 bc c0 bc c4 f6 35 3b
       0.03412572 0.016941316 -0.023527332 0.0027765492
000100 a3 0b 09 3c ab 09 f4 bc 2e 4d 04 3d 2f e5 f4 bc
       0.008364591 -0.029789766 0.032300167 -0.02989444
000110 29 21 ed 3c 4b b4 43 3c 6c 81 59 bc 9d c3 f1 bc
       0.028946476 0.011944841 -0.0132754855 -0.029512221
000120 6a d6 bc 3b 44 d3 ff 3c ca e2 01 bc 1d d7 c3 3b
       0.005762865 0.031228669 -0.007927606 0.0059765712
000130 5d af 92 bb 76 cf 65 3c 6a d2 0b bb 69 5e 89 3b
       -0.0044764713 0.014026513 -0.0021335133 0.004192163
000140 05 b0 fd bc ca d4 0d 3d b5 c8 93 bc 53 c5 80 bb
       -0.030967722 0.03462676 -0.01804004 -0.003929773
000150 a1 c9 56 3c 17 39 09 bd c1 b5 e7 bb e1 59 4c bc
       0.0131095955 -0.03350171 -0.0070712273 -0.012472601
000160 b2 dd 22 bc 55 93 ff bc ca d4 d1 3c 53 aa 94 bc
       -0.009940552 -0.031198183 0.025614161 -0.018147623
000170 ad 90 a6 3c c8 f3 c3 3b fa fd fd bc 83 81 e9 bc
       0.020332659 0.0059799887 -0.031004895 -0.028504139
000180 74 9a 08 bd ee f9 38 bc 5f de c7 3c fb 3e 8e bc
       -0.033350423 -0.011290057 0.024398027 -0.017364016
000190 e2 aa a7 3c 6a 51 ef bc 59 ef 8b bc 84 06 7c bc
       0.020467225 -0.029213626 -0.017081903 -0.015382413
0001a0 3d 45 bd bc 64 7e 45 3b 74 63 e1 3c 1f 7e ed bb
       -0.023104304 0.003013515 0.027513243 -0.007247701
0001b0 3c c4 e6 bc de f9 ec 3c 94 fb c2 bc 15 bf b4 bc
       -0.028169744 0.02892774 -0.023801602 -0.022063771
0001c0 6a 56 51 3c 70 23 ce 3c 9b 28 c8 bb d2 bb 08 bd
       0.01277695 0.025163382 -0.006108356 -0.033382244
0001d0 99 91 9d bc e1 37 2f 3c 2a de 64 3c 11 55 40 3c
       -0.019234465 0.010694475 0.013968984 0.011739031
0001e0 00 85 a1 3b c0 e7 f6 bb 75 07 97 bc 83 23 ae b8
       0.004929185 -0.007534951 -0.018436173 -8.303581e-05
0001f0 e8 bb 84 bb c5 03 62 3a e4 e7 04 3d 2b 87 53 bc
       -0.0040507205 0.00086217775 0.03244771 -0.0129106445
000200 b9 ab 56 3c a4 74 bc bc 82 eb 98 3b b0 3d 07 bd
       0.013102465 -0.023004837 0.0046667466 -0.033017814
000210 da 8e bd 3c 66 ff 97 bc de 69 34 bd 61 ce c9 bc
       0.023139406 -0.0185544 -0.044046275 -0.024634542
000220 4f 9f 79 3c a6 f3 55 3c 83 3b ea 3c 02 16 22 bc
       0.015235736 0.013058579 0.02859283 -0.009892942
000230 0c 7d 90 3c aa 38 f5 3c e6 af a7 bb e0 9e 0e bc
       0.017637752 0.029934246 -0.0051174043 -0.008704871
000240 b4 44 83 bc c9 74 18 3c 89 ac 95 bc 41 31 a8 3c
       -0.016023971 0.0093051875 -0.018270748 0.020531299
000250 c3 68 5d 3b 80 3c 2c 3c c9 0c 50 bd e2 4d b9 3c
       0.0033784367 0.010512471 -0.050793443 0.022620145
000260 13 92 3a bc 90 f1 1a 3d d4 87 7d 3d 8a dc c1 3c
       -0.011387366 0.03782803 0.061897114 0.023664732
000270 19 53 16 3d 0e ea 31 3c 05 b4 ba 3c 17 64 13 3d
       0.03670034 0.010859026 0.022790918 0.035984125
000280 12 67 d4 bc 13 4d f5 bc bd d2 d1 3b 9e ba 1d 3c
       -0.025928054 -0.029943978 0.006403296 0.009627013
000290 e3 d1 a0 3c cf 07 00 bd 7c 76 a6 3b b2 c1 57 3b
       0.019631332 -0.031257447 0.0050800424 0.0032921848
0002a0 ee 81 87 3b a6 6a 40 bc 90 ca ea 3c dd 9b 73 3b
       0.004135362 -0.011744177 0.028661042 0.003717176
0002b0 91 15 b7 3c b2 5c ed 3a 86 a2 d4 bc 7f 96 6c 3b
       0.02234915 0.001810929 -0.025956403 0.0036100445
0002c0 af bd 59 38 da c6 19 bd 4e 33 79 3b ae 27 9c 3c
       5.191349e-05 -0.037543155 0.0038024965 0.01906189
0002d0 0d c9 00 bd be f1 64 3b e8 b8 d0 3b bf 80 88 3d
       -0.031441737 0.0034934129 0.006369699 0.06665181
0002e0 2f 18 7c 3d 13 96 9c 3d c7 1d eb 3c 54 36 33 3d
       0.0615465 0.07645812 0.028700722 0.043752983
0002f0 2f 9d 7a ba 28 a3 a9 bc 01 de ef bc 91 1c 4a 3b
       -0.00095601653 -0.020707682 -0.029280664 0.003083978
000300 e3 a9 10 bd 50 8c 24 3c c8 74 b6 bc d7 0e d6 3c
       -0.035318267 0.010043219 -0.022272483 0.026130123
000310 4c 6c a1 3a ee 58 ba 3c 64 9c 89 bc 37 be d0 3c
       0.00123156 0.022747483 -0.016798206 0.025481327
000320 82 ef 53 bc df 7c 3f 3b f2 52 e3 bc 81 3a 04 3b
       -0.012935521 0.0029218716 -0.027749512 0.0020176473
000330 ed 4c cb ba 38 e2 74 bd e9 43 99 b9 05 02 50 bc
       -0.0015510597 -0.05978605 -0.0002923303 -0.012695794
000340 4d 69 0a 3c ed 21 39 bc 6a f5 17 3c 27 65 69 3d
       0.008447957 -0.011299592 0.00927482 0.056981232
000350 7e 78 08 3c 26 29 4a 3d bc 58 5f 3d 2d 06 6d 3d
       0.008329509 0.04935565 0.054527983 0.057867218
000360 99 e2 79 3c 1d 19 e9 b9 b4 2a 9c bc cd 5d ce bc
       0.015251779 -0.00044459934 -0.019063331 -0.025191212
000370 a2 0a 59 bd 3b 2e 2b bc 7e 4b 80 3c f7 78 c1 3c
       -0.052988656 -0.010448034 0.015660997 0.02361725
000380 6c 74 f1 3c 1a 88 cb ba d9 7d a6 bc 5f e0 a6 bc
       0.02947446 -0.0015528232 -0.02032368 -0.02037066
000390 91 4a 8d 3c 6f 95 b3 3c f9 39 7d bc f8 f6 b7 3b
       0.01724747 0.021921841 -0.015455716 0.0056141578
0003a0 6f 6c 2d bc 99 ef 35 bd d4 1b d0 3a ac 10 09 bd
       -0.010584935 -0.04441795 0.0015877434 -0.033463165
0003b0 76 c6 d7 bc 70 db b7 3c 4f fc 1c 3d b2 40 22 3d
       -0.02633975 0.022443503 0.038326558 0.03961248
0003c0 93 07 c2 ba 1d 66 50 3d f4 58 aa 3d ca 03 49 3d
       -0.0014803283 0.050878633 0.08317748 0.04907588
0003d0 59 d4 82 3d 85 7f 56 3c 67 18 68 3c 78 e0 76 3b
       0.06388158 0.013091926 0.014165974 0.0037670415
0003e0 61 8a 03 bd 25 00 d5 bc 8a 13 d4 3c 74 eb b1 3a
       -0.03211439 -0.026001045 0.025888223 0.0013574199
0003f0 4b aa fb 3c c7 50 0a 3d 13 bf 0d bb ef b1 9d 3c
       0.03072085 0.03376844 -0.0021628782 0.019249884

fc.bias f4 [10]
000000 1c e7 83 bd ce 2f 19 3e 8a db 81 bd d4 13 38 bd
       -0.06440565 0.14959642 -0.06340702 -0.044940785
000010 08 c5 bf 3c 0b fd 24 3e 58 11 d1 bc ae f0 07 3e
       0.023409382 0.16112153 -0.025520965 0.13275406
000020 a4 8d 5e be 8d 6d bc bb
       -0.21733719 -0.005750364
