runs/benign/20250813-131410/models/global_round_1.pt (torch, 33309 bytes, 2 tensors)

fc.weight f4 [10, 784]
00000000: 20d8 1bbc 5098 9cbc 451a 9b3c dc05 373b
00000010: 6782 d0bc 549a 0abd 52d2 003d a391 d5bc
00000020: 20da 12bc 4138 6fbc 8dc4 02bd 0079 03bc
00000030: ed88 3abb 435e 523c 12db 95bc 984a 0f3d
00000040: eeeb 12bb e37d 043d fad7 c2bc 6a62 eabc
00000050: 3383 1c3c 9c97 88bc 1385 27bb e7ef c03c
00000060: 1b1c 12bd a529 54bc 1162 aebc 83e9 c1bc
00000070: 5198 bd3c 2ef4 18bc 73f8 9fbc 93b2 75bc
00000080: 8581 9f3c 325b 0e3d 332e f6bc 0cad a03c
00000090: 2ee4 933c 8442 813c 1d9c f0bc 53e4 11bd
000000a0: 1c6e acbc 90ff aebb 469b d1bc e54b 893c
000000b0: 1f97 0e3d 2138 e2bc 9909 583b 768d 003d
000000c0: 034e e23c 5708 0d3d a685 02bd 2f1e c7bb
000000d0: 478f cabc ae8d 20bc 651d 82bc 38a5 e23b
000000e0: 3e54 fb3c b02c 9c3c c268 acbc 8b8a 393c
000000f0: d8c6 0b3d 7fc5 8a3c 668d c1bc 79b4 2a3b
00000100: 6665 053c 6435 f7bc 23cd 013d 6d2e fabc
00000110: cb1a e63c 9392 2d3c 62df 79bc 80c9 01bd
00000120: f5dd 6e3b 1b89 eb3c 6d6c 23bc 124c 993b
00000130: 4e28 adbb e602 5d3c 2334 19bb 6d05 873b
00000140: 35e5 fdbc 25d3 0d3d b5c8 93bc 53c5 80bb
00000150: a1c9 563c 1739 09bd eeb5 e7bb cc7f 4cbc
00000160: ee39 27bc f7b2 02bd a2b3 c93c e9f3 a2bc
00000170: 9271 953c b7cc 513b e62a 0abd b41f 00bd
00000180: 8286 16bd 2b34 74bc 4c11 9b3c a3e6 c5bc
00000190: 1eea 483c 91f0 1cbd 30a1 ddbc b559 c7bc
000001a0: 9ce5 f6bc c49c 13bb e6c7 c63c a2de 11bc
000001b0: 83c7 ecbc 2409 ec3c d92a c3bc 15bf b4bc
000001c0: 6a56 513c 6c23 ce3c dc2e c8bb f4d9 08bd
000001d0: 282a 9fbc a76c 1b3c 9088 433c bcc3 013c
000001e0: fadf 18ba bc2f 67bc f4fc bebc da89 5abb
000001f0: 1223 40bb 26d6 cf3b 7979 1f3d 70c9 b6bb
00000200: b07f 7a3c 48ed b2bc 5064 663a c98b 1bbd
00000210: 0daf 893c 23b6 d9bc 2ad3 4cbd 9d13 f6bc
00000220: 4169 3b3c 3786 433c 13b9 e83c 241e 22bc
00000230: 0c7d 903c aa38 f53c d9cd a7bb d36e 11bc
00000240: 9a11 89bc 4ffd ee3b 2fa7 b6bc 47e7 623c
00000250: 9fff cdbb 9135 79b8 a7b7 68bd 9861 aa3c
00000260: f75a e3bb 16d8 5b3d d344 b23d c82e 613d
00000270: 80c7 813d 34f7 143d 08a6 273d 0c73 333d
00000280: d882 cabc 7889 04bd 2abb 31bb 943c 24bb
00000290: 4410 3b3c 6da1 0dbd 25a0 933b 199e 4e3b
000002a0: ee81 873b 446b 40bc e8b0 ea3c a0b9 693b
000002b0: b0d7 ac3c 8f3a 2fb9 d0b0 01bd 1560 e4bb
000002c0: 0c00 5ebc 7e60 4cbd b39e 3cba 3362 b53c
000002d0: 09a6 b9bc c217 c23c 7ffa 043d 8510 c63d
000002e0: fc92 c63d 3f10 e93d a639 753d 3362 853d
000002f0: d65a 323c b158 2dbc e915 f0bc abb9 1dbc
00000300: de5b 49bd 984f 283b d524 ccbc 53d8 d13c
00000310: 336c a13a 1d47 ba3c bc05 8abc dcf0 cd3c
00000320: 6d30 6fbc abf9 1aba 429a 10bd c9ce 3fbc
00000330: 04df 81bc 5724 8abd 58ff 6d3a eea6 80bb
00000340: d2e0 b73c 1090 5e3b c15f d53c 3322 ab3d
00000350: fb5d 333d 1806 c13d 2811 c73d fc0c b63d
00000360: 22ad 073d ef25 413c 90b1 33bc c18e f7bc
00000370: 5235 87bd d0c6 a2bc e21c 593c f6d9 bf3c
00000380: 451d f23c 8aca cdba 938b a7bc fd07 acbc
00000390: 5c48 753c 55d4 853c 8029 cfbc 05b4 00bc
000003a0: b055 b3bc 2359 46bd b925 f03b 5c79 bfbc
000003b0: 8d78 7fbc bc56 013d 89ab 633d 096c 833d
000003c0: 3cfb 023d 8f52 b83d a681 fd3d e07f ab3d
000003d0: 3830 ba3d af7b 033d fbb7 063d 3930 393c
000003e0: a27f 26bd cc22 12bd ceca bd3c 612c a03a
000003f0: 69a8 fb3c a93d 0a3d 938a 16bb af80 943c
-0.009511977 -0.019115597 0.018933425 0.0027927076 -0.025452806 -0.033838585 0.031450577 -0.026070422
-0.008963138 -0.014600814 -0.031925727 -0.008024454 -0.0028462962 0.012839857 -0.018292937 0.034983248
-0.0022418457 0.032346617 -0.023784626 -0.02861138 0.009552765 -0.016673855 -0.0025561496 0.023551894
-0.035671335 -0.012949382 -0.021286996 -0.023670917 0.02314392 -0.009335561 -0.01952765 -0.014996189
0.01947094 0.03475494 -0.030051326 0.019613765 0.01805314 0.015778787 -0.029371316 -0.035618138
-0.021048598 -0.005340524 -0.025586735 0.016759822 0.03481209 -0.027614655 0.0032964705 0.031384908
0.02762509 0.03443178 -0.03186574 -0.006076596 -0.024726523 -0.009799404 -0.015883157 0.0069166683
0.030679818 0.019064277 -0.021046046 0.011324535 0.03412518 0.016939877 -0.023626994 0.0026047511
0.008141851 -0.030176826 0.031689774 -0.030539716 0.028088948 0.010594028 -0.0152510125 -0.031686306
0.0036448215 0.0287519 -0.009974581 0.0046782577 -0.0052843457 0.013489461 -0.0023377023 0.00412052
-0.030993083 0.03462519 -0.01804004 -0.003929773 0.0131095955 -0.03350171 -0.0070712483 -0.012481641
-0.010206683 -0.031908955 0.024621788 -0.019891696 0.018242631 0.0032012889 -0.033732317 -0.031280234
-0.03674937 -0.014905016 0.018929146 -0.024157828 0.012262849 -0.03831536 -0.0270544 -0.024334768
-0.030138783 -0.002252386 0.02426524 -0.008903177 -0.028903728 0.028812952 -0.023824142 -0.022063771
0.01277695 0.025163375 -0.0061091017 -0.03341098 -0.019429281 0.009486354 0.0119344145 0.007920202
-0.0005831715 -0.014110502 -0.023313977 -0.0033346326 -0.0029317779 0.006342667 0.038934205 -0.0055782124
0.015289232 -0.02184166 0.00087887514 -0.037975106 0.016807104 -0.026576107 -0.05000607 -0.03003865
0.011438669 0.011933855 0.028408563 -0.009894881 0.017637752 0.029934246 -0.0051209745 -0.00887652
-0.016732026 0.0072933803 -0.022296516 0.013849086 -0.006286576 -5.9416114e-05 -0.05681577 0.02079849
-0.006938334 0.053672872 0.087045334 0.054976255 0.0633688 0.036368564 0.040929824 0.04381089
-0.024720594 -0.032357663 -0.0027119615 -0.0025060521 0.011417452 -0.034577776 0.0045051747 0.003152734
0.004135362 -0.011744324 0.028648809 0.003566362 0.021098942 -0.00016711115 -0.031662762 -0.0069694617
-0.013549816 -0.04989671 -0.0007195279 0.022141552 -0.02266218 0.02369297 0.032465454 0.096711196
0.09696004 0.11380052 0.05986943 0.06512871 0.010885915 -0.010580228 -0.029307323 -0.009626786
-0.049159877 0.0025682207 -0.024919907 0.025615847 0.0012315571 0.022738988 -0.016848437 0.025139265
-0.014598948 -0.0005911837 -0.03530336 -0.011707016 -0.015853412 -0.067452125 0.00090788817 -0.0039261496
0.02244607 0.003396038 0.026046636 0.08356132 0.0437908 0.094249904 0.09720069 0.08889195
0.033124097 0.011788829 -0.010967627 -0.030219438 -0.06601967 -0.019870192 0.013251515 0.023419362
0.029554972 -0.001570062 -0.020452296 -0.020999903 0.014970865 0.0163366 -0.025288343 -0.00785542
-0.021891445 -0.04842485 0.0073287156 -0.023373298 -0.015592706 0.031576857 0.05558351 0.064170904
0.031977877 0.09000122 0.12378244 0.083739996 0.09091228 0.032100376 0.0328903 0.011303001
-0.040649064 -0.035677716 0.023167994 0.0012220257 0.030719953 0.03375021 -0.002297078 0.018127767

fc.bias f4 [10]
00000000: c751 bfbd 6005 5f3e ceec 9ebd 16ba b3bd
00000010: 8ab1 bd3c 3fff 9b3e 33b7 30bd 9e0c 523e
00000020: 2d1c babe 2f1e 23bd
-0.0934177 0.21779394 -0.07760011 -0.087757275 0.023155946 0.30468175 -0.043143462 0.20512626
-0.3634962 -0.039823707
