runs/benign/20250813-223907/updates/round_1_node_7_delta.pt (torch, 33357 bytes, 2 tensors)

fc.weight f4 [10, 784]
0.0 0.0 0.0 0.0 0.0 0.0 0.0 0.0
0.0 0.0 0.0 0.0 0.0 0.0 0.0 0.0
0.0 0.0 0.0 0.0 0.0 0.0 0.0 0.0
0.0 0.0 0.0 0.0 0.0 0.0 0.0 0.0
0.0 0.0 -8.381903e-07 -1.6447157e-06 -7.5101852e-06 -2.4234876e-05 -2.0196661e-05 -2.7153641e-05
-1.17579475e-05 -2.5009736e-05 -2.5431626e-05 -4.6685804e-05 -3.5937876e-05 -2.624793e-05 -2.7419068e-05 -2.1706335e-05
-1.1969358e-05 -3.106892e-06 0.0 0.0 0.0 0.0 0.0 0.0
0.0 0.0 -2.142042e-08 -8.0280006e-07 -2.8871e-08 -1.2665987e-06 -8.97143e-06 -4.204479e-05
-9.155646e-05 -0.000244922 -0.00026221573 -0.00036319718 -0.0006395569 -0.0006439993 -0.0007475364 -0.0008744076
-0.000826912 -0.00069084764 -0.000605355 -0.0005482901 -0.0004065372 -0.00025350973 -0.00014972407 -4.8779882e-05
-8.40798e-06 -2.2351742e-07 0.0 0.0 0.0 0.0 -1.1455268e-07 -6.876886e-06
-5.9641898e-06 -3.431365e-05 -7.521734e-05 -0.00026500225 -0.0005236026 -0.0008422807 -0.0012403913 -0.0018468499
-0.0023786128 -0.002877336 -0.0036264565 -0.00372912 -0.0035477243 -0.0034058741 -0.0033732504 -0.0029378568
-0.002025796 -0.0013888776 -0.0008492861 -0.00048283674 -0.0002869852 -4.7178008e-05 -2.761837e-06 0.0
0.0 -5.075708e-08 -2.1606684e-06 -2.7213246e-06 -2.7844682e-05 -0.00018767081 -0.00047533214 -0.0013824683
-0.0021127826 -0.0031724349 -0.004772406 -0.006352991 -0.007933911 -0.009523919 -0.008041406 -0.0082142465
-0.005412098 -0.0020031123 -0.0012932327 -0.0038494375 -0.002746997 -0.0033615527 -0.0020011086 -0.0010088794
-0.0004903786 -8.7821856e-05 -3.874302e-07 0.0 0.0 0.0 -1.3532117e-06 -4.313886e-05
-0.00020167604 -0.00064186566 -0.0017387569 -0.0027273055 -0.0041017993 -0.0054881647 -0.0074673267 -0.0100807585
-0.012395424 -0.012338668 -0.011625504 -0.01310217 -0.012342069 -0.010371518 -0.007910762 -0.004231737
-0.0010716487 -0.0019472726 -0.002656579 -0.0013566585 -0.00050739245 -0.00014735106 -3.3795834e-05 0.0
0.0 0.0 -1.871679e-05 -0.00020549214 -0.0005444586 -0.0014112182 -0.0027639344 -0.0038583167
-0.0057001887 -0.007927171 -0.010795256 -0.0132765565 -0.012838171 -0.016369903 -0.019740272 -0.022124965
-0.02163238 -0.018978696 -0.015096471 -0.010221857 -0.0051376615 -0.00035273563 -0.001690913 -0.0021978803
-0.0010988005 -0.0005503986 -0.00017798226 0.0 0.0 -2.278015e-06 -8.7335706e-05 -0.0002814792
-0.0008739233 -0.0019850712 -0.0034073405 -0.0053207017 -0.00799245 -0.010976128 -0.013840988 -0.013666749
-0.017889043 -0.020841107 -0.022855006 -0.023622243 -0.023145854 -0.02070162 -0.017220205 -0.013398808
-0.009007577 -0.0034060115 -0.0008121859 -0.00272643 -0.0012630504 -0.0003684219 -9.25716e-05 0.0
0.0 -7.208437e-07 -0.00013808068 -0.00048611627 -0.0012790158 -0.0025667192 -0.004496296 -0.007410113
-0.010692261 -0.013171669 -0.013337856 -0.016759166 -0.018868355 -0.01946963 -0.019822575 -0.019930253
-0.021954656 -0.023075582 -0.021380242 -0.01435319 -0.010805699 -0.0062958933 -0.001209408 0.00093265064
-0.0014383942 -0.0006392887 -0.00017573033 -8.232892e-06 0.0 -8.6426735e-06 -0.00013942271 -0.0005102679
00000000: 0000 0000 0000 0000 0000 0000 0000 0000
00000010: 0000 0000 0000 0000 0000 0000 0000 0000
00000020: 0000 0000 0000 0000 0000 0000 0000 0000
00000030: 0000 0000 0000 0000 0000 0000 0000 0000
00000040: 0000 0000 0000 0000 0000 0000 0000 0000
00000050: 0000 0000 0000 0000 0000 0000 0000 0000
00000060: 0000 0000 0000 0000 0000 0000 0000 0000
00000070: 0000 0000 0000 0000 0000 0000 0000 0000
00000080: 0000 0000 0000 0000 0000 61b5 00c0 dcb5
00000090: 0000 fcb6 004c cbb7 006c a9b7 00c8 e3b7
000000a0: 0044 45b7 00cc d1b7 0056 d5b7 80d0 43b8
000000b0: 00bc 16b8 002f dcb7 0002 e6b7 0016 b6b7
000000c0: 00d0 48b7 0080 50b6 0000 0000 0000 0000
000000d0: 0000 0000 0000 0000 0000 0000 0000 0000
000000e0: 0000 0000 0000 0000 0000 b8b2 0080 57b5
000000f0: 0000 f8b2 0000 aab5 0084 16b7 4059 30b8
00000100: 0002 c0b8 e068 80b9 007a 89b9 806b beb9
00000110: f0a7 27ba 10d2 28ba 52f6 43ba 8038 65ba
00000120: 20c5 58ba 001a 35ba b0b0 1eba 20bb 0fba
00000130: 8024 d5b9 80e9 84b9 40ff 1cb9 0099 4cb8
00000140: 0010 0db7 0000 70b4 0000 0000 0000 0000
00000150: 0000 0000 0000 0000 0000 f6b3 00c0 e6b6
00000160: 0020 c8b6 00ec 0fb8 00be 9db8 00f0 8ab9
00000170: 6042 09ba 80cc 5cba a094 a2ba 0012 f2ba
00000180: 80e2 1bbb b091 3cbb d8a9 6dbb 4064 74bb
00000190: f080 68bb 1635 5fbb c011 5dbb 0f89 40bb
000001a0: 38c3 04bb 000b b6ba a0a2 5eba 4025 fdb9
000001b0: 8076 96b9 00e1 45b8 0058 39b6 0000 0000
000001c0: 0000 0000 0000 5ab3 0000 11b6 00a0 36b6
000001d0: 0094 e9b7 80c9 44b9 0036 f9b9 f033 b5ba
000001e0: 9c76 0abb a0e8 4fbb d861 9cbb c02c d0bb
000001f0: 3cfd 01bc 360a 1cbc 1ac0 03bc 0c95 06bc
00000200: f857 b1bb a646 03bb b081 a9ba d846 7cbb
00000210: f606 34bb 7f4d 5cbb 0825 03bb 603c 84ba
00000220: c08c 00ba 002d b8b8 0000 d0b4 0000 0000
00000230: 0000 0000 0000 0000 00a0 b5b5 00f0 34b8
00000240: 0079 53b9 e042 28ba 00e7 e3ba 98bc 32bb
00000250: 6368 86bb 10d6 b3bb 7ab0 f4bb c429 25bc
00000260: 2d16 4bbc 2028 4abc e678 3ebc 7caa 56bc
00000270: 6436 4abc 4ded 29bc 249c 01bc 62aa 8abb
00000280: 9076 8cba a03b ffba 001a 2ebb e8d1 b1ba
00000290: 8802 05ba 4082 1ab9 00c0 0db8 0000 0000
000002a0: 0000 0000 0000 0000 0002 9db7 6079 57b9
000002b0: 00ba 0eba a0f8 b8ba 2023 35bb d0db 7cbb
000002c0: a6c8 babb f7e0 01bc 96de 30bc ea85 59bc
000002d0: 3157 52bc 2d1a 86bc 5ab6 a1bc 6a3f b5bc
000002e0: 6436 b1bc 3679 9bbc 3057 77bc 9379 27bc
000002f0: d459 a8bb 60ef b8b9 a0a1 ddba 500a 10bb
00000300: a005 90ba a048 10ba c0a0 3ab9 0000 0000
00000310: 0000 0000 00e0 18b6 0028 b7b8 8093 93b9
00000320: 0018 65ba f817 02bb b04d 5fbb 4859 aebb
00000330: c4f2 02bc 38d5 33bc 50c5 62bc 80ea 5fbc
00000340: 0b8c 92bc f8ba aabc 6c3a bbbc 6f83 c1bc
00000350: 609c bdbc 7296 a9bc 6311 8dbc ad86 5bbc
00000360: 8494 13bc 6437 5fbb e0e8 54ba e8ad 32bb
00000370: f08c a5ba c028 c1b9 0023 c2b8 0000 0000
00000380: 0000 0000 0080 41b5 c0c9 10b9 6cdd feb9
00000390: a6a4 a7ba 6736 28bb aa55 93bb 88d0 f2bb
000003a0: 982e 2fbc fccd 57bc 0687 5abc 854a 89bc
000003b0: cf91 9abc c67e 9fbc f462 a2bc c544 a3bc
000003c0: 40da b3bc 0109 bdbc 9e25 afbc a429 6bbc
000003d0: 630a 31bc c84d cebb 0085 9eba 207d 743a
000003e0: 8088 bcba f095 27ba 4044 38b9 0020 0ab7
000003f0: 0000 0000 0000 11b7 0032 12b9 80c3 05ba

fc.bias f4 [10]
-0.06717338 0.050754458 0.0023222454 -0.019363664 -0.055652432 -0.016869336 0.048120677 0.027010866
-0.10777882 0.13863
00000000: 3292 89bd e8e3 4f3d d030 183b 8ca0 9ebc
00000010: cef3 63bd 9031 8abc 301a 453d e445 dd3c
00000020: 24bb dcbd 06f5 0d3e
