runs/benign/20250814-105020/updates/round_0_node_4_delta.pt (torch, 33357 bytes, 2 tensors)

fc.weight f4 [10, 784]
0.0 0.0 0.0 0.0 0.0 0.0 0.0 0.0
0.0 0.0 0.0 0.0 0.0 0.0 0.0 0.0
0.0 0.0 0.0 0.0 0.0 0.0 0.0 0.0
0.0 0.0 0.0 0.0 0.0 0.0 0.0 0.0
0.0 0.0 0.0 -3.106706e-05 -0.00031783246 -0.00031783246 -0.00031783292 -0.00011231378
-0.000114437426 -0.00050127506 -0.00027229683 0.0027480829 0.0075114295 0.0035725087 0.0 0.0
0.0 0.0 0.0 0.0 0.0 0.0 0.0 0.0
0.0 0.0 0.0 0.0 0.0 0.0 0.0 -0.0004851129
-0.00073050056 -0.00091087585 -0.00090661645 -0.0006910842 -0.0011694338 -0.001115717 -9.715743e-05 8.66279e-05
-0.00025070272 -0.0011231368 5.376525e-06 0.00045648403 0.0 0.0 0.0 0.0
0.0 0.0 0.0 0.0 0.0 0.0 0.0 0.0
0.0 -0.006200785 -0.007151967 -0.013704792 -0.011675071 -0.0069385218 -0.008548259 -0.0122246295
-0.017719228 -0.019841174 -0.022760967 -0.028542275 -0.03153241 -0.021979257 -0.015423857 -0.01388013
-0.010719549 -0.0037446227 -0.000624561 6.262213e-06 0.0 0.0 0.0 0.0
0.0 0.0 0.0 -9.0068206e-05 -0.00032010674 -0.009122612 -0.015412444 -0.02202295
-0.027025567 -0.03162794 -0.027333042 -0.025595048 -0.02060435 0.00013437856 0.007792419 0.011381188
0.0069333836 0.011170097 0.0050775353 0.00019719638 -0.0009929333 -0.008159284 -0.011954439 -0.009507631
-0.004677631 -0.0032331478 -3.5408884e-05 0.0 0.0 0.0 0.0 -0.00040457956
-0.0020492636 -0.011403372 -0.020363118 -0.032367405 -0.04588031 -0.044314563 -0.04180005 -0.033115905
-0.0066258274 0.04454645 0.06385176 0.07035015 0.08050855 0.07971505 0.05457135 0.018314246
-0.0035969857 -0.012976365 -0.026852923 -0.025512641 -0.00997727 -0.0020801965 -0.00011078268 0.0
0.0 -3.2316893e-06 -8.42046e-05 -0.0009950157 -0.0035329666 -0.0049422067 -0.024671849 -0.040708616
-0.04306941 -0.044200093 -0.020911206 -0.006014239 0.03096176 0.064413644 0.08307953 0.09308567
0.09978789 0.096436724 0.07665634 0.052781582 0.010288336 -0.0007531941 -0.031096052 -0.03248536
-0.015365843 -0.0035304364 -0.00044228975 0.0 0.0 -0.00014863908 -7.828511e-05 -0.0018135292
-0.008639538 -0.014910272 -0.028928185 -0.038169302 -0.03029177 -0.02376319 -0.0015113847 0.006985845
0.046803206 0.0821335 0.08403592 0.08277194 0.090904176 0.09777132 0.08848715 0.072450325
0.029991634 0.00829965 -0.009519469 -0.027924953 -0.015369065 -0.0044582225 -0.00035873428 0.0
0.0 -0.00010737544 -0.0007011797 -0.004485923 -0.014503218 -0.022431158 -0.029569225 -0.026264988
-0.015854679 -0.010001032 -0.0052996036 0.027719017 0.06398394 0.07607625 0.07263927 0.05518939
0.054789677 0.07836677 0.10408769 0.09496629 0.042966917 0.032413103 0.017978882 -0.013124514
-0.009908931 -0.0067491718 -0.00061443273 0.0 0.0 -9.358302e-05 -0.002108978 -0.0062493104
00000000: 0000 0000 0000 0000 0000 0000 0000 0000
00000010: 0000 0000 0000 0000 0000 0000 0000 0000
00000020: 0000 0000 0000 0000 0000 0000 0000 0000
00000030: 0000 0000 0000 0000 0000 0000 0000 0000
00000040: 0000 0000 0000 0000 0000 0000 0000 0000
00000050: 0000 0000 0000 0000 0000 0000 0000 0000
00000060: 0000 0000 0000 0000 0000 0000 0000 0000
00000070: 0000 0000 0000 0000 0000 0000 0000 0000
00000080: 0000 0000 0000 0000 0000 0000 004e 02b8
00000090: c0a2 a6b9 c0a2 a6b9 d0a2 a6b9 008a ebb8
000000a0: 20fe efb8 0068 03ba 10c3 8eb9 2e19 343b
000000b0: 7022 f63b c020 6a3b 0000 0000 0000 0000
000000c0: 0000 0000 0000 0000 0000 0000 0000 0000
000000d0: 0000 0000 0000 0000 0000 0000 0000 0000
000000e0: 0000 0000 0000 0000 0000 0000 0000 0000
000000f0: 0000 0000 0000 0000 0000 0000 c056 feb9
00000100: 107f 3fba d8c7 6eba 00aa 6dba e029 35ba
00000110: b047 99ba 403d 92ba 00c1 cbb8 00ac b538
00000120: c070 83b9 3836 93ba 0068 b436 4054 ef39
00000130: 0000 0000 0000 0000 0000 0000 0000 0000
00000140: 0000 0000 0000 0000 0000 0000 0000 0000
00000150: 0000 0000 0000 0000 0000 0000 0000 0000
00000160: 0000 0000 f42f cbbb 0c5b eabb 108a 60bc
00000170: cc48 3fbc 8a5c e3bb ff0d 0cbc d049 48bc
00000180: ea27 91bc f589 a2bc 3575 babc 7dd1 e9bc
00000190: 2128 01bd d80d b4bc 58b4 7cbc 7c69 63bc
000001a0: 0ca1 2fbc 5868 75bb 94b9 23ba 0020 d236
000001b0: 0000 0000 0000 0000 0000 0000 0000 0000
000001c0: 0000 0000 0000 0000 0000 0000 00e3 bcb8
000001d0: 00d4 a7b9 0277 15bc 7a84 7cbc 7969 b4bc
000001e0: b964 ddbc 4c8c 01bd 8be9 dfbc b5ac d1bc
000001f0: 74ca a8bc f8e7 0c39 8c57 ff3b 2a78 3a3c
00000200: 7031 e33b c802 373c 7461 a63b 80c6 4e39
00000210: 5025 82ba 84ae 05bc 8ddc 43bc e5c5 1bbc
00000220: d046 99bb 38e3 53bb 0084 14b8 0000 0000
00000230: 0000 0000 0000 0000 0000 0000 c01d d4b9
00000240: f04c 06bb 35d5 3abc 8ed0 a6bc af93 04bd
00000250: feec 3bbd 3083 35bd 8736 2bbd 8ba4 07bd
00000260: 781d d9bb 5776 363d b6c4 823d bd13 903d
00000270: abe1 a43d a541 a33d 3586 5f3d c207 963c
00000280: 68bb 6bbb d29a 54bc a9fa dbbc e3ff d0bc
00000290: b477 23bc e853 08bb 0054 e8b8 0000 0000
000002a0: 0000 0000 00e0 58b6 0097 b0b8 306b 82ba
000002b0: 5889 67bb 3cf2 a1bb 9e1c cabc 14be 26bd
000002c0: 8d69 30bd 280b 35bd fa4d abbc 1813 c5bb
000002d0: 84a3 fd3c 4deb 833d 9a25 aa3d b3a3 be3d
000002e0: 985d cc3d 9e80 c53d 00fe 9c3d 8031 583d
000002f0: 6990 283c 0072 45ba 26bd febc 5e0f 05bd
00000300: 04c1 7bbc e55e 67bb 20e3 e7b9 0000 0000
00000310: 0000 0000 00dc 1bb9 002d a4b8 f1b3 edba
00000320: d98c 0dbc 374a 74bc cdfa ecbc 6a57 1cbd
00000330: 7226 f8bc 05ab c2bc a819 c6ba 84e9 e43b
00000340: b8b4 3f3d 9c35 a83d 061b ac3d 5684 a93d
00000350: f82b ba3d 543c c83d c038 b53d d660 943d
00000360: 04b1 f53c 41fb 073c 8cf7 1bbc dfc2 e4bc
00000370: 88ce 7bbc 4816 92bb 8014 bcb9 0000 0000
00000380: 0000 0000 c02e e1b8 60cf 37ba a6fe 92bb
00000390: e89e 6dbc 8cc1 b7bc 293b f2bc ac29 d7bc
000003a0: ace1 81bc 5edb 23bc 4ca8 adbb fe12 e33c
000003b0: 030a 833d ddcd 9b3d e6c3 943d 450e 623d
000003c0: 246b 603d c27e a03d ed2b d53d b07d c23d
000003d0: 14fe 2f3d 9ac3 043d 7348 933c 3408 57bc
000003e0: 1259 22bc 2828 ddbb e211 21ba 0000 0000
000003f0: 0000 0000 0042 c4b8 c836 0abb 04c7 ccbb

fc.bias f4 [10]
-0.05679416 -0.080580615 -0.028583143 0.27061462 0.19644809 -0.076663315 -0.07590464 0.07213944
-0.17743485 -0.043241285
00000000: fea0 68bd 7307 a5bd 3227 eabc 008e 8a3e
00000010: b029 493e a801 9dbd e473 9bbd d8bd 933d
00000020: 7bb1 35be c61d 31bd
