runs/benign/20250813-125414/models/global_round_0.pt (torch, 33309 bytes, 2 tensors)

fc.weight f4 [10, 784]
0	0x3babcd2e	0.005242965
1	0x3c48c437	0.0122538125
2	0x3c7cc63c	0.015428122
3	0x3b0f8b25	0.0021903005
4	0x3cdcec0a	0.026968021
5	0x3bc66bb7	0.006055321
6	0xbcbf361a	-0.023341227
7	0x3ca5dc33	0.0202466
8	0xbcc6321a	-0.024193812
9	0xbb3fd025	-0.002926835
10	0x3c472b0a	0.012156257
11	0xbca3a097	-0.019974036
12	0x3c385b4c	0.011252236
13	0xbce46509	-0.027880209
14	0x3c3e3fce	0.011611892
15	0x3b09174e	0.0020918432
16	0xbbce492e	-0.006295345
17	0xbcbff86a	-0.023433883
18	0xbc82c9b3	-0.015965318
19	0x3cada1bc	0.021195285
20	0x3bdc0ab8	0.006715145
21	0xbb3ea44a	-0.0029089623
22	0xbc07345c	-0.00825223
23	0xbcb159bc	-0.021649234
24	0xbc28e01c	-0.010307338
25	0x3cdd7338	0.02703248
26	0xbc2797fc	-0.010229107
27	0x3b08e0ee	0.0020886022
28	0x3bed40ca	0.0072403895
29	0x3b8b0cae	0.004243455
30	0xbc4ccf25	-0.012500559
31	0x3cda363a	0.026637185
32	0x3c9ad977	0.018902523
33	0xbd04dcc1	-0.03243709
34	0xbca9ede9	-0.020743327
35	0x3cce5dd7	0.02519123
36	0x3cc1577d	0.023601288
37	0x3be5cc40	0.007012874
38	0x3cd5b2bb	0.026086202
39	0xbc27b7a0	-0.010236651
40	0xbc2e3a75	-0.010634054
41	0xbc6003ac	-0.01367275
42	0x3c679d37	0.014136604
43	0xbc8625ef	-0.01637551
44	0xbc1d02fc	-0.009583231
45	0x3c1d6f80	0.009609103
46	0x3d017147	0.03160217
47	0xbcc087ee	-0.023502316
48	0xbd10a8fa	-0.0353174
49	0x3b30ff61	0.0027007686
50	0xbca1d904	-0.019756801
51	0xbc9cfec2	-0.019164447
52	0x3cfb8571	0.030703278
53	0x3aac7f01	0.0013160409
54	0x3d02f142	0.031968363
55	0x3cf1cf0c	0.029517673
56	0xbc156e37	-0.009120516
57	0xbbd372d3	-0.006452897
58	0xbc27b2df	-0.010235517
59	0xbbfdc24e	-0.00774411
60	0xbae98ab6	-0.0017817828
61	0x3cb2f676	0.021846037
62	0xbce050ed	-0.027382338
63	0x3ca4537a	0.020059336
64	0x3a958aef	0.0011409203
65	0xbc932fb0	-0.017967075
66	0x3cac7bf0	0.021055192
67	0xbc901849	-0.017589705
68	0x3c485ca5	0.012229119
69	0x3b42834f	0.0029680317
70	0x3c013364	0.007885788
71	0xbcd8cf73	-0.026466107
72	0xbd1fb4d7	-0.03899082
73	0x3c9ad106	0.018898498
74	0xbbd36159	-0.0064508137
75	0xbca246d7	-0.01980917
76	0xbcd685e7	-0.026186896
77	0x3b3283cd	0.0027239204
78	0xba803794	-0.0009782189
79	0xbcdbc022	-0.026825015
80	0x3bc15d6a	0.0059010284
81	0x3cfde0e4	0.030991025
82	0x3ce08848	0.027408734
83	0xba7389b8	-0.0009290236
84	0x3ca7991c	0.02045875
85	0x3bf3736e	0.007429532
86	0xbc56231e	-0.013069896
87	0x3c555c98	0.013022564
88	0xbce5f23c	-0.028069608
89	0x38ff343f	0.00012169079
90	0x3ca8abc4	0.020589717
91	0xbc62fb03	-0.013853791
92	0x3aad714c	0.0013232618
93	0x3c2b38d6	0.010450562
94	0x3b395423	0.002827891
95	0xbd252631	-0.040319625
96	0x3cced94d	0.025250101
97	0x3ce37177	0.027764065
98	0xbc3be02d	-0.011467022
99	0xbbe65f77	-0.0070304233
100	0x3c63aadf	0.013895719
101	0x3baeeb73	0.0053381263
102	0xbbb14ff4	-0.0054111425
103	0xbcafc957	-0.021458311
104	0x3912c879	0.00013998327
105	0x3c789a0f	0.015173449
106	0x3be8b825	0.00710203
107	0x3c2d9db3	0.01059668
108	0xbcdf9aea	-0.027295548
109	0xbce082d4	-0.027406134
110	0xbc743430	-0.014905021
111	0x39b396dc	0.0003425394
112	0x3c8c5f35	0.017135242
113	0xbaa7dd60	-0.0012807064
114	0xbc01e6db	-0.007928575
115	0xbcd2c7d1	-0.025730046
116	0x3c3f9057	0.011692128
117	0x3b3b05d9	0.002853742
118	0xbbcbd370	-0.0062202737
119	0x3cabde9d	0.020980174
120	0xbd23d0ec	-0.039994165
121	0xbd1445dd	-0.03619944
122	0x3ca3bfff	0.019989012
123	0x3c9b30d5	0.018944183
124	0xbce41861	-0.027843656
125	0x3cddcf5d	0.027076418
126	0xbb8d1dca	-0.0043065296
127	0xbc974745	-0.018466601
128	0x3c117362	0.008877607
129	0xbc751bd8	-0.014960252
130	0xbc31fd17	-0.010863564
131	0xbd207659	-0.039175365
132	0x3cb7f97d	0.022457832
133	0xbb88d0db	-0.004175288
134	0xbc262136	-0.010139754
135	0xbca8350d	-0.02053311
136	0xbcfdb5f3	-0.03097055
137	0xbc2e5c8b	-0.010642181
138	0x3c8b993a	0.017040838
139	0x3b92495a	0.0044643106
140	0xbc6349b3	-0.013872552
141	0xbb560bb7	-0.0032660791
142	0xbbb77181	-0.0055982475
143	0x3c42c72f	0.011888309
144	0x3c89f2e8	0.01683946
145	0x3cb7cb64	0.022435851
146	0x3c2daef3	0.010600793
147	0xbc3f6c46	-0.011683529
148	0x3bf52400	0.007481098
149	0x3c5d88b5	0.013521363
150	0x3c64dfc3	0.013969365
151	0xbc140aae	-0.009035749
152	0xbc8bb9dc	-0.017056398
153	0x3d441bd3	0.047878098
154	0x3c91f6bb	0.017817846
155	0x3d325770	0.04354042
156	0x3d664a23	0.056223046
157	0x3d2f782e	0.04283922
158	0x3d2a51ad	0.0415818
159	0x3b63ed5a	0.0034778924
160	0xbc808f16	-0.015693229
161	0xb9f54b14	-0.0004678598
162	0x3bb2d1b1	0.005457126
163	0xbcd00e0b	-0.025397321
164	0xbd14dfee	-0.03634637
165	0xbd07847f	-0.033085342
166	0xbcac10b5	-0.02100406
167	0xbd10a406	-0.035312675
168	0x3cb681d1	0.022278698
169	0x3a9b6f14	0.0011858665
170	0x3ca4b82c	0.020107351
171	0xbbd295fd	-0.0064265714
172	0x3cca87f2	0.024723027
173	0x3ca6a01f	0.020340024
174	0xbcffd524	-0.031229563
175	0xbca4c4c4	-0.020113356
176	0xbd1fa94a	-0.038979806
177	0xbd13e10c	-0.036103293
178	0x3bbbbf41	0.0057295864
179	0xbcb11ea7	-0.021621061
180	0x3ce12841	0.027485015
181	0x3d398941	0.04529691
182	0x3caf88ec	0.021427594
183	0x3bcb8473	0.0062108575
184	0x3d20809c	0.03918515
185	0x3d9d9bf0	0.07695758
186	0x3ce872f5	0.028375128
187	0x3cab020f	0.020875005
188	0xbb2d5cc0	-0.0026452988
189	0x3c3498a3	0.01102272
190	0xbd0a0aa5	-0.033701558
191	0xbd097428	-0.03355804
192	0xbce69668	-0.028147891
193	0xbcbcffd7	-0.023071213
194	0x3bc0b1c8	0.005880568
195	0xbcce238f	-0.02516344
196	0xbd0a459f	-0.033757802
197	0xbbe5f859	-0.0070181307
198	0xba44bae9	-0.00075046584
199	0x3d00829e	0.031374566
200	0x3ce094a2	0.027414624
201	0x3ce250dd	0.02762645
202	0x3a4496e9	0.0007499294
203	0xbc286733	-0.010278511
204	0x3bd57889	0.006514613
205	0xbc259be5	-0.010107969
206	0xbd19a07b	-0.03750656
207	0x3c9d7060	0.019218624
208	0xbc94dc22	-0.018171374
209	0x3cbb903a	0.022895921
210	0x3cab4d10	0.02091077
211	0x3d1f142d	0.0388376
212	0x3ccda16b	0.025101384
213	0x3d856c4e	0.06514798
214	0x3d8d037e	0.06885432
215	0x3d99c36b	0.07507976
216	0xbba3fab9	-0.0050042537
217	0x3d27a10a	0.040925063
218	0x3c0f1902	0.00873399
219	0xbd0800be	-0.033203833
220	0xbca13830	-0.019680113
221	0x3b2bd8d4	0.002622177
222	0xbd04fb7f	-0.032466408
223	0xbac19ff7	-0.0014772405
224	0xbb501f8a	-0.003175708
225	0xbc97e73d	-0.01854288
226	0x3b45cea5	0.0030182984
227	0x3c94fbd1	0.018186482
228	0x3c53c2e9	0.012924888
229	0xbcc38457	-0.023866815
230	0xbd09575f	-0.03353059
231	0xbcf79855	-0.030224005
232	0x3959e339	0.0002077938
233	0xbd2596dc	-0.040427074
234	0xbc65f8ed	-0.014036399
235	0x3c59ec95	0.013301034
236	0x3bf952a2	0.0076087276
237	0x3d02f68e	0.031973414
238	0x3d0b68a1	0.03403533
239	0x3cd97ecd	0.026549721
240	0x3b7a3de6	0.0038183867
241	0x3d803d21	0.062616594
242	0x3d5aff71	0.053466264
243	0x3d764f2a	0.06013409
244	0x3c2a9957	0.010412536
245	0x3d77c8f7	0.06049439
246	0xbc2bc1e4	-0.010483239
247	0x3c31adc9	0.010844656
248	0xbd04498a	-0.032296695
249	0xbd2f8fea	-0.042861857
250	0x3bc296a5	0.0059383684
251	0x3a71ce26	0.0009224139
252	0xbcec7942	-0.028866414
253	0xbcaff577	-0.021479351
254	0xbc666364	-0.0140617825
255	0x3d0418e8	0.032250315

fc.bias f4 [10]
0	0xbda28967	-0.07936364
1	0x3e05ee54	0.13079196
2	0xbd7b2e92	-0.06132371
3	0xbd5df649	-0.054189954
4	0x3d42e9f7	0.047586408
5	0x3e328e72	0.17437151
6	0xbd2bb983	-0.041924965
7	0x3dd098fc	0.101854295
8	0xbe37711d	-0.17914243
9	0xbd1fbd2d	-0.03899877
