runs/benign/20250813-132958/models/global_round_0.pt (torch, 33309 bytes, 2 tensors)

fc.weight f4 [10, 784]
0	0x3cd8525e	0.026406463
1	0xbc53e76e	-0.012933595
2	0x3d00c4f2	0.03143782
3	0xbc909923	-0.017651146
4	0x3cfb3efe	0.030669685
5	0xbb7e7a25	-0.0038830128
6	0xbcd36dd5	-0.025809208
7	0x3c2c8941	0.010530771
8	0xbb52a201	-0.003214002
9	0xbbaa779c	-0.005202247
10	0xbd0a393e	-0.033745997
11	0x3c9fe115	0.019516507
12	0xbc18a7e9	-0.009317377
13	0xbce49067	-0.027900888
14	0xbbfacd18	-0.0076538436
15	0xbcd7bbc2	-0.026334647
16	0xbc501e05	-0.01270247
17	0xbcc6bb63	-0.024259275
18	0xbca3347e	-0.019922491
19	0xbccbb183	-0.024864918
20	0x3c01d6a0	0.007924706
21	0x3c9c30cc	0.019066237
22	0x3c223a25	0.009901558
23	0x3ca7d94a	0.020489354
24	0xbc4ce921	-0.012506754
25	0xbd0c2c43	-0.0342219
26	0x3c8ebb4e	0.017423298
27	0xbcd002ea	-0.025392015
28	0xba4777b7	-0.00076090865
29	0xbc4e602e	-0.012596173
30	0x3c59840a	0.0132761095
31	0xb9dd4a4a	-0.00042207754
32	0xbcf3f958	-0.029781982
33	0xbcbdef9d	-0.023185546
34	0xbcb9796d	-0.022640908
35	0xbd0960d7	-0.03353962
36	0xbcc4dcda	-0.024031091
37	0xba91a26b	-0.0011111026
38	0xbc09cc27	-0.00841049
39	0x3c608320	0.013703138
40	0xbb34d5de	-0.0027593295
41	0x3be8cdc5	0.0071046078
42	0x39bfcbb8	0.0003658214
43	0x3aaf2e45	0.001336523
44	0xbcfcab19	-0.030843304
45	0x3bb89418	0.0056328885
46	0x3cf56aba	0.029958118
47	0x3cd608df	0.026127277
48	0x3cfc6970	0.030811995
49	0x3d0c3064	0.034225836
50	0xbcf12805	-0.029438028
51	0x3c3b9bb0	0.011450693
52	0x3b8a64dc	0.004223449
53	0xbbfa275c	-0.0076340865
54	0x3d0fbde7	0.035093214
55	0xbd118a17	-0.035532083
56	0x3cf94f7c	0.030433409
57	0xbd10a86c	-0.03531687
58	0x3badfab3	0.0053094267
59	0x3cefcfdb	0.029273918
60	0x3c1b6026	0.009483373
61	0x3cf15c06	0.029462826
62	0xbce12900	-0.02748537
63	0xbd001c08	-0.031276733
64	0x3d0eafa8	0.034835488
65	0x3c23d1b7	0.00999873
66	0xbc667864	-0.014066789
67	0xbd0b3a04	-0.033990875
68	0x3ceff704	0.02929259
69	0xbbbcb661	-0.005759046
70	0xbd135895	-0.03597315
71	0xbc83b015	-0.016075173
72	0xbc1d11d7	-0.009586773
73	0xbd1c33ec	-0.038135454
74	0xbcc74236	-0.024323564
75	0x3d015832	0.03157825
76	0xbc458654	-0.012055952
77	0x3bf08b5a	0.0073408308
78	0xbc2c851a	-0.010529781
79	0x3d0b4734	0.03400345
80	0xbb9cbcb9	-0.0047832397
81	0x3ca11147	0.019661559
82	0xbc819b7e	-0.015821215
83	0xbc6f1621	-0.014592678
84	0x3ca0d2d5	0.019631783
85	0xbce16ec5	-0.02751864
86	0xbc433310	-0.01191403
87	0x3c0529e2	0.008127661
88	0x3bd60503	0.006531359
89	0x3c4fdcb6	0.012686899
90	0x3ce55da2	0.02799875
91	0xbc582ac8	-0.013193794
92	0x3b02e2e8	0.0019971672
93	0x3c195f1c	0.009361055
94	0x3c91cd83	0.017798191
95	0xbc978415	-0.018495599
96	0xbc8c742c	-0.017145239
97	0x3cafb8ff	0.021450518
98	0x3cc507d7	0.02405159
99	0xbb7c80b8	-0.003852887
100	0x3cb277a6	0.021785568
101	0xbd31e86e	-0.043434553
102	0xbd109fba	-0.035308577
103	0x3ca47036	0.020073038
104	0xbd32de79	-0.043669198
105	0x3b7ef95e	0.0038905959
106	0x3cb385cb	0.021914383
107	0xbb67dd29	-0.0035379624
108	0x3d0394a2	0.03212417
109	0x3c9a54e1	0.018839302
110	0xbc8286b2	-0.015933368
111	0xbcad342a	-0.021143038
112	0x3bada641	0.00529936
113	0x3be748dc	0.007058246
114	0xbcc18f0a	-0.023627777
115	0xbc42a075	-0.011879076
116	0xbbdc9735	-0.0067318925
117	0xbc8ab47d	-0.016931767
118	0xbd0cad97	-0.034345236
119	0xbcd787af	-0.026309816
120	0xbc5f86dd	-0.013642994
121	0x3c9d23bc	0.019182079
122	0xbd14285d	-0.036171306
123	0x3ca9dc3a	0.020734895
124	0xbc94edbf	-0.018179772
125	0x3ca5a7c8	0.020221606
126	0x3b94d59b	0.0045420653
127	0x3d19edb2	0.0375802
128	0x3b8ef28e	0.004362411
129	0x3ba60d5f	0.005067512
130	0xbc1751f3	-0.009235847
131	0xbd1a5b0b	-0.03768448
132	0x3c2947bb	0.010332043
133	0x3c04044f	0.008057668
134	0xbd105ac8	-0.035242826
135	0x3ca13b29	0.01968153
136	0xbc982832	-0.018573854
137	0xbcc417d4	-0.023937143
138	0x3cc390fc	0.023872845
139	0x3cb57a96	0.02215318
140	0xbc973427	-0.018457485
141	0xbcda6745	-0.02666057
142	0xbcda89bd	-0.026677007
143	0x3c58613b	0.013206775
144	0x3c4fe3c9	0.012688586
145	0xbccc2e67	-0.02492447
146	0xbc5401c5	-0.012939875
147	0x3b659b0d	0.0035035044
148	0xbb602543	-0.0034201897
149	0x3c2d86b0	0.010591194
150	0xbc9056ef	-0.017619578
151	0xbd2c7120	-0.042100072
152	0xbce441a6	-0.027863335
153	0x3c38f297	0.011288307
154	0x3c8730f0	0.016502827
155	0x3d527e6d	0.0513901
156	0x3d6865fb	0.05673788
157	0x3acc5563	0.0015589412
158	0x3c41f62c	0.011838477
159	0x3cf4178f	0.02979639
160	0xbd15541e	-0.036457174
161	0xbbcb9577	-0.006212886
162	0x3b2541b5	0.0025216166
163	0xbd00c02d	-0.031433273
164	0xbc9d6410	-0.019212753
165	0x3bca6740	0.006176859
166	0xbcb51ddb	-0.022108963
167	0xbc9c6fa2	-0.0190962
168	0x3d0e7c1e	0.034786336
169	0x3c0ae852	0.008478241
170	0xbcb1349e	-0.021631535
171	0x3cd30731	0.025760265
172	0x3cbddc6a	0.02317639
173	0x3c946a7c	0.018117182
174	0xbcf53d3e	-0.02993643
175	0xbc9e476e	-0.01932117
176	0xbcc03e73	-0.023467278
177	0xbd50fc8c	-0.051022097
178	0xbd0e80c7	-0.03479078
179	0xbd0624f1	-0.032750074
180	0x3bb45be9	0.0055041206
181	0x3d31e3a1	0.043429974
182	0xb90c170e	-0.00013360029
183	0x3c9c383c	0.019069783
184	0x3d214f27	0.039382126
185	0x3da7099d	0.081561305
186	0x3d33ce2c	0.043897793
187	0x3b472565	0.003038728
188	0x3c1d622c	0.0096059255
189	0x3bb84acb	0.0056241504
190	0xbd138604	-0.03601648
191	0xbd4418a5	-0.047875065
192	0xbbc0d96f	-0.005885295
193	0xbcb7f50c	-0.022455715
194	0xbca5fde5	-0.020262668
195	0xbcff38c0	-0.03115499
196	0xb9247bbd	-0.00015686355
197	0xbcc267ba	-0.023731101
198	0xb8a28eed	-7.751384e-05
199	0xbc7f79c2	-0.015592994
200	0xbcb64e06	-0.022254001
201	0xbc2cedf3	-0.010554778
202	0x3c96b357	0.018396063
203	0xbd098a50	-0.03357917
204	0xbc6dc73f	-0.014512836
205	0xbc588f8f	-0.013217821
206	0x3c795524	0.015218053
207	0x3c27b80d	0.010236752
208	0x3ce9af89	0.028526084
209	0xbcc6bbad	-0.024259413
210	0xbc8ce86c	-0.017200671
211	0x3d816229	0.06317551
212	0x3d83002d	0.06396518
213	0x3caf36b7	0.021388395
214	0x3d9d831c	0.07691023
215	0x3d90c8ac	0.07069525
216	0x3d49c6a5	0.049261708
217	0x3a31cf01	0.000678286
218	0xbcbd7f5a	-0.023132015
219	0xbc5ac806	-0.013353353
220	0xbc92a61b	-0.01790147
221	0x3c415a4e	0.0118013155
222	0x3c9d5e7c	0.019210093
223	0x3c83746d	0.016046727
224	0x3cca7ccd	0.024717713
225	0x3c976790	0.018482
226	0xbae8ee45	-0.0017771205
227	0xbcb7de89	-0.02244498
228	0x3c31ee6e	0.010860069
229	0x3c5b238f	0.013375177
230	0xbcae3a21	-0.021267952
231	0x3be48b7a	0.0069746347
232	0xbd3d62d0	-0.046236813
233	0xbcd2e6da	-0.025744844
234	0x3cc69b92	0.024244104
235	0xbd113b5c	-0.035457
236	0x3c7f1872	0.015569793
237	0xbcb1b7b2	-0.021694038
238	0x3a890708	0.0010454366
239	0x3ba78534	0.0051123146
240	0x3a89070e	0.0010454373
241	0x3d2a02c5	0.041506547
242	0x3d327bcb	0.04357509
243	0x3ca23dae	0.019804802
244	0x3d88d78f	0.066817395
245	0x3c46525d	0.012104598
246	0x3d45c9ea	0.048288263
247	0x3c7dd248	0.0154920295
248	0xbd3b2083	-0.045685302
249	0x3b9c0cfc	0.00476229
250	0xbcfa841a	-0.030580569
251	0x3c1f347a	0.009717101
252	0xbd0ac9b3	-0.03388376
253	0xbc9be634	-0.019030668
254	0x3bdd6dcc	0.0067574736
255	0xbb47933f	-0.0030452756

fc.bias f4 [10]
0	0xbdde21f9	-0.108463235
1	0x3dd609a9	0.10451061
2	0xbd0ddb66	-0.034633063
3	0xbd88345e	-0.06650613
4	0x3c7c02cf	0.015381529
5	0x3e276740	0.1634798
6	0xbc8b8258	-0.017029926
7	0x3df8d22e	0.121494636
8	0xbe45eb08	-0.19327939
9	0xbbb27d75	-0.0054470845
