runs/benign/20250814-105926/models/base_round_0_node_0.pt (torch, 33349 bytes, 2 tensors)

fc.weight f4 [10, 784]
000000 63 1f dc bc bc 0b 04 3c c8 62 ed bc 1c e1 9e bb
       -0.026870435 0.008059438 -0.028977767 -0.0048486125
000010 17 20 da 3c 05 ed 02 bc a3 bf a2 3c ca 62 62 bb
       0.02662663 -0.00799108 0.01986677 -0.0034543746
000020 6a e5 6a bc 17 6d 24 3c 4b 52 06 bd c0 f1 a9 3b
       -0.014336923 0.010035775 -0.032793324 0.0051862895
000030 c1 38 64 bc c5 00 f4 bc 18 2a 12 bd 8e 81 08 bc
       -0.013929547 -0.029785523 -0.035684675 -0.0083316695
000040 ca 8f eb 3b 98 0a 7a 3c f7 d0 15 bc 2a 3a 97 bc
       0.007188772 0.015261315 -0.009144059 -0.018460352
000050 91 73 de bc 13 0f bd bc 01 30 dd b8 4a 34 e8 ba
       -0.027154716 -0.023078477 -0.000105470426 -0.0017715779
000060 95 71 0b 3d e5 53 11 3c 2c ec 8d 3c a5 a3 6e 3b
       0.034043867 0.0088701 0.01732453 0.0036413458
000070 37 5d 44 bb 13 86 3d 3b 7a 5a fa bc fc 8a 1d 3c
       -0.0029962787 0.0028919026 -0.03056072 0.009615656
000080 fd 58 10 bd 6e d8 8d ba f5 ec ae 3c ab d4 0a bd
       -0.035241116 -0.0010821947 0.021353224 -0.033894222
000090 4a 75 d4 ba 01 5d f1 3a 97 6d 13 3c d3 d2 e7 3b
       -0.0016209271 0.0018414558 0.008998296 0.0070746928
0000a0 5a f0 8c 3c c3 7a f8 3c 8c 81 d1 bc 93 9f 0d bc
       0.017204452 0.030331975 -0.025574468 -0.0086440025
0000b0 4a cd d3 3b 61 80 77 bc b1 7e b8 bc 01 ed 38 3c
       0.0064636813 -0.0151062915 -0.022521349 0.011286975
0000c0 e7 64 cf bc 4e eb 5c 3c 7a 93 d8 3c 1c f4 17 bc
       -0.025316669 0.013483835 0.02643751 -0.009274509
0000d0 ca 11 fe bc 43 5a af 3c d3 91 d2 3c e0 8c a8 bc
       -0.031014342 0.021405345 0.0257043 -0.020574987
0000e0 6e f8 a9 bc d3 87 4a bc e8 59 ff bc 72 ae 0b 3d
       -0.020748343 -0.012361485 -0.0311708 0.03410191
0000f0 15 f5 07 bd f3 fa 01 3c 93 c8 5e ba be a0 0c bd
       -0.033192713 0.007933366 -0.0008498516 -0.034332983
000100 11 72 b8 bc 3e 51 ba 3c 24 9b 08 3d 7c 87 20 bc
       -0.022515329 0.022743817 0.03335108 -0.009797927
000110 93 f9 84 ba f7 90 96 bc d8 80 03 bd ee 0f 5a 3b
       -0.001014518 -0.018379671 -0.032105297 0.0033273655
000120 f5 87 ba bc 25 30 f6 3b 01 08 bf b9 8a c3 97 3c
       -0.022769907 0.0075130635 -0.00036436322 0.018525857
000130 65 f4 92 bc de dc a1 bc 9e 82 a6 bc 91 7d c5 3c
       -0.017938802 -0.019758638 -0.020325955 0.024107726
000140 53 bc 95 bb 81 eb fa bc 81 82 4d 3c 63 f3 fe 3c
       -0.004569569 -0.030629875 0.012543322 0.031121915
000150 5c bd fd 3c 85 92 73 3c 51 2e b3 3c 13 16 6f 3b
       0.030974083 0.014866476 0.021872671 0.0036481663
000160 25 78 3c bb b3 a1 a4 bc cd 27 0a bd 80 88 09 3d
       -0.0028758135 -0.020096635 -0.033729363 0.033577442
000170 0e 6b 45 3c f7 6e a8 3c c1 33 dd 3b 0e 04 08 3d
       0.01204945 0.020560725 0.0067505543 0.03320699
000180 4e 9b eb bc bc bc a0 3c 13 be 82 bc 13 b8 3e bc
       -0.028760578 0.019621246 -0.015959775 -0.011640566
000190 4e 06 50 bc 73 83 b1 3c 4c 87 06 3d 1c 3b 85 bc
       -0.012696816 0.021669125 0.032843873 -0.016263537
0001a0 93 51 e6 3a 4e d6 3c bc b3 d4 41 3c 5a a6 e5 bc
       0.0017571918 -0.011525704 0.011830497 -0.028033424
0001b0 78 3d e4 3c e6 cb 05 bd b3 b7 4e 3c ae dc 07 3d
       0.027861342 -0.032665156 0.0126170395 0.03316944
0001c0 ec bf 03 bd b1 b4 d1 bc ee 45 09 bb dc 56 cd 3b
       -0.032165453 -0.025598856 -0.0020946222 0.006266458
0001d0 5a b0 ed bc 68 3c 0f 3d f7 26 da bb 53 5c 38 bc
       -0.029014755 0.034969717 -0.006657477 -0.011252481
0001e0 e3 29 95 3c 8a 7c d7 3c 7e 4e bf bc bc 85 18 3c
       0.01820845 0.026304502 -0.023352858 0.0093092285
0001f0 4a 50 5d ba e5 b1 97 3c d5 07 ab bc 23 41 0d 3d
       -0.0008442445 0.018517444 -0.020877758 0.034485947
000200 35 a6 a3 bc 93 ea 75 3c ee 09 cb 3c 21 99 d9 bc
       -0.019976715 0.01500954 0.024785008 -0.026562275
000210 ba 04 a6 3c de 4a 8f bc fc 10 41 3c 4c 7c c5 3c
       0.020265926 -0.017491754 0.011783835 0.02410712
000220 25 ee f6 bc b7 26 d2 3b 30 15 aa bc 25 a2 9d bc
       -0.030142853 0.0064133066 -0.020762056 -0.019242356
000230 25 99 71 b9 df ee 0c bd 3a ac 97 bc 05 e0 06 bc
       -0.00023040602 -0.034407493 -0.018514741 -0.008232121
000240 ee b6 3b 3c 21 6d 42 3c 2a aa 79 3c da d5 e1 bc
       0.011457188 0.011866839 0.015238324 -0.027567793
000250 b0 0d 11 bd c1 0d 76 3c 5c f0 90 bc e1 13 7d bc
       -0.035413444 0.015017928 -0.017692737 -0.015446634
000260 a1 26 db 3c 2e 18 55 3c 4a c2 be bb 26 53 11 bd
       0.026751818 0.013006253 -0.005821501 -0.035479687
000270 8a 35 90 bc b7 3c b9 3c 43 a4 c9 bc 05 aa 09 bd
       -0.017603654 0.022611959 -0.024614459 -0.03360941
000280 c7 c3 ba bc 25 2f 92 3c 25 7f d2 3a 45 78 3c 3c
       -0.022798432 0.017844746 0.001605962 0.011503284
000290 91 0c c9 bc 3b e7 10 3d a0 44 11 3d 1c 11 e1 3c
       -0.024542125 0.03537677 0.035465837 0.027473979
0002a0 6a c7 07 3c fe b2 a0 3c dc c7 2f 3b 63 db ea 3c
       0.00828729 0.0196166 0.0026822006 0.028669065
0002b0 a7 77 d3 bc fc 4e af bc dc 6a 01 bc b1 55 d3 bc
       -0.02581389 -0.021399967 -0.007899012 -0.025797697
0002c0 ec ed 85 3c 32 a4 09 bd d3 23 a9 bc 20 ba 83 bc
       0.016348802 -0.033603854 -0.020646965 -0.016079962
0002d0 dc 32 c2 3c 33 4d 91 3c 25 3e 68 3b be c5 9d 3c
       0.023705892 0.017737007 0.0035437432 0.01925933
0002e0 01 0e 4d ba c0 b4 80 3c ca 98 dd 3b fe 15 ff bc
       -0.0007822216 0.015711188 0.0067625986 -0.031138416
0002f0 93 74 f8 3b a3 e8 f5 3c be 6d b3 3c 6e 4f f5 ba
       0.007582256 0.030018156 0.021902915 -0.0018715688
000300 9a ad 8e 3c a1 c0 5a 3c 6a 1a 93 3c 88 8a f2 3c
       0.017416764 0.01335159 0.017956931 0.029607072
000310 25 a5 d3 3a f7 f2 d5 3b 08 b7 ed bc 41 ad f3 bc
       0.0016147239 0.006529208 -0.02901794 -0.0297457
000320 6e c7 53 bc 65 f0 f9 bc ec 28 86 3c 2e ae db 3b
       -0.012925966 -0.030510137 0.016376935 0.0067041134
000330 4a 84 a3 bc 52 03 0f bd 37 62 1b 3c de d5 d6 3c
       -0.019960541 -0.034915276 0.009483865 0.026225027
000340 1c 9c 9a 3b 03 1a fc 3c d3 8b 45 3c 2e 1a f2 bc
       0.0047183167 0.030774122 0.0120572625 -0.0295535
000350 b8 b5 7f 39 b2 b7 03 bd 67 3e 07 bd 38 41 67 3c
       0.0002438639 -0.032157607 -0.033018496 0.01411467
000360 f7 a3 49 bc ea 69 93 3c 6e 8e d1 ba fe ec 04 bd
       -0.012307159 0.01799484 -0.0015987882 -0.032452576
000370 aa 5e de bc ca 7c ab bb 66 4d 05 3d 73 9c 0f bd
       -0.027144749 -0.005233382 0.032544516 -0.03506131
000380 33 e8 7e 3c 40 b1 a4 bb 2c 3f 93 bc 9c d4 eb bc
       0.01555829 -0.0050260127 -0.017974459 -0.028787903
000390 ae 62 e7 3c 8a 92 cf 3b c5 74 a6 3c fe c8 b3 3c
       0.028245296 0.0063346075 0.020319352 0.021946426
0003a0 00 4d 95 3a e5 6d 77 3c 3c a1 9e bc b7 ce 3f 3b
       0.0011390746 0.0151018845 -0.019363992 0.0029267499
0003b0 ee d2 d5 bc ae d4 c5 3c 71 d2 af 3c fa 3a f8 3c
       -0.026101556 0.024149265 0.021462651 0.03030156
0003c0 ec f8 f6 bc 1d 47 05 3d b7 a3 99 3b 25 2b ef ba
       -0.030147992 0.032538522 0.004688706 -0.0018247111
0003d0 05 6d 0c bc fa 9c fc 3c d3 f0 b3 3b ca 5c 3d bb
       -0.008570914 0.030836571 0.005491355 -0.0028894418
0003e0 53 60 a3 3b 0a 29 99 3b 13 7d 32 3b e4 3e 11 bd
       0.004985848 0.0046740817 0.0027235195 -0.035460368
0003f0 dc 49 f2 ba 0c c6 99 bc ce f4 6a 3c 6e 3e b2 3b
       -0.0018485147 -0.018771194 0.014340593 0.005439571

fc.bias f4 [10]
000000 9c 6b 08 3c e5 82 ae bb 07 99 02 3d 4a 31 38 3b
       0.008326437 -0.0053256624 0.03188422 0.002810555
000010 68 92 eb 3c 8a c4 4b 3c a1 88 7b bc ae 41 6b bc
       0.028756335 0.012436995 -0.015352399 -0.014358921
000020 7c 2a 3d bc 61 5c c5 3c
       -0.011545774 0.024091901
