runs/benign/20250813-131156/models/global_round_0.pt (torch, 33309 bytes, 2 tensors)

fc.weight f4 [10, 784]
000000 9e 89 b6 3c 75 a9 f7 3c 25 3f 77 bc 6e 81 65 ba
       0.022282418 0.03023217 -0.015090738 -0.0008754943
000010 d3 83 f2 bc e5 b2 63 bc ec 20 d4 3c 7e 6b ee bc
       -0.029603874 -0.013897632 0.025894605 -0.02910399
000020 67 66 00 3d 65 9b c7 3b 4e c1 bd bc a5 54 50 bb
       0.03134766 0.0060915225 -0.023163464 -0.0031788733
000030 e0 3c 12 3d e2 28 d6 bc a8 1a f4 bc 62 9b 6f 3b
       0.035702586 -0.026142541 -0.029797867 0.0036561121
000040 8a b7 3e 3c ca b6 4c 3b aa b4 6f 3c d7 1c 12 bc
       0.011640439 0.003123688 0.014630476 -0.008918009
000050 d3 f6 87 3b 73 c4 e9 bc 45 06 e4 3c 1e 87 e2 3c
       0.004149297 -0.028536057 0.02783502 0.02765232
000060 fc 20 73 bc 25 2a 89 ba b7 f9 9e 3b 93 dd 02 3d
       -0.014839407 -0.001046483 0.0048515457 0.03194959
000070 b7 93 3a ba 3e 5c c8 bc a7 d0 04 3d 25 29 ed b9
       -0.0007117348 -0.024458047 0.03242555 -0.00045234818
000080 bb 6d ba bc ef 54 66 3c ef 8e 04 bd 33 b2 3d bc
       -0.022757402 0.014058336 -0.032362875 -0.011578131
000090 4e 81 43 3c 3c 54 be bc 47 f4 06 3c f8 9f d9 3c
       0.011932684 -0.023233525 0.008236951 0.026565537
0000a0 9a 81 80 3c 6d 4e 11 bd 33 e3 44 bb 88 28 bd bc
       0.015686799 -0.035475183 -0.0030042648 -0.023090616
0000b0 85 1d 37 bb 6d 76 96 bc 2c 05 e2 ba 65 88 e7 3c
       -0.002794118 -0.018367017 -0.0017243973 0.02826328
0000c0 e4 ed a9 bc bc e7 f2 bc 76 40 07 3d 85 cd 0e 3d
       -0.020743318 -0.029651515 0.03302046 0.034863967
0000d0 4a 87 61 bb 57 cd c5 3c 4a 9f 63 bb 37 85 44 bb
       -0.0034412914 0.024145765 -0.0034732395 -0.0029986629
0000e0 da c8 ea 3c 93 51 8d bc 68 9e 44 3c 26 c1 e2 bb
       0.028660227 -0.017250812 0.012000658 -0.0069199977
0000f0 78 8c 6f bb 85 c1 05 3d 71 43 51 bc 7b 50 aa 3b
       -0.0036552232 0.032655258 -0.012772427 0.0051975823
000100 07 76 35 bc c0 e8 ca 3c 86 b6 db 3c 16 c4 02 3d
       -0.011075503 0.024769187 0.026820432 0.031925283
000110 70 e6 4a 3b ce 98 12 bb 5e 73 c9 bc cc 29 d8 bb
       0.0030960105 -0.002236891 -0.024591144 -0.0065967795
000120 c4 2b c1 3a e1 7c 16 bd 5f d3 ba ba a9 fe 78 bc
       0.0014737775 -0.036740188 -0.0014253667 -0.015197434
000130 ed 97 b2 bc dc 81 b2 3c 4e 57 03 3d e0 86 9d 3c
       -0.02180096 0.021790437 0.032065682 0.019229352
000140 e7 bc 70 3b f8 16 f3 3c 5c 10 97 bc 4e f2 1f bc
       0.0036733688 0.029674038 -0.018440418 -0.00976236
000150 88 f9 fc 3c 23 26 aa 3c 61 f6 92 3c af c0 77 3c
       0.030880705 0.020770138 0.017939748 0.015121623
000160 97 9d b8 bc bf 66 15 bc 2d f6 d2 bb c5 a9 17 bd
       -0.022536082 -0.009118735 -0.006438038 -0.03702714
000170 28 d5 91 3b 0b a4 a0 bc f8 4b aa bc 36 0c 07 bd
       0.004450459 -0.019609472 -0.020788178 -0.03297063
000180 4b 4b 38 3c 29 b1 1d bd c0 90 b4 3c 06 b7 86 3c
       0.01124842 -0.03849903 0.022041678 0.016444694
000190 9b da 3e bd 6e 45 c9 bc 13 80 4d bc 4b 91 b7 bc
       -0.046595197 -0.02456924 -0.012542742 -0.022408148
0001a0 64 78 d3 3c 41 7c 13 3c 78 51 a2 3c 34 56 07 3d
       0.025814243 0.009001792 0.019814238 0.033041194
0001b0 54 ae 03 bd c8 35 94 bc 39 ad 9e bb 01 0f 5c 3b
       -0.032148674 -0.018092051 -0.004842427 0.003357828
0001c0 1c 17 c0 3b a1 e5 ae 3c 69 21 1c bc a3 36 08 3d
       0.00586213 0.02134973 -0.00952945 0.03325523
0001d0 59 a2 d0 3b a3 41 9f bb 24 cd d1 3b ed 0b c1 3c
       0.0063670096 -0.0048601194 0.0064026285 0.023565257
0001e0 b0 35 c8 ba 1c 2c 2c bd 18 d1 2b bd 49 a5 d1 3c
       -0.0015274789 -0.042034253 -0.041947454 0.02559151
0001f0 3c 88 19 bd be 63 04 3a e0 11 d0 3c 2e 00 71 3c
       -0.03748344 0.0005050263 0.025399148 0.0147095155
000200 e6 77 77 bc 53 04 81 3c 99 e8 84 3b 0c 90 cd bc
       -0.01510427 0.015749132 0.004056048 -0.025093101
000210 d7 97 94 bc e8 5d 2d 3c 66 cf 3d bc ba 31 0d bc
       -0.01813881 0.010581471 -0.011585092 -0.008617813
000220 e3 8a 8d 3c 40 c3 b4 ba 75 05 db 3b d9 e0 eb 38
       0.01727814 -0.0013791099 0.006684 0.00011247554
000230 4a 65 97 3a 80 f7 a2 bc c7 91 9e bb 6c 09 b5 bc
       0.0011550572 -0.019893408 -0.0048391554 -0.02209922
000240 df 16 91 bc ab e4 88 bb 47 92 85 bb 60 a0 95 bc
       -0.017711101 -0.00417765 -0.0040762755 -0.01826495
000250 b5 99 4b bd 8f 91 08 bd f9 40 21 bd 2e 57 ee 3b
       -0.049707133 -0.03334194 -0.039368603 0.007273576
000260 01 d8 9c 3c f5 54 53 bc e9 43 ef 3c 4e e3 30 3d
       0.019145967 -0.012898673 0.029207187 0.043185525
000270 87 18 df 3c 6c 9a c2 3b 87 c1 00 3d cb 3e 24 3d
       0.027233375 0.0059388187 0.031434562 0.040098947
000280 42 97 bc 3c f3 dc 09 bd ba d1 eb ba ae a1 62 bc
       0.023021344 -0.03365798 -0.001799158 -0.013832493
000290 74 6b 5c 3c af 38 a1 bc 7f 41 4d 3c 4c ad b7 3c
       0.013453353 -0.01968035 0.0125278225 0.022421502
0002a0 dc d2 f1 3a 9c a4 07 bc 16 74 69 3c 65 f7 00 bc
       0.0018449682 -0.008278992 0.014248868 -0.007871483
0002b0 c1 a7 14 bc 1d fd 44 bc 0a 07 af 3c ea 69 1a bd
       -0.009073199 -0.0120232375 0.021365661 -0.037698664
0002c0 a7 df 9e 3b 65 57 66 bd 13 b1 52 3c 57 b0 be 3c
       0.004848439 -0.05623569 0.012859601 0.023277445
0002d0 5c 58 0c bd d0 09 0c 3d b5 fc 24 3d b4 4c 56 3c
       -0.034263954 0.034189045 0.040280063 0.013079811
0002e0 ce 2c 2f 3d 45 78 5b 3d d8 b6 87 3d da 3a ef 3c
       0.04276734 0.053581495 0.066266716 0.029202867
0002f0 6c c7 9f bc 1c 7b f4 bc 95 8d bb bc 80 41 5c bd
       -0.019504271 -0.02984386 -0.02289466 -0.053773403
000300 ac a7 28 bd 38 ce 0a bd f8 f0 11 bd 12 77 9e 3c
       -0.04117553 -0.03388807 -0.035630196 0.019343887
000310 56 e0 01 3b 1c 2b 09 bd 46 0f 97 3c f7 c4 ef bc
       0.0019817553 -0.033488378 0.0184399 -0.029268725
000320 51 1f 3e 3b 81 38 a6 bb 69 08 6a bb bd 74 09 3c
       0.0029010365 -0.0050726538 -0.003571058 0.008389649
000330 d6 98 29 bc 09 9b 69 bc c1 a7 c1 3b d4 aa 07 bd
       -0.01035138 -0.014258155 0.0059098904 -0.0331219
000340 70 8e da bc f3 08 8d bc 8e 02 a1 3c 29 8a 0d 3d
       -0.026679248 -0.017216181 0.019654538 0.034555588
000350 1f 2f 8f 3d 26 93 a2 3d 04 43 ad 3d 70 9c 71 3c
       0.069914095 0.079382226 0.08460048 0.01474677
000360 e2 9b 11 3d 93 66 00 3d 7a 5e 85 bc 24 00 c5 3b
       0.035549052 0.031347822 -0.016280401 0.0060119797
000370 c8 b4 75 bc bc 1f 57 3c c1 fc c4 3c 39 4e 9a bc
       -0.014996715 0.013130125 0.024046304 -0.018836128
000380 51 db 11 3d 57 5b 98 3c 00 91 9b bb b3 b6 c3 3b
       0.035609547 0.018598242 -0.00474751 0.005972707
000390 7b cf 6b 3c d3 3f d5 bc a0 a7 2b ba c3 0f fa bc
       0.014392729 -0.02603141 -0.00065481104 -0.030525094
0003a0 69 25 01 bd 75 f2 4a bc c2 19 b1 bc 76 f5 04 bd
       -0.031529818 -0.012386908 -0.021618728 -0.032460652
0003b0 39 13 94 b9 58 81 54 3c 33 a2 6a 3c b0 8f f8 3c
       -0.00028243082 0.012970291 0.014320898 0.030341953
0003c0 82 f2 94 3b 14 8f 97 3c 23 f4 89 3d 98 a0 57 3d
       0.0045455107 0.018500842 0.067360185 0.05264339
0003d0 d9 78 27 3d 72 9f d2 3c a9 84 b2 bb 65 97 06 3d
       0.040886734 0.025710795 -0.005447943 0.032859225
0003e0 e9 29 16 bd 5d 13 88 3b c7 ea ee bc e5 ce 91 3c
       -0.036661062 0.004152699 -0.029164685 0.01779885
0003f0 14 b9 bf 3b f2 00 11 bd 81 4e 08 bd cb 7b 47 bb
       0.0058509205 -0.035401292 -0.033277992 -0.0030438777

fc.bias f4 [10]
000000 77 15 bf bd 93 58 1d 3e 3b 42 7b bd 6e 08 49 bd
       -0.09330266 0.1536582 -0.06134246 -0.049080305
000010 d9 4d 9a 3c 59 a5 28 3e 44 7b ad bc 59 c3 c6 3d
       0.018835949 0.16469325 -0.021176942 0.09705228
000020 35 b1 6d be 3f 77 0b bd
       -0.2321213 -0.03404927
