runs/benign/20250814-105020/models/base_round_5_node_0.pt (torch, 33349 bytes, 2 tensors)

fc.weight f4 [10, 784]
0	0x3cc5ea23	0.024159497
1	0xbc5abf65	-0.013351296
2	0x3d0bc5c6	0.03412416
3	0xbd0d867c	-0.034552082
4	0x3c4080c5	0.011749451
5	0xbc19b1aa	-0.009380737
6	0xbca68b73	-0.020330166
7	0xbc32adf7	-0.010905734
8	0xbbbbeae5	-0.0057347887
9	0xbbc21537	-0.005922939
10	0x3cf789ba	0.03021704
11	0x3b86baf7	0.0041116434
12	0xbc7312fe	-0.014836071
13	0x3c96d47a	0.018411864
14	0xba8ff925	-0.0010984285
15	0xbc8af384	-0.01696182
16	0xbc078360	-0.008271068
17	0x3cf704ea	0.03015371
18	0x3cf686c1	0.030093553
19	0xbcb75da5	-0.02238352
20	0xbca8d6f0	-0.020610303
21	0x3c51e1b7	0.012810162
22	0x3c9bb5ee	0.01900765
23	0x3d01383b	0.031547766
24	0x3ca2ec3c	0.019888036
25	0x3cd55e83	0.026046043
26	0x3d089bea	0.033351816
27	0x3c3108e5	0.010805343
28	0x3b461213	0.0030223175
29	0x3cc5ad8e	0.024130609
30	0x3af9f2dc	0.001906957
31	0x3c1eb9ca	0.00968785
32	0x3ca31dbc	0.01991164
33	0x3c921035	0.017829994
34	0x3cf74037	0.030181987
35	0xbc327693	-0.010892528
36	0x3ce57987	0.02801205
37	0x3cd91a43	0.02650178
38	0xbbb282c4	-0.0054477174
39	0xbd0088a3	-0.031380307
40	0x3b5e871f	0.003395505
41	0xbb8f731e	-0.0043777367
42	0x3bed3b24	0.007239716
43	0xbb6a04ee	-0.0035708505
44	0xbcedf80c	-0.029048942
45	0xbca7d81e	-0.020488795
46	0x3c59db53	0.01329692
47	0xbc2e0f92	-0.010623829
48	0x3cc174a4	0.023615189
49	0x3c806568	0.015673354
50	0xbd0e864b	-0.03479604
51	0x3a3e49b7	0.0007258909
52	0xbce3224e	-0.027726319
53	0xbcb8db8a	-0.022565622
54	0x3c09e953	0.008417445
55	0xbd030935	-0.031991202
56	0xbcfe399c	-0.03103333
57	0x3c0e068a	0.008668551
58	0x3d0917d5	0.033469994
59	0x3cba9364	0.02277536
60	0x3be3e20b	0.0069544367
61	0x3be0cea2	0.00686057
62	0xbb913789	-0.004431669
63	0xbcce278d	-0.025165344
64	0xbc780214	-0.015137214
65	0x3bea14e1	0.0071436022
66	0x3cae9213	0.021309888
67	0xbd0261f5	-0.0318317
68	0x3c75b44a	0.014996598
69	0x3c08ac9e	0.008341936
70	0xbbb52c6d	-0.0055289776
71	0xbc7d0dc8	-0.01544518
72	0x3b58429b	0.0032998684
73	0x3b907207	0.0044081244
74	0xbc85d2c3	-0.01633585
75	0x3c32605b	0.010887231
76	0xbcffddbf	-0.031233666
77	0x3cf80cd1	0.030279549
78	0xbccbb878	-0.024868235
79	0xbb8cfbc5	-0.004302474
80	0xbc9d8a48	-0.019230977
81	0xbbbd5851	-0.0057783504
82	0xbd030a67	-0.031992342
83	0x3c915ade	0.017743524
84	0xbcd5072c	-0.026004396
85	0x3c8c1ecc	0.017104529
86	0xbc0ed55e	-0.008717863
87	0xbc19b69e	-0.009381918
88	0xbcb08473	-0.021547532
89	0xbbed8804	-0.0072488803
90	0x3c3d8a79	0.011568659
91	0xbd02c577	-0.0319266
92	0xbcf16a17	-0.029469533
93	0x3c518f0e	0.012790455
94	0x3a629a79	0.0008644234
95	0xbc1733c9	-0.009228655
96	0xbcbd558f	-0.023112087
97	0xbd3cafe9	-0.0460662
98	0xbd41bbad	-0.047298122
99	0xbd0afcf1	-0.03393263
100	0xbc10b993	-0.008833307
101	0xbd8bfaf7	-0.06834977
102	0xbd796e7f	-0.060896393
103	0xbc35b667	-0.011090851
104	0xbd8ee4da	-0.06977244
105	0x3bb1c0bc	0.005424587
106	0xbc7a9ec2	-0.01529664
107	0xbcb90ec0	-0.022590041
108	0xbc5e2d60	-0.013560623
109	0xbc7da816	-0.015481969
110	0xbd02ce01	-0.031934742
111	0xb809db6e	-3.2867705e-05
112	0xbcc4e03e	-0.024032708
113	0xbc722944	-0.014780346
114	0xbcd48863	-0.02594394
115	0xbc94e499	-0.01817541
116	0xbc84f89d	-0.01623183
117	0xbd0c14ef	-0.03419965
118	0x3b409898	0.0029387828
119	0x3b000efb	0.001954018
120	0xbd3add2e	-0.04562109
121	0xbd4ecb15	-0.050486643
122	0xbcf211ca	-0.029549498
123	0xbcd70680	-0.026248217
124	0x3a65c87a	0.000876553
125	0x3c9bb905	0.019009123
126	0x3d11c16d	0.035584856
127	0x3d1c5937	0.03817102
128	0x3d00a576	0.031407796
129	0xbca6797c	-0.0203216
130	0xbd0a247c	-0.0337262
131	0xbc2076e3	-0.00979397
132	0xbc046482	-0.008080604
133	0xbd8ce116	-0.06878869
134	0xbcfa4e7c	-0.030555002
135	0xbb270cda	-0.0025489838
136	0x3c5a777f	0.013334154
137	0xbcd1fe2c	-0.025633894
138	0x3c74e394	0.014946837
139	0x3c83e261	0.016099157
140	0x3caa4a75	0.020787457
141	0xbc666913	-0.014063138
142	0x3ce660c7	0.028122319
143	0xbcec2b84	-0.028829344
144	0x3cfb1e2e	0.03065404
145	0xbbca3c6b	-0.006171753
146	0x3c85071e	0.016238745
147	0xbd3b2c2c	-0.045696422
148	0xbd8b5a87	-0.06804376
149	0xbd3ee37e	-0.046603672
150	0xbca3a1a5	-0.019974539
151	0x3c02e761	0.007989735
152	0xbbc2e713	-0.0059479563
153	0x3d90c46f	0.07068717
154	0x3dca2143	0.098696254
155	0x3db56b66	0.08858375
156	0x3d8f7947	0.07005554
157	0x3dd4fdac	0.103999466
158	0x3da357d9	0.0797574
159	0xbb00c7ce	-0.0019650343
160	0x3bc56f19	0.0060252068
161	0x3bfe8264	0.0077670086
162	0xbd741975	-0.05959459
163	0xbdad2197	-0.084536724
164	0xbd4c1ab3	-0.04983015
165	0xbc9d2f43	-0.019187575
166	0xbd192572	-0.037389226
167	0xbd0218c2	-0.031761892
168	0x3c4cbf5c	0.0124967955
169	0xbb813cd5	-0.0039440193
170	0xbc9720a8	-0.018448189
171	0xbca5ef8a	-0.020255823
172	0xbcec5da5	-0.028853247
173	0xbcae1e52	-0.021254692
174	0xbc89e5d4	-0.016833223
175	0xbc89e888	-0.016834512
176	0xbd926093	-0.07147326
177	0xbd3a3963	-0.045464884
178	0x3bb65b8d	0.005565113
179	0x3c51360c	0.012769233
180	0x3cc08e64	0.023505397
181	0x3dc22ea6	0.09481554
182	0x3d9da971	0.07698334
183	0x3dfd9be2	0.12383248
184	0x3df4e8fb	0.119585
185	0x3e099fcd	0.13439865
186	0x3e0d71a5	0.13812883
187	0x3dc5af31	0.09652556
188	0x3d21fdcf	0.03954869
189	0xba9a3793	-0.001176583
190	0x3c483439	0.012219482
191	0xbd73b8df	-0.05950248
192	0xbd96ed9e	-0.07369541
193	0xbce7a374	-0.028276183
194	0x3a2d290c	0.0006605543
195	0x3cd8e706	0.026477348
196	0xbb0761e5	-0.0020657715
197	0x3c069627	0.00821451
198	0x3bb9511b	0.0056554205
199	0xbaa1d2e9	-0.0012346181
200	0x3adc1ef1	0.0016793889
201	0xbce05f3b	-0.02738916
202	0xbcec467a	-0.0288422
203	0xbd7793fb	-0.06044386
204	0xbd872fe5	-0.06600932
205	0xbd63ece7	-0.05564585
206	0xbc615eef	-0.013755544
207	0x3c575a79	0.013144129
208	0x3d420e9b	0.04737721
209	0x3ccb9313	0.024850404
210	0x3d2c3ae5	0.042048354
211	0x3d973b03	0.073843025
212	0x3e177d11	0.14793803
213	0x3e13fc34	0.14451677
214	0x3e3ad4ba	0.18245211
215	0x3da6b912	0.08140768
216	0x3cae36ce	0.021266367
217	0x3d47c1be	0.04876875
218	0x3d5d24bc	0.05399011
219	0xbbba1844	-0.005679162
220	0xbd84a8e4	-0.06477526
221	0xbd95bcb0	-0.0731138
222	0x39d2b42f	0.00040188569
223	0x3c141dd8	0.009040318
224	0xbc8b3d07	-0.016996874
225	0xbb843630	-0.00403478
226	0x3ced2e4f	0.028952746
227	0x39e8bf21	0.0004439289
228	0xbd0040de	-0.031311862
229	0x3c0277a6	0.007963097
230	0xbcaf4694	-0.021395959
231	0xbda837cf	-0.0821377
232	0xbd96f0fe	-0.07370184
233	0xbd3176a5	-0.04332604
234	0xbb2e3712	-0.0026583117
235	0xbca249af	-0.019810526
236	0xbc7c8bf9	-0.015414231
237	0x3a6a4225	0.0008936248
238	0x3cce8af4	0.025212742
239	0x3dd2bc11	0.10289777
240	0x3da1e372	0.0790471
241	0x3e19ea3b	0.15030758
242	0x3e2e0a41	0.16996099
243	0x3dc35da1	0.09539343
244	0x3d9c671c	0.07636854
245	0x3d4c5048	0.04988125
246	0x3dc15302	0.094396606
247	0x3c20d4c5	0.009816353
248	0xbd00eff7	-0.03147885
249	0xbd895d7b	-0.06707283
250	0xbc306b8b	-0.010767828
251	0x3c4bea65	0.012446021
252	0xbc5e53d2	-0.013569789
253	0x3d08b39b	0.03337441
254	0xbcb41ba1	-0.02198583
255	0x3ce672ba	0.028130878

fc.bias f4 [10]
0	0xbe331070	-0.17486739
1	0x3e8bcb1e	0.27303404
2	0xbdb8e0ec	-0.090272754
3	0xbe353240	-0.1769495
4	0x3c091707	0.008367307
5	0x3f270a38	0.6524997
6	0xbd9d6fbe	-0.07687329
7	0x3e9fffb6	0.3124978
8	0xbf2a4d62	-0.66524327
9	0xbe0ffefd	-0.14062114
