runs/benign/20250814-105020/models/base_round_1_node_4.pt (torch, 33349 bytes, 2 tensors)

fc.weight f4 [10, 784]
000000 23 ea c5 3c 65 bf 5a bc c6 c5 0b 3d 7c 86 0d bd
       0.024159497 -0.013351296 0.03412416 -0.034552082
000010 c5 80 40 3c aa b1 19 bc 73 8b a6 bc f7 ad 32 bc
       0.011749451 -0.009380737 -0.020330166 -0.010905734
000020 e5 ea bb bb 37 15 c2 bb ba 89 f7 3c f7 ba 86 3b
       -0.0057347887 -0.005922939 0.03021704 0.0041116434
000030 a1 0d 73 bc 66 db 96 3c 73 e6 8f ba 76 f3 8a bc
       -0.014834792 0.018415164 -0.0010978713 -0.016961794
000040 60 83 07 bc ea 04 f7 3c c1 86 f6 3c a5 5d b7 bc
       -0.008271068 0.03015371 0.030093553 -0.02238352
000050 f0 d6 a8 bc b7 e1 51 3c ee b5 9b 3c 3b 38 01 3d
       -0.020610303 0.012810162 0.01900765 0.031547766
000060 3c ec a2 3c 83 5e d5 3c ea 9b 08 3d e5 08 31 3c
       0.019888036 0.026046043 0.033351816 0.010805343
000070 13 12 46 3b 8e ad c5 3c dc f2 f9 3a ca b9 1e 3c
       0.0030223175 0.024130609 0.001906957 0.00968785
000080 d3 1d a3 3c 8a 10 92 3c 7c 48 f7 3c d7 4a 32 bc
       0.019911682 0.017830152 0.03018593 -0.010882101
000090 0d c4 e5 3c 4c 5e d9 3c 42 d5 b0 bb bc af 00 bd
       0.028047586 0.026534222 -0.005396516 -0.031417593
0000a0 96 11 56 3b d6 c2 8e bb 74 d3 f3 3b b2 99 8d bb
       0.003266429 -0.0043567223 0.0074409787 -0.0043213004
0000b0 5c 22 00 bd 02 2f b0 bc 39 4c 5b 3c df 33 2c bc
       -0.031282768 -0.02150679 0.013384872 -0.010510414
0000c0 bd 43 c2 3c fd ab 80 3c e0 7d 0e bd e8 5c 3e 3a
       0.02371394 0.01570701 -0.034788013 0.0007261769
0000d0 4e 22 e3 bc 8a db b8 bc 53 e9 09 3c 35 09 03 bd
       -0.027726319 -0.022565622 0.008417445 -0.031991202
0000e0 9c 39 fe bc 8a 06 0e 3c da 17 09 3d 41 8c ba 3c
       -0.03103333 0.008668551 0.033470012 0.022771956
0000f0 b2 e9 e3 3b d7 ee e0 3b 68 6b 85 bb ae 3f c9 bc
       0.006955349 0.0068644094 -0.0040716417 -0.024566498
000100 2e ae 6d bc 43 cf 03 3c b6 ce b9 3c 9d 87 f7 bc
       -0.01450686 0.0080450205 0.022681575 -0.030216033
000110 35 91 8f 3c 11 bc 4c 3c 32 3d 23 3a 08 85 0b bc
       0.017525295 0.01249601 0.00062270754 -0.008515604
000120 ef 4f 20 3c 21 9d 47 3c d3 75 2d bc 9e a2 68 3c
       0.009784683 0.012183459 -0.0105871735 0.014198927
000130 c9 58 ee bc 88 eb 01 3d 33 a8 c7 bc 6e d8 86 bb
       -0.02909507 0.03171876 -0.024372196 -0.004115156
000140 74 ef 9c bc a2 3f bd bb 67 0a 03 bd de 5a 91 3c
       -0.019157149 -0.005775408 -0.031992342 0.017743524
000150 2c 07 d5 bc cc 1e 8c 3c 25 d5 0e bc 5b ef 18 bc
       -0.026004396 0.017104529 -0.00871781 -0.009334411
000160 1d 64 a6 bc 2e 9a 8e bb ba ae 78 3c e1 ef d6 bc
       -0.02031141 -0.0043518757 0.015178377 -0.02623743
000170 cd 98 c7 bc 5f a0 9a 3c 62 d1 f9 3b ce 21 c2 ba
       -0.024364853 0.018875299 0.0076238373 -0.00148111
000180 69 2b 5a bc b2 e7 17 bd 11 a4 03 bd d5 ce 58 bc
       -0.013316014 -0.037086196 -0.032138888 -0.013232906
000190 64 4c 8c 3c d5 32 25 bd 28 47 e5 bc 0f 6d 9f 3c
       0.01712627 -0.04033168 -0.027988032 0.019461183
0001a0 c8 48 3a bd 36 45 c0 3c e9 90 8e bb 10 bf 8b bc
       -0.045479566 0.023470502 -0.0043507707 -0.01705888
0001b0 ac 3f 35 bc bd f0 77 bc 8d 87 02 bd 6e db 09 b8
       -0.011062544 -0.01513308 -0.031867553 -3.2867705e-05
0001c0 3e e0 c4 bc 32 29 72 bc fd 83 d4 bc 9a 0a 94 bc
       -0.024032708 -0.01478033 -0.025941843 -0.018071461
0001d0 27 a6 7a bc 26 88 f2 bc 5e a7 12 3c 8b 19 35 3c
       -0.015298403 -0.029605936 0.008951036 0.011053453
0001e0 f1 1e 09 bd 7a b5 16 bd 44 c6 ae bc 0c 6d ad bc
       -0.033476774 -0.036794163 -0.021334775 -0.021170162
0001f0 a5 f4 ae bb 8e db e5 3a a1 f6 b1 3c 2e 6c cf 3c
       -0.0053392225 0.0017536746 0.021724047 0.025320139
000200 d9 d7 16 3d 70 1f 7c bc e7 4a 2d bc b8 4c 84 3c
       0.036826942 -0.015388355 -0.01057694 0.016149864
000210 30 b7 9b 3c cc f3 22 bd bc 9b 40 bc 61 34 5d 3c
       0.019008249 -0.039783284 -0.01175588 0.013501258
000220 4f c9 d0 3c 65 51 b3 bc 3b 3e 7e 3c 39 ec 83 3c
       0.025486616 -0.021889398 0.015517767 0.01610385
000230 75 4a aa 3c 13 69 66 bc 18 74 e6 3c 0f 94 e6 bc
       0.020787457 -0.014063138 0.02813153 -0.028146772
000240 92 0c 09 3d 64 88 90 39 87 83 d7 3c fc ee 02 bd
       0.033459254 0.0002756744 0.026307834 -0.031966195
000250 be 85 43 bd 91 d3 c7 bc 17 68 51 bc d7 74 b1 3b
       -0.04773497 -0.024392875 -0.012781165 0.0054155397
000260 36 37 b8 bc 5b 50 c3 3c b6 4b f2 3c ab 13 c3 3b
       -0.022487264 0.023842027 0.029577117 0.0059532723
000270 ab f1 06 3c a7 83 3f 3d 9d 60 29 3d 6c a0 54 bc
       0.008236329 0.046756413 0.041351903 -0.012977701
000280 3a d0 1b 3c d7 13 64 3c 1c df 16 bd 5f 75 50 bd
       0.009510094 0.013920746 -0.036833867 -0.050893184
000290 63 ef d3 bc 5a 16 11 bc 53 8c 11 bd d3 39 ff bc
       -0.025870984 -0.008855427 -0.035534214 -0.031155502
0002a0 5c bf 4c 3c f4 39 81 bb 74 e5 96 bc 4f 38 a3 bc
       0.0124967955 -0.003943676 -0.018419959 -0.019924311
0002b0 d4 54 ca bc a1 0b 87 bc 46 15 84 bb 51 0b d5 3b
       -0.024698652 -0.016485037 -0.0040308563 0.006501593
0002c0 e5 20 28 bd b8 4d a0 bc fd 7a 04 3c 06 67 45 ba
       -0.041046996 -0.01956831 0.008085963 -0.00075303053
0002d0 bc a3 cc 3b 55 b4 3b 3d 8a aa 45 3c 52 1f 4b 3d
       0.0062451046 0.045826275 0.012064585 0.049590416
0002e0 10 93 08 3d 7a 85 3e 3d 7e 59 8a 3d 32 4b 4b 3d
       0.033343375 0.046514012 0.067553505 0.04963226
0002f0 1d 8c 78 3c 85 a0 07 bd ee 7a 84 3b fe f0 df bc
       0.015170124 -0.033112068 0.0040429747 -0.027336594
000300 e2 6c 02 bd 64 18 6f bb 5c c7 2c 3c 85 62 ea 3c
       -0.03184212 -0.0036483044 0.010545578 0.02861143
000310 dd 61 07 bb eb ed 06 3c 17 fb bd 3b c3 76 f8 b9
       -0.0020657696 0.008235435 0.0057977545 -0.0004739073
000320 3f 19 d7 3b e0 90 9e bc ba a2 47 bc cc 15 ec bc
       0.006564289 -0.019356191 -0.012184793 -0.028818987
000330 38 c0 12 bd b0 8a 37 bd 2d f4 bf bc 85 c7 98 bb
       -0.035827845 -0.044809997 -0.023431862 -0.0046624565
000340 35 c2 bf 3c a1 97 69 bb 83 96 e1 3b 9d f7 31 3c
       0.023408035 -0.0035643356 0.0068843975 0.010862258
000350 df 76 87 3d 8f fc 12 3d 68 e3 a3 3d 8c ba 23 3c
       0.0661447 0.03588539 0.08002359 0.009993207
000360 de 4c 3e bc e1 64 c7 3c e3 32 ed 3c e7 65 63 3a
       -0.011615006 0.024340095 0.028954929 0.00086745474
000370 0a ae f0 bc da 4d 33 bd ef b1 04 3c 97 5d 1f 3c
       -0.029379863 -0.043775417 0.008099063 0.009726903
000380 c6 f0 8d bc 47 e9 82 bb 80 34 ef 3c 54 13 f2 3a
       -0.017326724 -0.003995094 0.029199839 0.0018468895
000390 d6 27 cd bc 0e 17 b8 3c 0c 21 29 3b 68 05 59 bd
       -0.02504341 0.02247193 0.002580705 -0.05298367
0003a0 cc 2b 5a bd 4d 62 16 bd 47 eb 12 bc 24 2c ee bc
       -0.053264424 -0.03671484 -0.008967227 -0.029073782
0003b0 bc c3 f7 bc ea 36 57 bc 1a ad 5e bc c8 b5 44 3d
       -0.0302447 -0.013135651 -0.013591075 0.048024923
0003c0 b4 da 84 ba 97 be 5e 3d 61 be 98 3d e1 ed b3 3c
       -0.0010135979 0.05438098 0.07458187 0.021964015
0003d0 44 b1 d8 3c a5 c9 8e 3c 42 65 2a 3d 50 65 e3 bc
       0.026451714 0.017430136 0.041600473 -0.02775827
0003e0 f2 a4 93 bc 7c d0 24 bd 0f a5 14 bb 90 96 53 3c
       -0.018022988 -0.04023789 -0.002268139 0.012914315
0003f0 04 4b 5e bc 68 de 08 3d 2f a7 b3 bc f8 b6 fd 3c
       -0.01356769 0.033415228 -0.021930305 0.030971035

fc.bias f4 [10]
000000 0c 51 95 bd 60 ad ed 3d d7 ad 8b bd a9 94 8b bd
       -0.07290849 0.11605334 -0.06820267 -0.06815464
000010 0d c2 18 3d 4c 7b 38 3e 6b d7 b6 bc 41 df bc 3d
       0.037294436 0.18015784 -0.022319516 0.0922227
000020 d8 65 54 be c8 6e 85 bd
       -0.20741975 -0.065152705
