runs/benign/20250814-230929/models/base_round_1_node_8.pt (torch, 33349 bytes, 2 tensors)

fc.weight f4 [10, 784]
000000 ac 22 03 bd fd 3e 06 3d ce 5e 0a 3c 90 83 92 bc
       -0.032015488 0.032774914 0.008445455 -0.017885
000010 01 86 ab 3c 13 af 0f bd f3 24 21 3c 5c 9b db 3b
       0.020937921 -0.035079073 0.00983547 0.00670187
000020 6e 45 ae bb 1c 14 a2 bc b3 bf 96 3c 98 73 76 bc
       -0.0053183353 -0.01978498 0.018401956 -0.015042208
000030 30 9c 04 bc 45 10 0a 3d 04 15 05 3c 34 5f 00 bd
       -0.008093879 0.033706922 0.008122686 -0.031340793
000040 41 79 f4 3c 25 73 2d 3a 5a 80 03 bd ee 07 f3 bc
       0.029842975 0.0006616584 -0.032104827 -0.029666867
000050 c1 86 4b 3c 00 b0 0c 3a 4a 3d 28 3c f7 c7 89 3b
       0.012422265 0.0005366802 0.010268519 0.004204746
000060 35 11 89 3c ca 4c 0b 3b 33 c8 25 bc a3 36 d1 bc
       0.016731838 0.0021255487 -0.010118532 -0.025538748
000070 dc b6 3b 3b a3 f0 09 bd c1 45 b4 3b 0e ee b7 3c
       0.0028642928 -0.033676755 0.0055014794 0.02245238
000080 ba b6 df bc f2 eb 24 bc 45 a6 90 3b df bb 9e bc
       -0.02730881 -0.010066019 0.004414352 -0.019376693
000090 c7 8a a1 bc f7 e4 b9 bc a6 1f 53 bc 1e b0 1b bc
       -0.019719495 -0.022692187 -0.012885964 -0.009502439
0000a0 bf d9 3f bc af 4b dc 3c 1f b8 8b bc fa f0 ca bb
       -0.01170963 0.026891557 -0.01705557 -0.0061932774
0000b0 51 a7 83 bc 10 0c 5b bc af f9 70 3a 51 14 ab bc
       -0.016070994 -0.013369575 0.0009192479 -0.020883711
0000c0 42 3a 99 3c 47 2b 0f bd 15 c0 d3 bc 13 59 8b 3c
       0.018704537 -0.034953382 -0.025848428 0.017010247
0000d0 83 17 f5 3c fc 38 f7 bc b5 e5 eb 3c e3 3b c6 3c
       0.029918438 -0.03017854 0.028796056 0.024198478
0000e0 c6 36 07 3d dc e7 68 3b cb 91 8c 3c 07 5a aa 3c
       0.03301122 0.003553859 0.017159363 0.020794882
0000f0 da 2f 85 bc f6 ed bd bc 2d e0 5f bc 67 1a 03 bc
       -0.016258169 -0.023184758 -0.0136642875 -0.0080019
000100 9d 22 01 bd b0 07 b5 3c fb 4f 0a 3d 8e d7 f1 3c
       -0.03152715 0.022098392 0.03376768 0.02952173
000110 bb a9 f8 3c 93 3f aa 3c b7 41 ab 3b 6d 77 c8 bc
       0.030354371 0.020782268 0.0052263397 -0.02447101
000120 67 4c 91 bc 8d 41 5c bc 3f c8 f1 bc 1a ca c1 3c
       -0.017736627 -0.013443363 -0.02951443 0.02365594
000130 52 c6 db bc 76 0e 7a bc 7d 59 e7 bc ec 60 11 bd
       -0.026827965 -0.015262237 -0.028240914 -0.035492823
000140 15 4e c7 bc 07 54 8c bc 43 e6 cc bc 93 52 11 3a
       -0.024329225 -0.017129911 -0.025012141 0.00055436156
000150 10 39 aa bc fc 30 05 bd b9 57 d3 bc 07 06 12 bc
       -0.020779163 -0.03251742 -0.025798665 -0.00891257
000160 de de 14 3c d0 72 db 3c 08 c9 bc b9 98 4b 8e bc
       0.009086339 0.026788145 -0.00036007934 -0.01737003
000170 89 6b 5e 3c 65 d2 84 3c 31 c6 9d 3a 0d f9 ec ba
       0.013575443 0.016213605 0.0012037215 -0.0018079594
000180 b0 87 71 bc d5 dc db ba 50 17 f7 bc 8e 78 31 bd
       -0.014741823 -0.0016774187 -0.030162483 -0.04332786
000190 99 be 9a bc d9 f4 5f bd 4e 6e 70 bd 30 9e a5 ba
       -0.018889712 -0.054676864 -0.058698945 -0.0012635645
0001a0 64 52 ad bb ec ef 60 bc 7c 09 fb bc e0 f2 ec bc
       -0.0052893627 -0.013729077 -0.030644171 -0.028924406
0001b0 0b 33 05 bd a9 35 01 3d 53 cf 88 bc 3c 6c 22 bc
       -0.03251938 0.031545315 -0.016700422 -0.0099135
0001c0 0a ce 28 bc a7 17 00 bd 44 10 81 bc e4 ee 93 bc
       -0.01030303 -0.031272557 -0.015754826 -0.018058248
0001d0 eb dc 0a 3d 02 13 59 3b 25 79 99 bc c3 67 0b bd
       0.03390209 0.0033122902 -0.018734524 -0.0340345
0001e0 d4 ae 3f bd 54 16 80 3c 60 20 a4 bc 31 f0 01 3c
       -0.04679759 0.015635647 -0.020034969 0.007930801
0001f0 e7 ea 46 3c ee bd e6 3b f2 7a 43 bb 18 4e 47 3b
       0.012140966 0.0070416844 -0.002982792 0.0030411538
000200 f5 88 84 bc 82 66 f7 bc 01 5f 95 bc 64 35 11 bd
       -0.016178587 -0.030200247 -0.018233778 -0.035451308
000210 5f 9b 9f bc 41 99 b0 bc fd a8 2c bd 21 4d 19 3b
       -0.019483266 -0.021557452 -0.042153347 0.002339192
000220 46 12 01 bd 6f 2a 02 bd 43 60 d2 3c 86 86 48 b9
       -0.031511568 -0.03177875 0.025680667 -0.000191236
000230 53 03 68 bc 4a 58 e9 bc e8 f7 8e bc 90 d9 79 bc
       -0.014160949 -0.028484482 -0.017452195 -0.015249625
000240 fc 30 06 bd e2 bb a7 3c 02 ee 14 bb 57 90 5b bc
       -0.03276156 0.020475332 -0.0022724872 -0.0134011125
000250 c0 bf ca 3b 86 2a bc bc 39 0b 1e bd 2d c6 63 bc
       0.006187409 -0.022969496 -0.03858492 -0.013902229
000260 47 29 31 3d 95 8e 40 3d 94 ac 52 3d 3b b6 70 3d
       0.043252256 0.047010977 0.051434115 0.05876754
000270 b6 f5 4e 3d 47 80 96 3d 5e 3d 43 3c 40 23 04 bc
       0.050527297 0.07348686 0.011916487 -0.008065045
000280 95 b9 dc bc 95 78 09 bd 58 de f3 bb 09 21 32 bd
       -0.026943961 -0.03356226 -0.007442277 -0.043488536
000290 a1 92 3a bd 20 cd 14 bd 52 4f aa bc 4e f4 c7 bc
       -0.045549992 -0.036328435 -0.020789776 -0.024408486
0002a0 ca 76 0c bc 85 04 c0 bc 80 64 d0 3c 42 6a ce 3c
       -0.008573243 -0.023439655 0.025438547 0.025197152
0002b0 2b 7c cc bb 33 38 4d 3c 7b 0c 79 bc b2 99 a4 bc
       -0.006240388 0.012525606 -0.0152007295 -0.020092819
0002c0 67 b2 1f bb 9a 4b 84 bd 8f 73 45 bd b5 2b 8c bc
       -0.002436781 -0.06459732 -0.04820591 -0.017110685
0002d0 7d 04 bd 3b 43 be cd 3c d1 66 12 3d ae 9e a8 3d
       0.0057683573 0.025115138 0.035742585 0.08233391
0002e0 00 38 b2 3d f5 8b 88 3d 2c 4f 29 3d f5 c3 c3 3c
       0.087020874 0.0666732 0.04133527 0.02389715
0002f0 9f fe aa 3c 5b 41 8b 3c 68 58 1c bd 4e 3a 7d bd
       0.020873366 0.016998937 -0.03817025 -0.06182318
000300 1f cd a5 bc 6a a9 70 bb 7f 6a 85 bc 59 5d 7c 3b
       -0.02023941 -0.0036722072 -0.016286133 0.0038507788
000310 5d c7 06 bd 65 e9 2f b9 90 3b 74 bc ff dc df ba
       -0.03290497 -0.00016776247 -0.014906779 -0.0017079412
000320 b0 f3 a4 3c bc fa cc 3b 3a 44 48 bc 73 a7 80 bd
       0.02013573 0.006255476 -0.012223298 -0.062819384
000330 e6 0e 0b bc ba 14 4e bd c9 a6 e7 bc 8b 58 64 bc
       -0.008487439 -0.050312735 -0.028277772 -0.013937126
000340 e2 4f e8 3c 61 62 13 bb 48 58 6d 3c ee ee 1a 3d
       0.028358404 -0.0022489058 0.01448638 0.037825517
000350 f0 98 86 3d 73 d6 cb 3d c6 9c dd 3d 7d 92 1c 3d
       0.06572139 0.09953012 0.10820918 0.03822564
000360 d2 5c 8d 3d 89 ce 08 3c d4 b1 9d 3c 63 de 24 bc
       0.0690247 0.008350023 0.019249834 -0.010062787
000370 c1 a3 84 bd 77 bd 7b 3a f6 a9 cb 3c 65 c1 b5 bc
       -0.06476546 0.00096031226 0.024861317 -0.022186944
000380 f7 d8 c1 bc 95 3a 61 bb 22 5d 9f 3b bd 91 02 bd
       -0.023663027 -0.0034367193 0.004863397 -0.031877268
000390 ff 30 43 bb 23 29 24 bd 5e fd 20 bc 13 27 90 bc
       -0.0029783843 -0.040078294 -0.009826032 -0.017596757
0003a0 11 81 22 bc 16 a0 5f bb c1 2c 84 ba c0 f3 1a 3d
       -0.009918467 -0.0034122518 -0.0010084138 0.037830114
0003b0 b6 57 f7 ba c4 32 e0 3c 34 94 40 3c ce 8c 3e 3d
       -0.0018870744 0.027367957 0.011754084 0.046521
0003c0 5d de a7 3d 92 4e 13 3d 78 66 a0 3d ea 8c 34 3d
       0.08196709 0.035963602 0.07832044 0.0440797
0003d0 58 63 95 3d 53 ca 61 3d 6f c0 9e 3c c2 9c d0 3b
       0.07294339 0.055124592 0.019378869 0.0063663432
0003e0 21 29 13 bd 6c 64 ed bc a6 18 02 bb b0 d0 a4 bc
       -0.035927895 -0.028978549 -0.0019851117 -0.020119041
0003f0 08 bd 50 bc c2 d8 82 3c 23 b3 5c 3c 36 0e 8d bc
       -0.012740381 0.015972499 0.013470444 -0.01721869

fc.bias f4 [10]
000000 4b 40 27 be 01 e1 41 3e ba 7b 03 bd 25 44 03 be
       -0.1633312 0.18933488 -0.032100417 -0.12818964
000010 e7 0d 54 3d 59 2e d2 3e 8a 1d a7 bd b1 5f 36 3e
       0.05177107 0.41050985 -0.08159931 0.17809941
000020 90 09 b2 be ce 5f 8a bd
       -0.3477292 -0.067565545
