runs/benign/20250814-230929/models/base_round_0_node_2.pt (torch, 33349 bytes, 2 tensors)

fc.weight f4 [10, 784]
0	0xbd0322ac	-0.032015488
1	0x3d063efd	0.032774914
2	0x3c0a5ece	0.008445455
3	0xbc928390	-0.017885
4	0x3cab8601	0.020937921
5	0xbd0faf13	-0.035079073
6	0x3c2124f3	0.00983547
7	0x3bdb9b5c	0.00670187
8	0xbbae456e	-0.0053183353
9	0xbca2141c	-0.01978498
10	0x3c96bfb3	0.018401956
11	0xbc767398	-0.015042208
12	0xbc048997	-0.008089445
13	0x3d0a1b95	0.03371771
14	0x3c051a0e	0.008123888
15	0xbd005f26	-0.03134074
16	0x3cf47941	0.029842975
17	0x3a2d7325	0.0006616584
18	0xbd03805a	-0.032104827
19	0xbcf307ee	-0.029666867
20	0x3c4b86c1	0.012422265
21	0x3a0cb000	0.0005366802
22	0x3c283d4a	0.010268519
23	0x3b89c7f7	0.004204746
24	0x3c891135	0.016731838
25	0x3b0b4cca	0.0021255487
26	0xbc25c833	-0.010118532
27	0xbcd136a3	-0.025538748
28	0x3b3bb6dc	0.0028642928
29	0xbd09f0a3	-0.033676755
30	0x3bb445c1	0.0055014794
31	0x3cb7ee0e	0.02245238
32	0xbcdfb5ae	-0.027308311
33	0xbc24e597	-0.010064504
34	0x3b90fd40	0.004424721
35	0xbc9e7dd0	-0.019347101
36	0xbca0945c	-0.019601993
37	0xbcb8fdc5	-0.022581944
38	0xbc5098e1	-0.012731762
39	0xbc19cc7c	-0.009387132
40	0xbc3ebc65	-0.011641596
41	0x3cddabda	0.027059484
42	0xbc898793	-0.01678828
43	0xbbdac69c	-0.006676508
44	0xbc908c2e	-0.017644968
45	0xbc661b93	-0.01404466
46	0x3a880925	0.0010378702
47	0xbcaa2ac0	-0.020772338
48	0x3c99effa	0.018791188
49	0xbd0f069e	-0.03491842
50	0xbcd39fb5	-0.02583299
51	0x3c8b5dca	0.017012496
52	0x3cf51783	0.029918438
53	0xbcf738fc	-0.03017854
54	0x3cebe5b5	0.028796056
55	0x3cc63be3	0.024198478
56	0x3d0736c6	0.03301122
57	0x3b68e7dc	0.003553859
58	0x3c8c9435	0.017160514
59	0x3caa5263	0.020791238
60	0xbc852713	-0.016253984
61	0xbcbde4f1	-0.023180457
62	0xbc5b806e	-0.013397319
63	0xbbf463ca	-0.007458185
64	0xbcfbe305	-0.0307479
65	0x3cbf296e	0.023335185
66	0x3d11fe4d	0.03564291
67	0x3d0130cd	0.03154068
68	0x3d07475f	0.03302705
69	0x3ccb471a	0.024814177
70	0x3c2ec981	0.010668159
71	0xbc978b83	-0.018499142
72	0xbc408825	-0.011751209
73	0xbbc7c9dc	-0.0060970616
74	0xbcc40741	-0.02392924
75	0x3cda9d37	0.026686294
76	0xbccc8b5c	-0.024968795
77	0xbc65385c	-0.013990488
78	0xbce3928e	-0.027779844
79	0xbd10a566	-0.035313986
80	0xbcc6c4ba	-0.024263728
81	0xbc8c4823	-0.017124241
82	0xbccce643	-0.025012141
83	0x3a115293	0.00055436156
84	0xbcaa3910	-0.020779163
85	0xbd0530fc	-0.03251742
86	0xbcd35211	-0.025795968
87	0xbc118c77	-0.008883587
88	0x3c2287f3	0.009920108
89	0x3ceb8c2a	0.028753359
90	0x3b153725	0.0022768464
91	0xbc4e9925	-0.012609755
92	0x3c9a4080	0.018829584
93	0x3cbaa167	0.02278204
94	0x3c0a6cca	0.008448789
95	0x3bcb502e	0.0062046265
96	0xbbb24fdc	-0.005441649
97	0x3be52ce5	0.0069938772
98	0xbc8d4fd3	-0.017249977
99	0xbcd856fa	-0.026408661
100	0x3b689981	0.0035491886
101	0xbcfa6158	-0.030563995
102	0xbd0882dc	-0.033327922
103	0x3ca861be	0.02055442
104	0x3c396117	0.011314652
105	0xba918425	-0.0011102004
106	0xbcbe28da	-0.023212839
107	0xbccda2c1	-0.025102021
108	0xbcfc8b75	-0.030828217
109	0x3d020f4e	0.031752877
110	0xbc8875a0	-0.01665765
111	0xbc226c3c	-0.0099135
112	0xbc28ce0a	-0.01030303
113	0xbd0017a3	-0.03127254
114	0xbc810cda	-0.015753198
115	0xbc933ab0	-0.01797232
116	0x3d0d3ea4	0.034483567
117	0x3bd6a5f7	0.0065505463
118	0xbc5d29a5	-0.013498698
119	0xbccc6ffe	-0.024955746
120	0xbd0695c0	-0.032857656
121	0x3d086e0d	0.033308078
122	0xbbedf5dc	-0.0072619747
123	0x3c8a865c	0.01690977
124	0x3c19b67c	0.009381887
125	0xbbf3cd41	-0.0074402397
126	0xbc9c003e	-0.019043084
127	0xbc3bb881	-0.011457563
128	0xbc9196c7	-0.017772092
129	0xbd0d1224	-0.03444113
130	0xbc4c2097	-0.012458942
131	0xbcdf5c63	-0.027265733
132	0xbbaf6741	-0.005352885
133	0xbac36093	-0.0014906101
134	0xbcdcba55	-0.026944319
135	0x3c84ff0c	0.016234897
136	0xbcb725ac	-0.02235683
137	0xbceebb8e	-0.029142167
138	0x3cd5b195	0.026085654
139	0xb941c001	-0.00018477441
140	0xbc680353	-0.014160949
141	0xbce9584a	-0.028484482
142	0xbc8edd60	-0.017439544
143	0xbc70a133	-0.01468687
144	0xbcfaa0ea	-0.030594308
145	0x3cd5944c	0.02607169
146	0x3c017033	0.007900286
147	0x3b3c6037	0.0028743872
148	0x3cff05fc	0.031130783
149	0x3badaf01	0.005300403
150	0xbcbef2b1	-0.023309084
151	0xbc1a327c	-0.0094114505
152	0x3d0fcdd8	0.035108417
153	0x3c512d0e	0.0127670895
154	0xbb9161f7	-0.004436727
155	0xbc340c4a	-0.010989258
156	0xbbd40f77	-0.00647157
157	0x3c93cae3	0.01804108
158	0xbd04f8cf	-0.032463845
159	0xbcfe8eec	-0.03107401
160	0xbcfb2d5e	-0.030661281
161	0xbcd8ff3e	-0.026488896
162	0x3c869ee5	0.016433189
163	0xbc46f95c	-0.012144413
164	0xbcc99a9c	-0.024609856
165	0xbce346e8	-0.027743772
166	0xbc9e89ba	-0.019352783
167	0xbcc3feac	-0.023925148
168	0xbc0c76ca	-0.008573243
169	0xbcc003c7	-0.023439301
170	0x3cd0c5e7	0.025484992
171	0x3cd3a43c	0.025835149
172	0xbaff3925	-0.0019471986
173	0x3c971f95	0.018447677
174	0xb9accb6e	-0.00032957963
175	0x3bf22da5	0.007390695
176	0x3d0db7b4	0.03459902
177	0xbcf9a23a	-0.030472863
178	0xbd10c6b0	-0.035345733
179	0xbca429de	-0.020039495
180	0xbab31c01	-0.0013664962
181	0xbbf2e6f8	-0.0074127875
182	0xbc30955c	-0.010777798
183	0x3cd16405	0.025560388
184	0x3c724f4a	0.014789412
185	0xbc74c785	-0.014940147
186	0xbcfefe0c	-0.031126998
187	0xbce1ae75	-0.027549008
188	0xbb989740	-0.0046567023
189	0xbb301113	-0.0026865646
190	0xbd071ba5	-0.03298535
191	0xbce687a8	-0.028140858
192	0x3c7a07bc	0.015260633
193	0x3c809ea3	0.015700644
194	0xbc18543c	-0.009297427
195	0x3bb3a6ee	0.005482546
196	0xbd06c75a	-0.03290496
197	0xb9171b6e	-0.000144107
198	0xbc71d03c	-0.01475912
199	0x3887d24a	6.476471e-05
200	0x3cd55645	0.026042113
201	0x3c8669ec	0.01640793
202	0x3c011f5c	0.007881012
203	0xbcd69aa5	-0.026196787
204	0x3d03584b	0.032066625
205	0xbcbdf49a	-0.023187924
206	0xbcbfb051	-0.023399504
207	0xbcacdfbe	-0.021102782
208	0x3c94e44c	0.018175267
209	0xbc68beb8	-0.014205627
210	0xbbe7191c	-0.007052554
211	0xbc1c5153	-0.009540874
212	0xba8a3625	-0.0010544701
213	0x3bd56125	0.0065118247
214	0x3c6c3f0a	0.014419327
215	0xbd0e1f38	-0.03469774
216	0x3d03d49a	0.032185175
217	0xbc2df95c	-0.010618534
218	0x3c2df333	0.010617065
219	0x3c219b25	0.0098636495
220	0xbcf21b48	-0.029554024
221	0x3cd420c7	0.025894536
222	0x3d00543b	0.03133033
223	0xbcb1db07	-0.021710886
224	0xbcc33cd3	-0.023832714
225	0xbb5da7ee	-0.0033822018
226	0x3bac7a13	0.005263576
227	0xbcf04bb8	-0.02933298
228	0x3ba30653	0.004975119
229	0xbcc7beac	-0.024382912
230	0x3c89dac0	0.016827941
231	0x3ca381de	0.019959386
232	0x3ccd1acc	0.025037192
233	0x3c8191ba	0.015816558
234	0xbb1f3f13	-0.002429907
235	0x3d0bd387	0.034137275
236	0xbb5f7e5c	-0.0034102416
237	0x3ce420aa	0.027847607
238	0xbc34cf21	-0.0110357115
239	0x3c2fd59c	0.010732081
240	0x3cfb27f5	0.030658701
241	0xbd0515fe	-0.032491677
242	0x3ada164a	0.0016638723
243	0xbce13841	-0.027492644
244	0x3c4f7161	0.012661309
245	0x3c8f65fa	0.01750468
246	0xbc7eb2bc	-0.015545543
247	0xbb75e5ee	-0.0037521082
248	0xbc35e713	-0.011102456
249	0xbb57e581	-0.0032943191
250	0x3bb3070a	0.0054634856
251	0xbca1941a	-0.01972394
252	0xbc50ae7c	-0.012736913
253	0x3c8366d5	0.016040245
254	0x3c63c54e	0.013902022
255	0xbc59cb2a	-0.013293067

fc.bias f4 [10]
0	0xbce8422c	-0.028351866
1	0x3ca5cebc	0.02024018
2	0x3cf2bafa	0.029630173
3	0xbc840c17	-0.016119046
4	0x3ba243e5	0.0049519413
5	0xbc45d001	-0.012073518
6	0xbc3c1b65	-0.011481141
7	0xbd0c5322	-0.03425897
8	0x3d113a72	0.03545613
9	0x3cadb98e	0.021206643
