runs/benign/20250814-230929/models/base_round_3_node_8.pt (torch, 33349 bytes, 2 tensors)

fc.weight f4 [10, 784]
00000000: ac22 03bd fd3e 063d ce5e 0a3c 9083 92bc
00000010: 0186 ab3c 13af 0fbd f324 213c 5c9b db3b
00000020: 6e45 aebb 1c14 a2bc b3bf 963c 9873 76bc
00000030: 509f 04bc 3f0e 0a3d 9e13 053c 375f 00bd
00000040: 4179 f43c 2573 2d3a 5a80 03bd ee07 f3bc
00000050: c186 4b3c 00b0 0c3a 4a3d 283c f7c7 893b
00000060: 3511 893c ca4c 0b3b 33c8 25bc a336 d1bc
00000070: dcb6 3b3b a3f0 09bd c145 b43b 0eee b73c
00000080: c4b6 dfbc 42ec 24bc 9593 903b 70ca 9ebc
00000090: 10c8 a1bc 4517 babc c4b6 53bc b234 1bbc
000000a0: 621a 3ebc c904 dc3c 057b 8dbc fba3 a3bb
000000b0: a99a 4ebc 854e 40bc 43c1 603a b5c3 abbc
000000c0: 8298 983c 6b41 0fbd 50c9 d3bc d358 8b3c
000000d0: 8317 f53c fc38 f7bc b5e5 eb3c e33b c63c
000000e0: c636 073d dce7 683b ca91 8c3c 5960 aa3c
000000f0: fe2e 85bc 61f3 bdbc a48c 67bc dad6 0ebc
00000100: 21be 03bd 30bc ad3c c8ae 043d 66ba e43c
00000110: 07a9 e23c 94f5 843c a568 b7ba 1d62 02bd
00000120: b6cc cbbc 83f8 bcbc 4536 13bd 35d3 a83c
00000130: 8126 ebbc bf26 87bc 3c27 eabc 60f2 11bd
00000140: 93c4 c7bc 0b58 8cbc 43e6 ccbc 9352 113a
00000150: 1039 aabc fc30 05bd bc57 d3bc 1e3c 13bc
00000160: cc7e f03b 20b2 ba3c d5fe a7bb 2503 cdbc
00000170: e783 e23b 0dd8 273c e026 6abb 59ef fbbb
00000180: 4247 b5bc 2bc5 b4bb 1936 1ebd 48fe 6cbd
00000190: f3e9 2dbd c60f a8bd 8c8e bebd 4240 02bd
000001a0: 84e6 ebbc 1a8b 03bd a41c 28bd 1b4f 0cbd
000001b0: d868 0fbd e326 003d 0157 89bc 3c6c 22bc
000001c0: 0ace 28bc a817 00bd a912 81bc 1b22 95bc
000001d0: 5544 063d 88e9 1abb b4d5 d4bc b1eb 34bd
000001e0: d1f2 72bd 6f1f 1a3b 20d5 bbbc 4794 253c
000001f0: abbc c23c effb f53c eed3 563c ac57 7b3c
00000200: fb5f b9bc 8e37 ddbc e6ad 0dbd 8081 5bbd
00000210: f120 27bd f0cd 4abd 8e5c 74bd dec5 68bc
00000220: 3623 36bd 7093 13bd 8771 cd3c cdc2 4cb9
00000230: 5303 68bc 4a58 e9bc 9005 8fbc 523f 85bc
00000240: 4cfe 13bd 2978 543c 524c 51bc 560c cdbc
00000250: d628 3ebc 40e7 28bd b176 10bd 6e3d 50bb
00000260: 8406 773d 6600 b73d 136c e53d e7ac 013e
00000270: 7420 c23d d9f6 f93d d797 683d 5166 393c
00000280: dc34 aabc 2b13 00bd cba9 d3bc 50ac 9ebd
00000290: 7ded 90bd 3c64 45bd 27ac bbbc 0967 cfbc
000002a0: ca76 0cbc 8c05 c0bc c236 d03c 2846 cc3c
000002b0: bc8a 34bc a228 073c 2b84 d8bc 99c0 28bd
000002c0: 0834 05bd 5397 b0bd f096 24bd 882f 803b
000002d0: 923c 913c 6f44 863d 817c b03d c55f 063e
000002e0: 6b22 173e 1b6f 0b3e d6f5 d83d 2ef8 8c3d
000002f0: b78e 333d 2874 5e3d 4d56 bbbc 3cd1 b7bd
00000300: 0908 7abd 7ed4 f8bc 398a e3bc 5b5d 6e3a
00000310: 5dc7 06bd d3f3 4bb9 15b1 75bc f17c 13bb
00000320: 07cd 763c c508 8eba 5b90 d6bc 3944 c3bd
00000330: 53cd 27bd 3cae 70bd cde4 41bc eae4 c43b
00000340: c4fe 343d 8d3f 3b3c 6007 073d 6b52 b13d
00000350: c8d3 033e d0e8 413e d160 483e 9595 c43d
00000360: 6d9d a93d bb36 ac3c 3cb8 2f3d 6ca8 52bc
00000370: 9bf0 c4bd 312d f5bc 12cd 843c 16e9 bbbc
00000380: 7e81 bebc 4da4 63bb 9ebf 9b3b 7e91 06bd
00000390: 53ca 0fbc 2ea3 5dbd 3a75 05bd 50e7 4fbd
000003a0: e73a 11bd f75c 2bbc d474 023c 289e 2a3d
000003b0: 507a a3ba 312b a73c 7bb2 203d 1e89 be3d
000003c0: 0567 183e 9490 f23d 9da3 1c3e 5a70 b93d
000003d0: cd1b cd3d 05a7 8f3d e1a0 863d 95df 393d
000003e0: ea30 3cbd 2994 6abd 6b5c 4cbc c6b1 a9bc
000003f0: d8c0 50bc fb96 823c f21f 623c 4505 a1bc
-0.032015488 0.032774914 0.008445455 -0.017885 0.020937921 -0.035079073 0.00983547 0.00670187
-0.0053183353 -0.01978498 0.018401956 -0.015042208 -0.008094624 0.033704992 0.008122353 -0.031340804
0.029842975 0.0006616584 -0.032104827 -0.029666867 0.012422265 0.0005366802 0.010268519 0.004204746
0.016731838 0.0021255487 -0.010118532 -0.025538748 0.0028642928 -0.033676755 0.0055014794 0.02245238
-0.02730883 -0.010066094 0.0044121244 -0.01938364 -0.019748718 -0.022716174 -0.012921993 -0.009473013
-0.01160297 0.02685775 -0.017270574 -0.004993913 -0.012610116 -0.0117374705 0.000857372 -0.020967344
0.018627409 -0.034974497 -0.02585283 0.017010128 0.029918438 -0.03017854 0.028796056 0.024198478
0.03301122 0.003553859 0.017159361 0.020797895 -0.01625776 -0.023187341 -0.014132652 -0.008718217
-0.032163743 0.021207899 0.032393247 0.027920913 0.02766849 0.016230382 -0.0013992978 -0.03183185
-0.024877887 -0.023067718 -0.035940427 0.020608524 -0.028704884 -0.016497968 -0.028583162 -0.035631537
-0.024385726 -0.017131826 -0.025012141 0.00055436156 -0.020779163 -0.03251742 -0.025798671 -0.008986501
0.007339334 0.022790015 -0.005126814 -0.025025913 0.0069126966 0.010244382 -0.0035728738 -0.0076884446
-0.022128705 -0.0055166683 -0.03862581 -0.05785969 -0.04245944 -0.082061335 -0.093045324 -0.031799562
-0.028796442 -0.03211508 -0.04104294 -0.03425513 -0.035012096 0.031287085 -0.01676512 -0.0099135
-0.01030303 -0.03127256 -0.015755968 -0.01820474 0.03278001 -0.002363773 -0.025980808 -0.044170085
-0.0593136 0.002351727 -0.022928774 0.010106153 0.023771605 0.030027358 0.013112051 0.015340727
-0.022628775 -0.02700403 -0.03458967 -0.053590298 -0.0408029 -0.049512804 -0.05965858 -0.014207331
-0.044467174 -0.03602928 0.025078548 -0.00019527525 -0.014160949 -0.028484482 -0.017458707 -0.016265545
-0.03613119 0.012968102 -0.012774544 -0.025030296 -0.011606416 -0.041236162 -0.035269443 -0.0031774896
0.06030895 0.08935623 0.11202254 0.12663613 0.09478846 0.122052856 0.05678543 0.011315898
-0.020777158 -0.03126828 -0.0258378 -0.0774771 -0.07076547 -0.048191294 -0.022909237 -0.025317686
-0.008573243 -0.023440145 0.025416736 0.024935797 -0.011019405 0.008249434 -0.02643021 -0.0411993
-0.032520324 -0.08622613 -0.040183008 0.003911916 0.017729077 0.065560214 0.08617497 0.1312247
0.14759223 0.13616602 0.105937645 0.06883274 0.043837275 0.054309994 -0.0228683 -0.08975455
-0.06104282 -0.030374762 -0.02777587 0.00090928905 -0.03290497 -0.0001945042 -0.014995833 -0.002250489
0.015063531 -0.0010836354 -0.02619188 -0.09534497 -0.040967297 -0.058759913 -0.0118343355 0.006008734
0.044188276 0.011428726 0.032966018 0.08658298 0.12873757 0.18936467 0.19568183 0.09598843
0.0828198 0.021022191 0.04290031 -0.012857538 -0.09616204 -0.029928776 0.016211066 -0.022938292
-0.023255106 -0.0034735382 0.004753067 -0.032853596 -0.008776265 -0.0541107 -0.0325825 -0.050757706
-0.035456564 -0.010459176 0.007962424 0.041654736 -0.0012472365 0.020406337 0.039232712 0.09303497
0.14883049 0.11843982 0.15296789 0.090546325 0.10015068 0.07014278 0.06573654 0.04537924
-0.045945086 -0.057270203 -0.012473206 -0.020714652 -0.01274129 0.015941134 0.013801562 -0.019655833

fc.bias f4 [10]
00000000: b8e2 89be 27a6 aa3e 34ec 2ebd 9ffc 75be
00000010: f8ee 323c 50be 6c3f 2fbc 11be 87cc cc3e
00000020: 43fa 4dbf 557f 24be
-0.26930785 0.3332989 -0.04270573 -0.24022149 0.010921232 0.92477894 -0.14231943 0.39999792
-0.80459994 -0.16064198
