runs/benign/20250814-110157/updates/round_0_node_2_delta.pt (torch, 33357 bytes, 2 tensors)

fc.weight f4 [10, 784]
0.0 0.0 0.0 0.0 0.0 0.0 0.0 0.0
0.0 0.0 0.0 0.0 0.0 0.0 0.0 0.0
0.0 0.0 0.0 0.0 0.0 0.0 0.0 0.0
0.0 0.0 0.0 0.0 0.0 0.0 0.0 0.0
0.0 0.0 0.0 -4.2058527e-06 -0.0002047997 -0.00015850924 -7.715076e-05 0.0
0.0 0.0 0.0 -5.5499375e-05 -0.0004184693 -0.00023647584 -1.7600134e-05 0.0
0.0 0.0 0.0 0.0 0.0 0.0 0.0 0.0
0.0 0.0 0.0 0.0 0.0 -1.8173829e-05 -9.450782e-05 -0.00016214326
-0.0005223565 -0.0006995108 -0.00068218634 -0.00064250454 -0.00071461685 -0.0007466909 -0.0015297411 -0.001471065
-0.0015943302 -0.0010554157 -0.00046197698 -0.00032722205 -4.772283e-05 0.0 0.0 0.0
0.0 0.0 0.0 0.0 0.0 0.0 0.0 0.0
-1.8174294e-05 -7.199496e-05 -0.0009432663 -0.0022670524 -0.006270474 -0.01003528 -0.011801235 -0.009908222
-0.01184814 -0.012788353 -0.008767959 0.002127396 0.0015749559 -0.005551164 -0.0033433759 -0.0010408647
-0.00012427289 -0.0012386553 -0.00018136832 -6.854534e-07 0.0 0.0 0.0 0.0
0.0 0.0 0.0 0.0 -3.4544617e-05 -0.0011151731 -0.004359073 -0.0092309285
-0.017539036 -0.019712247 -0.01414992 -0.01714071 -0.013182014 -0.0009545442 0.0051918216 0.030843027
0.03224866 0.01999474 0.0104429405 0.008466145 0.003910437 -0.00067696255 0.0030017812 0.0031933468
0.0014001168 0.0 0.0 0.0 0.0 0.0 0.0 -1.0151416e-05
-0.0002676472 -0.0040158927 -0.009605522 -0.019575663 -0.016991684 -0.016513998 -0.0152708385 -0.011653175
0.001031243 0.027008507 0.038771722 0.0429268 0.05529742 0.06592553 0.05033233 0.016786013
-0.0014596847 0.0012279153 0.004415434 0.0038768817 0.00546347 -3.205985e-05 0.0 0.0
0.0 0.0 -0.00015252084 -0.0003323853 -0.0025900193 -0.0072671026 -0.014638107 -0.020068323
-0.017047908 -0.022375207 -0.008898787 0.0038099848 0.021084568 0.03497702 0.047838204 0.050652638
0.06838856 0.07511787 0.075857505 0.039812047 0.022739135 0.018776676 0.015119877 0.0014506076
0.0004563257 -0.00049627386 -8.078199e-05 0.0 0.0 0.0 -0.0013548918 -0.0030990746
-0.00831333 -0.018096782 -0.023857716 -0.029517636 -0.034047194 -0.022667287 -0.006502565 0.016651206
0.032983504 0.043307364 0.047315143 0.058079846 0.06061472 0.06234115 0.059996434 0.05438634
0.021186545 0.015778838 0.027032306 0.01600572 0.0022091884 0.0025953678 -5.916506e-05 0.0
0.0 0.0 -0.001016207 -0.0033579245 -0.014724815 -0.02478954 -0.03419321 -0.0329211
-0.039027058 -0.027622834 0.0013033934 0.018165635 0.03608638 0.03839341 0.028082002 0.034474462
0.035369452 0.03735824 0.05669199 0.06432033 0.043300953 0.02110631 0.026049474 0.020487927
0.0034311442 0.00034550857 0.0 0.0 0.0 0.0 -0.0013571754 -0.004071295
00000000: 0000 0000 0000 0000 0000 0000 0000 0000
00000010: 0000 0000 0000 0000 0000 0000 0000 0000
00000020: 0000 0000 0000 0000 0000 0000 0000 0000
00000030: 0000 0000 0000 0000 0000 0000 0000 0000
00000040: 0000 0000 0000 0000 0000 0000 0000 0000
00000050: 0000 0000 0000 0000 0000 0000 0000 0000
00000060: 0000 0000 0000 0000 0000 0000 0000 0000
00000070: 0000 0000 0000 0000 0000 0000 0000 0000
00000080: 0000 0000 0000 0000 0000 0000 0020 8db6
00000090: 80bf 56b9 8035 26b9 00cc a1b8 0000 0000
000000a0: 0000 0000 0000 0000 0000 0000 00c8 68b8
000000b0: 0066 dbb9 80f6 77b9 00a4 93b7 0000 0000
000000c0: 0000 0000 0000 0000 0000 0000 0000 0000
000000d0: 0000 0000 0000 0000 0000 0000 0000 0000
000000e0: 0000 0000 0000 0000 0000 0000 0000 0000
000000f0: 0000 0000 0074 98b7 8032 c6b8 0005 2ab9
00000100: c0ee 08ba 605f 37ba c0d4 32ba c06d 28ba
00000110: 2055 3bba 94bd 43ba 9881 c8ba c0d0 c0ba
00000120: d8f8 d0ba e055 8aba 8035 f2b9 008f abb9
00000130: 002a 48b8 0000 0000 0000 0000 0000 0000
00000140: 0000 0000 0000 0000 0000 0000 0000 0000
00000150: 0000 0000 0000 0000 0000 0000 0000 0000
00000160: 0075 98b7 00fc 96b8 8845 77ba d492 14bb
00000170: 8c78 cdbb 046b 24bc f859 41bc 1856 22bc
00000180: b31e 42bc 3d86 51bc 7ca7 0fbc c86b 0b3b
00000190: c06e ce3a 8ae6 b5bb 8a1c 5bbb a06d 88ba
000001a0: 404f 02b9 605a a2ba b02d 3eb9 0000 38b5
000001b0: 0000 0000 0000 0000 0000 0000 0000 0000
000001c0: 0000 0000 0000 0000 0000 0000 0000 0000
000001d0: 00e4 10b8 002b 92ba 8ed6 8ebb 523d 17bc
000001e0: 06ae 8fbc 947b a1bc 11d5 67bc ad6a 8cbc
000001f0: 60f9 57bc 603a 7aba 2820 aa3b 84aa fc3c
00000200: 2c17 043d 02cc a33c de18 2b3c 96b5 0a3c
00000210: 2023 803b 3076 31ba 88b9 443b 7847 513b
00000220: 2084 b73a 0000 0000 0000 0000 0000 0000
00000230: 0000 0000 0000 0000 0000 0000 0050 2ab7
00000240: 0053 8cb9 c097 83bb 7b60 1dbc 245d a0bc
00000250: 2532 8bbc 5d48 87bc 8a32 7abc f5ec 3ebc
00000260: c62a 873a f240 dd3c 19cf 1e3d 03d4 2f3d
00000270: 8c7f 623d f703 873d 4629 4e3d d282 893c
00000280: e452 bfba 00f2 a03a 58af 903b 4813 7e3b
00000290: e806 b33b 0078 06b8 0000 0000 0000 0000
000002a0: 0000 0000 0000 0000 00ee 1fb9 0044 aeb9
000002b0: 50bd 29bb e020 eebb acd4 6fbc 5366 a4bc
000002c0: 0ea8 8bbc 364c b7bc 38cc 11bc f0b0 793b
000002d0: 8bb9 ac3c 1044 0f3d fef1 433d 2479 4f3d
000002e0: 4d0f 8c3d 66d7 993d 2e5b 9b3d f511 233d
000002f0: 6c47 ba3c 8bd1 993c 5cb9 773c 5022 be3a
00000300: 003f ef39 6018 02ba 8069 a9b8 0000 0000
00000310: 0000 0000 0000 0000 a096 b1ba d819 4bbb
00000320: a234 08bc b43f 94bc 4271 c3bc f8ce f1bc
00000330: 1275 0bbd bfb0 b9bc 7813 d5bb 1c68 883c
00000340: b619 073d 1063 313d 86cd 413d 22e5 6d3d
00000350: 2447 783d 6f59 7f3d d2be 753d 36c4 5e3d
00000360: 688f ad3c 9f42 813c db72 dd3c 6d1e 833c
00000370: 08c8 103b 0c17 2a3b 0028 78b8 0000 0000
00000380: 0000 0000 0000 0000 4032 85ba a010 5cbb
00000390: 5a40 71bc 6f13 cbbc 2e0e 0cbd 46d8 06bd
000003a0: d6da 1fbd 4849 e2bc a0d6 aa3a 19d0 943c
000003b0: 50cf 133d 6942 1d3d 3a0c e63c 1835 0d3d
000003c0: 8fdf 103d f404 193d dc35 683d 61ba 833d
000003d0: 575c 313d 24e7 ac3c b565 d53c 4cd6 a73c
000003e0: 0cdd 603b 6025 b539 0000 0000 0000 0000
000003f0: 0000 0000 0000 0000 40e3 b1ba 7f68 85bb

fc.bias f4 [10]
0.029642023 0.031562395 0.07342795 -0.046122942 -0.009446523 -0.06034829 -0.04344164 0.08581003
-0.028269295 -0.032813635
00000000: d4d3 f23c 9247 013d 6561 963d 69eb 3cbd
00000010: 97c5 1abc c52f 77bd dcef 31bd 2bbd af3d
00000020: 0295 e7bc 9767 06bd
