runs/benign/20250813-224933/updates/round_5_node_7_delta.pt (torch, 33357 bytes, 2 tensors)

fc.weight f4 [10, 784]
000000 00 00 00 00 00 00 00 00 00 00 00 00 00 00 00 00
       0.0 0.0 0.0 0.0
000010 00 00 00 00 00 00 00 00 00 00 00 00 00 00 00 00
       0.0 0.0 0.0 0.0
000020 00 00 00 00 00 00 00 00 00 00 00 00 00 00 00 00
       0.0 0.0 0.0 0.0
000030 00 00 00 00 00 00 00 00 00 00 00 00 00 00 00 00
       0.0 0.0 0.0 0.0
000040 00 00 00 00 00 00 00 00 00 00 00 00 00 00 00 00
       0.0 0.0 0.0 0.0
000050 00 00 00 00 00 00 00 00 00 00 00 00 00 00 00 00
       0.0 0.0 0.0 0.0
000060 00 00 00 00 00 00 00 00 00 00 00 00 00 00 00 00
       0.0 0.0 0.0 0.0
000070 00 00 00 00 00 00 00 00 00 00 00 00 00 00 00 00
       0.0 0.0 0.0 0.0
000080 00 00 00 00 00 00 00 00 00 00 6e b3 00 00 a8 b3
       0.0 0.0 -5.5413693e-08 -7.8231096e-08
000090 00 80 08 b5 00 90 51 b6 00 a0 bb b6 00 c0 7a b6
       -5.085021e-07 -3.1227246e-06 -5.5916607e-06 -3.7364662e-06
0000a0 00 30 6b b5 00 00 92 b6 00 80 c2 b6 00 18 65 b7
       -8.761417e-07 -4.351139e-06 -5.7965517e-06 -1.3655052e-05
0000b0 ec 80 8a b7 00 70 4a b7 00 58 32 b7 00 28 08 b7
       -1.6510916e-05 -1.2066215e-05 -1.0630116e-05 -8.115545e-06
0000c0 00 40 85 b6 00 80 88 b5 00 00 00 00 00 00 00 00
       -3.9711595e-06 -1.0170043e-06 0.0 0.0
0000d0 00 00 00 00 00 00 00 00 00 00 00 00 00 00 00 00
       0.0 0.0 0.0 0.0
0000e0 00 00 00 00 00 00 00 00 00 00 00 00 00 00 7c b6
       0.0 0.0 0.0 -3.7550926e-06
0000f0 00 00 00 b1 00 80 8b b5 00 b8 c0 b6 00 42 22 b7
       -1.8626451e-09 -1.039356e-06 -5.7434663e-06 -9.671319e-06
000100 00 94 2d b8 80 7c 20 b9 00 43 08 b9 00 3a 9a b9
       -4.138425e-05 -0.00015305169 -0.0001299493 -0.00029416382
000110 80 03 e9 b9 e0 4d 89 b9 40 fe b8 b9 30 f5 11 ba
       -0.0004444383 -0.00026188698 -0.00035284646 -0.0005567847
000120 a0 b6 1f ba c0 db d0 b9 f0 fc a0 b9 80 22 a2 b9
       -0.0006092582 -0.00039836578 -0.0003070603 -0.00030924752
000130 00 eb 91 b9 c0 75 20 b9 c0 9d 9a b8 00 bc ec b7
       -0.00027831644 -0.00015302654 -7.3726755e-05 -2.8220937e-05
000140 00 40 ed b5 00 80 94 b3 00 00 00 00 00 00 00 00
       -1.7676502e-06 -6.91507e-08 0.0 0.0
000150 00 00 00 00 00 00 00 00 00 00 00 b1 00 25 fa b7
       0.0 0.0 -1.8626451e-09 -2.9819552e-05
000160 00 90 d9 b7 00 c8 6e b7 00 90 c9 b7 00 e5 31 b9
       -2.5935471e-05 -1.4232472e-05 -2.4028122e-05 -0.00016965345
000170 e0 3b a6 b9 60 79 1c ba e8 4a 72 ba a0 0e c5 ba
       -0.00031706598 -0.0005969014 -0.0009242729 -0.0015034266
000180 a0 c1 00 bb 30 0d 17 bb 38 38 3c bb b0 85 46 bb
       -0.001964666 -0.0023048632 -0.0028720032 -0.0030292086
000190 40 02 2a bb 30 bd 3b bb 30 f0 5a bb d0 6c 38 bb
       -0.0025941283 -0.00286467 -0.0033407323 -0.002814103
0001a0 c0 ee cf ba 98 62 98 ba 68 d8 35 ba 40 31 a8 b9
       -0.0015864 -0.0011626063 -0.0006936849 -0.0003208015
0001b0 80 64 2b b9 00 3c eb b7 00 80 ba b4 00 00 00 00
       -0.0001634527 -2.8042123e-05 -3.4738332e-07 0.0
0001c0 00 00 00 00 00 00 9a b1 00 60 66 b5 00 48 aa b5
       0.0 -4.48199e-09 -8.5821375e-07 -1.2686942e-06
0001d0 00 a0 40 b7 00 0e cd b8 70 66 c9 b9 98 b0 9b ba
       -1.1481345e-05 -9.7777694e-05 -0.0003841403 -0.001187819
0001e0 d0 4b d4 ba 30 44 22 bb 78 11 86 bb 40 b1 b9 bb
       -0.001619691 -0.0024759881 -0.004091438 -0.005666882
0001f0 c2 27 08 bc bf 9c 1f bc 20 5b 2f bc 04 42 49 bc
       -0.00831026 -0.009741961 -0.010702878 -0.012283806
000200 09 ba 3a bc 5c c7 18 bc 98 9a f1 bb c4 91 c7 bb
       -0.011396893 -0.009324875 -0.0073731653 -0.0060903747
000210 b0 9b 86 bb 20 5f 41 bb c0 35 d8 ba c0 ba 45 ba
       -0.004107915 -0.0029506162 -0.0016495511 -0.00075427815
000220 b8 c9 b9 b9 40 b0 3d b8 00 00 50 b3 00 00 00 00
       -0.00035436242 -4.5225257e-05 -4.8428774e-08 0.0
000230 00 00 00 00 00 00 00 00 00 00 f5 b4 00 10 89 b7
       0.0 0.0 -4.5634806e-07 -1.6339123e-05
000240 00 f1 b2 b8 80 ce da b9 00 bc c2 ba 74 da 11 bb
       -8.532591e-05 -0.00041734055 -0.0014857054 -0.0022255452
000250 80 df 60 bb 40 8c 9c bb 98 be e4 bb e4 46 1e bc
       -0.0034312904 -0.0047774613 -0.0069807284 -0.009660456
000260 da 89 61 bc 68 7b 85 bc e0 cd b3 bc a0 6f e7 bc
       -0.0137657765 -0.016294196 -0.021948755 -0.02825147
000270 90 0a e2 bc 5e d9 d9 bc 62 b0 b8 bc 28 02 71 bc
       -0.027592927 -0.026592907 -0.022545043 -0.014709987
000280 aa 18 05 bc d8 78 82 bb 70 58 17 bb 40 c3 90 ba
       -0.008123556 -0.003981691 -0.0023093484 -0.0011044517
000290 00 6e d6 b9 00 04 b6 b8 00 48 cc b7 00 00 00 00
       -0.00040899217 -8.679181e-05 -2.4352223e-05 0.0
0002a0 00 00 00 00 00 00 00 00 00 6c 12 b7 00 b6 c1 b8
       0.0 0.0 -8.727424e-06 -9.236857e-05
0002b0 40 11 90 b9 58 49 94 ba c0 7b 2d bb 50 8f 4d bb
       -0.00027478673 -0.0011313362 -0.0026471466 -0.0031365938
0002c0 38 d8 92 bb 88 7a e4 bb bc 81 1e bc df f6 6e bc
       -0.0044813417 -0.0069726147 -0.009674486 -0.014585226
0002d0 e3 81 97 bc 00 32 d4 bc 78 13 08 bd 36 ff 21 bd
       -0.018494552 -0.025902748 -0.03322169 -0.03955003
0002e0 d2 15 25 bd 96 8d 19 bd 7a a1 04 bd ac 17 db bc
       -0.040304013 -0.037488542 -0.03238056 -0.026744686
0002f0 96 b0 9b bc 44 09 16 bc 14 37 90 bb 30 ff 06 bb
       -0.019005101 -0.009157483 -0.004401097 -0.002059888
000300 80 19 70 ba 80 2a fe b9 e0 6c 04 b9 00 00 00 00
       -0.0009159073 -0.0004847832 -0.0001262906 0.0
000310 00 00 00 00 00 00 36 b5 d8 98 0a b9 40 aa a3 b9
       0.0 -6.7800283e-07 -0.00013217644 -0.0003121663
000320 f8 20 73 ba ec d6 de ba 90 49 44 bb 38 69 89 bb
       -0.0009274627 -0.0017001308 -0.0029951073 -0.0041934513
000330 d8 f9 ec bb 30 f0 30 bc 3d 78 81 bc bb 64 b9 bc
       -0.007231932 -0.010799453 -0.015804404 -0.02263104
000340 ae 12 f7 bc 05 b6 0b bd 76 82 14 bd a6 2d 10 bd
       -0.030160274 -0.034109134 -0.03625723 -0.035199784
000350 f2 3c 0d bd a8 34 07 bd f0 1d fe bc c0 c3 ee bc
       -0.03448195 -0.0330092 -0.031020135 -0.029146075
000360 9a 69 cc bc a6 fb 84 bc 74 65 02 bc f8 53 81 bb
       -0.024952698 -0.016233277 -0.007958759 -0.0039467774
000370 80 7e 9c ba 80 d7 8a b9 80 cb 59 b8 00 00 00 00
       -0.0011939555 -0.0002648197 -5.1926356e-05 0.0
000380 00 00 00 00 00 00 c0 b1 00 5a b6 b8 38 43 fc b9
       0.0 -5.5879354e-09 -8.6952e-05 -0.00048115267
000390 00 4b a5 ba e0 db f2 ba 60 7c 67 bb e0 8e ed bb
       -0.0012610853 -0.0018528663 -0.0035321936 -0.007249698
0003a0 a0 db 3b bc 4a 32 87 bc 38 d1 ce bc 82 39 02 bd
       -0.011465937 -0.016503472 -0.025246248 -0.031793125
0003b0 57 bb 06 bd 68 60 02 bd 65 43 f3 bc 88 49 d2 bc
       -0.032893505 -0.03183022 -0.029695222 -0.025669828
0003c0 3c 17 d5 bc 18 de dd bc f0 4b df bc 84 93 dd bc
       -0.026012056 -0.027083442 -0.02725789 -0.02704788
0003d0 dc 42 d6 bc a4 97 a4 bc fc a7 54 bc b8 38 a9 bb
       -0.026154928 -0.02009184 -0.012979504 -0.005164232
0003e0 60 f5 a9 ba c0 ce c6 b9 00 79 a6 b8 00 00 86 b5
       -0.0012966804 -0.00037919544 -7.938035e-05 -9.983778e-07
0003f0 00 00 00 00 00 00 1d b5 00 e8 81 b7 e0 d5 01 ba
       0.0 -5.848706e-07 -1.5486032e-05 -0.00049528293

fc.bias f4 [10]
000000 44 1d 93 bd 00 4c a2 3a 89 8d 33 3d a0 35 f6 3c
       -0.07183316 0.0012382269 0.04383615 0.030054867
000010 0a 70 61 bd e0 05 2a bd cd da 51 3d 60 69 90 bc
       -0.05503849 -0.04150951 0.051234055 -0.017628372
000020 e0 79 d7 bd 62 d1 28 3e
       -0.10521293 0.16486123
