runs/benign/20250813-224933/updates/round_2_node_8_delta.pt (torch, 33357 bytes, 2 tensors)

fc.weight f4 [10, 784]
0	0x00000000	0.0
1	0x00000000	0.0
2	0x00000000	0.0
3	0x00000000	0.0
4	0x00000000	0.0
5	0x00000000	0.0
6	0x00000000	0.0
7	0x00000000	0.0
8	0x00000000	0.0
9	0x00000000	0.0
10	0x00000000	0.0
11	0x00000000	0.0
12	0x00000000	0.0
13	0x00000000	0.0
14	0x00000000	0.0
15	0x00000000	0.0
16	0x00000000	0.0
17	0x00000000	0.0
18	0x00000000	0.0
19	0x00000000	0.0
20	0x00000000	0.0
21	0x00000000	0.0
22	0x00000000	0.0
23	0x00000000	0.0
24	0x00000000	0.0
25	0x00000000	0.0
26	0x00000000	0.0
27	0x00000000	0.0
28	0x00000000	0.0
29	0x00000000	0.0
30	0x00000000	0.0
31	0x00000000	0.0
32	0x00000000	0.0
33	0x00000000	0.0
34	0xb715e200	-8.933712e-06
35	0xb770b000	-1.4346093e-05
36	0xb5c7c000	-1.4882535e-06
37	0x00000000	0.0
38	0xb4d48000	-3.958121e-07
39	0xb5038000	-4.898757e-07
40	0xb847ea40	-4.766346e-05
41	0xb8243000	-3.914535e-05
42	0xb96dccc0	-0.00022678357
43	0xb68a0000	-4.1127205e-06
44	0xb7ae6bc0	-2.0792591e-05
45	0xb7b4f400	-2.1571293e-05
46	0xb6e1c000	-6.7278743e-06
47	0xb49a0000	-2.8684735e-07
48	0x00000000	0.0
49	0x00000000	0.0
50	0x00000000	0.0
51	0x00000000	0.0
52	0x00000000	0.0
53	0x00000000	0.0
54	0x00000000	0.0
55	0x00000000	0.0
56	0x00000000	0.0
57	0x00000000	0.0
58	0x00000000	0.0
59	0x00000000	0.0
60	0x00000000	0.0
61	0x00000000	0.0
62	0xb74d7c00	-1.2247823e-05
63	0xb7903140	-1.7189072e-05
64	0xb73ed000	-1.1373311e-05
65	0xb66ee000	-3.5595149e-06
66	0xb72b4000	-1.0207295e-05
67	0xb89e9500	-7.5617805e-05
68	0xb9318b00	-0.00016931817
69	0xb9ae7d00	-0.00033280998
70	0xb9f00d80	-0.00045786425
71	0xb9af1100	-0.00033391267
72	0xb9f20e40	-0.00046168454
73	0xb92f4d80	-0.00016718172
74	0xb7e7e600	-2.7644448e-05
75	0xb7bf3c00	-2.2796914e-05
76	0xb7d7f000	-2.5741756e-05
77	0xb7aa2c00	-2.0286068e-05
78	0xb7965500	-1.7920975e-05
79	0xb623a000	-2.4382025e-06
80	0x00000000	0.0
81	0x00000000	0.0
82	0x00000000	0.0
83	0x00000000	0.0
84	0x00000000	0.0
85	0x00000000	0.0
86	0x00000000	0.0
87	0x00000000	0.0
88	0x00000000	0.0
89	0x00000000	0.0
90	0xb7900000	-1.7166138e-05
91	0xb7a97800	-2.020225e-05
92	0xb87b2100	-5.9873797e-05
93	0xb964a140	-0.00021803845
94	0xb9be2844	-0.00036269624
95	0xba0e5ee8	-0.0005431012
96	0xba2e9e20	-0.00066611357
97	0xba8bffb0	-0.0010681059
98	0xba69aed0	-0.0008914294
99	0x3a29ebc8	0.00064819725
100	0xb9fb0fe0	-0.00047886278
101	0xba973bc0	-0.0011538193
102	0x3b306810	0.0026917495
103	0x3b2ec5e0	0.0026668236
104	0x3a1477e0	0.0005663615
105	0xb9ec4b48	-0.00045069517
106	0xb9fd0620	-0.00048260484
107	0xb77f2000	-1.5206635e-05
108	0xb57dc000	-9.452924e-07
109	0x00000000	0.0
110	0x00000000	0.0
111	0x00000000	0.0
112	0x00000000	0.0
113	0x00000000	0.0
114	0x00000000	0.0
115	0x00000000	0.0
116	0xb5ee8000	-1.7769635e-06
117	0xb6c23800	-5.78817e-06
118	0xb8130000	-3.504753e-05
119	0xb88fe480	-6.861333e-05
120	0xb9cbff5c	-0.00038909435
121	0xba8fb660	-0.0010964386
122	0xba129c80	-0.00055927783
123	0xba22e3e0	-0.00062137656
124	0x39f02000	0.0004580021
125	0x3b8034f6	0.0039125634
126	0x3bf09074	0.007341439
127	0x3b3b4170	0.002857294
128	0x3b867472	0.004103237
129	0x3ba69874	0.005084092
130	0x3b4b9170	0.003106203
131	0x3a7fb140	0.00097538903
132	0xbb6b0f80	-0.0035867393
133	0xbb6bb2f0	-0.003596481
134	0xbb2cff20	-0.0026397184
135	0xbac99aa0	-0.0015381165
136	0xb9ee4ac0	-0.0004545059
137	0xb8c0be14	-9.190678e-05
138	0xb7eec000	-2.8461218e-05
139	0xb736bc00	-1.08918175e-05
140	0x00000000	0.0
141	0x00000000	0.0
142	0xb5008000	-4.786998e-07
143	0xb7456000	-1.1764467e-05
144	0xb7ea2600	-2.7912669e-05
145	0xb7a4bc00	-1.9637868e-05
146	0xb8ecb400	-0.000112868845
147	0xba07f616	-0.0005186511
148	0xbb0b7ec0	-0.0021285266
149	0xba750300	-0.00093464553
150	0x3af22f80	0.0018477291
151	0x3b139f74	0.0022525461
152	0x3ba04daf	0.004892073
153	0x3c3baabc	0.0114542805
154	0x3c931638	0.01795493
155	0x3ca2a118	0.019852206
156	0x3c656c0c	0.014002811
157	0x3c2797b0	0.010229036
158	0x3c3796ec	0.011205416
159	0x3b96ae00	0.004598379
160	0xbb3586c0	-0.0027698725
161	0xbb057b70	-0.0020367764
162	0xbb7d35c4	-0.0038636783
163	0xbb08295c	-0.0020776605
164	0xba496700	-0.00076828897
165	0xb98b7940	-0.00026602484
166	0xb8a95200	-8.073822e-05
167	0xb753f000	-1.2632459e-05
168	0x00000000	0.0
169	0x00000000	0.0
170	0xb6adf800	-5.184673e-06
171	0xb8966900	-7.172115e-05
172	0xb8fe6620	-0.00012130686
173	0xb932c300	-0.00017048046
174	0xb9dea900	-0.00042469054
175	0xbb098a00	-0.0020986795
176	0xbb4f7d88	-0.0031660516
177	0x3a2257e0	0.0006192904
178	0xbaed503c	-0.0018105577
179	0x3b83fe7c	0.0040281396
180	0x3c21f11b	0.009884144
181	0x3c8e9e48	0.017409459
182	0x3c8a2880	0.016865015
183	0x3c5c248c	0.013436448
184	0x3c716850	0.014734343
185	0x3c7d9038	0.015476279
186	0x3c63e1a8	0.013908781
187	0x3c18ead0	0.009333327
188	0x3aa8a770	0.0012867283
189	0xbb011e3c	-0.001970186
190	0xbbda28f0	-0.006657712
191	0xbb7efd68	-0.0038908366
192	0xba9eb060	-0.0012107007
193	0xb9f1d880	-0.00046128407
194	0xb87ba800	-5.9999526e-05
195	0xb738fe00	-1.1026394e-05
196	0xb1c00000	-5.5879354e-09
197	0xb5c14000	-1.4398247e-06
198	0xb7d0cc00	-2.4890527e-05
199	0xb8fea500	-0.000121423975
200	0xb99d63a0	-0.000300196
201	0xba268e5c	-0.00063536107
202	0xbaf0fca8	-0.0018385844
203	0xbba994f0	-0.0051752254
204	0x39d4cd40	0.00040588714
205	0xba9b2a00	-0.0011838078
206	0x39c00200	0.00036622584
207	0x3c173b38	0.009230427
208	0x3c662338	0.014046483
209	0x3c57a60f	0.01316215
210	0x3baea400	0.005329609
211	0x3a93b880	0.0011270195
212	0x3a912b80	0.0011075586
213	0x3bcd3cd0	0.006263353
214	0x3c102fe0	0.008800477
215	0x3c6a4a78	0.014299981
216	0x3c0aa064	0.008461092
217	0xbb504080	-0.0031776726
218	0xbb9d62de	-0.0048030457
219	0xbbaff638	-0.0053699277
220	0xbb055650	-0.0020345636
221	0xba64d100	-0.0008728653
222	0xb9902b94	-0.0002749829
223	0xb7cae800	-2.418831e-05
224	0xb2e00000	-2.6077032e-08
225	0xb6b5c000	-5.416572e-06
226	0xb906d280	-0.00012857653
227	0xb9e524b8	-0.0004370564
228	0xba956980	-0.0011399239
229	0xbb2ff370	-0.002684798
230	0xbbb46d74	-0.005506212
231	0xbbace058	-0.0052757673
232	0x3b034ae0	0.0020033643
233	0xb939fc00	-0.00017736852
234	0x3bd8414e	0.006599582
235	0x3bfcd3dc	0.0077156853
236	0x3c34333a	0.0109985415
237	0x3ab7afe0	0.0014014207
238	0xbb767f9c	-0.0037612682
239	0xbc07dc2c	-0.008292239
240	0xbc42c408	-0.011887558
241	0xbc6eac08	-0.014567383
242	0xbbc19918	-0.005908143
243	0x3bfe6160	0.007763073
244	0x3c3282d0	0.010895446
245	0x3b3c3250	0.0028716512
246	0xbbbae77d	-0.005703865
247	0xbbc80b70	-0.006104879
248	0xbb51fbd0	-0.003204096
249	0xbaa51f10	-0.0012597758
250	0xb99d6cc0	-0.000300264
251	0xb821c600	-3.8569793e-05
252	0xb6817000	-3.857538e-06
253	0xb7f6a800	-2.9403716e-05
254	0xb96c4080	-0.00022530742
255	0xba7d5200	-0.0009663403

fc.bias f4 [10]
0	0xbd143b88	-0.036189586
1	0x3e073fda	0.13207951
2	0xbdc0e222	-0.094181314
3	0xbd87ed73	-0.06637087
4	0xbd058fb0	-0.032607734
5	0x3d99dd30	0.07512891
6	0xbc8661d4	-0.01640407
7	0x3e9202ea	0.28517848
8	0xbe14766c	-0.144983
9	0xbdd02e14	-0.10165039
