runs/benign/20250813-224933/updates/round_2_node_5_delta.pt (torch, 33357 bytes, 2 tensors)

fc.weight f4 [10, 784]
0	0x00000000	0.0
1	0x00000000	0.0
2	0x00000000	0.0
3	0x00000000	0.0
4	0x00000000	0.0
5	0x00000000	0.0
6	0x00000000	0.0
7	0x00000000	0.0
8	0x00000000	0.0
9	0x00000000	0.0
10	0x00000000	0.0
11	0x00000000	0.0
12	0xb386a000	-6.268965e-08
13	0xb5b58000	-1.3522804e-06
14	0xb5b5a000	-1.3532117e-06
15	0xb3700000	-5.5879354e-08
16	0x00000000	0.0
17	0x00000000	0.0
18	0x00000000	0.0
19	0x00000000	0.0
20	0x00000000	0.0
21	0x00000000	0.0
22	0x00000000	0.0
23	0x00000000	0.0
24	0x00000000	0.0
25	0x00000000	0.0
26	0x00000000	0.0
27	0x00000000	0.0
28	0x00000000	0.0
29	0x00000000	0.0
30	0x00000000	0.0
31	0x00000000	0.0
32	0x00000000	0.0
33	0x00000000	0.0
34	0x00000000	0.0
35	0x00000000	0.0
36	0x00000000	0.0
37	0xb4cb0000	-3.7811697e-07
38	0xb544c000	-7.3295087e-07
39	0xb58a8000	-1.0319054e-06
40	0xb505f000	-4.9895607e-07
41	0xb6684000	-3.4607947e-06
42	0xb782e400	-1.5603378e-05
43	0xb7946000	-1.7687678e-05
44	0xb8172d00	-3.6043115e-05
45	0xb75e4000	-1.3247132e-05
46	0xb61f2000	-2.3711473e-06
47	0x00000000	0.0
48	0x00000000	0.0
49	0x00000000	0.0
50	0x00000000	0.0
51	0x00000000	0.0
52	0x00000000	0.0
53	0x00000000	0.0
54	0x00000000	0.0
55	0x00000000	0.0
56	0x00000000	0.0
57	0x00000000	0.0
58	0x00000000	0.0
59	0x00000000	0.0
60	0x00000000	0.0
61	0x00000000	0.0
62	0xb4f30000	-4.5262277e-07
63	0xb693f600	-4.4095796e-06
64	0xb7ebc800	-2.8107315e-05
65	0xb90a1880	-0.00013169833
66	0xb925c800	-0.00015810132
67	0xb9698b80	-0.0002227258
68	0xb9925080	-0.00027907267
69	0xb9e22680	-0.00043134764
70	0xba0c27c0	-0.00053464994
71	0xba428700	-0.0007420629
72	0xba215980	-0.0006154999
73	0xb9702300	-0.00022901222
74	0xb93a8a58	-0.0001778988
75	0xb83ffc00	-4.5772642e-05
76	0xb8850200	-6.342307e-05
77	0xb8978340	-7.224688e-05
78	0xb73b3a00	-1.1159573e-05
79	0xb58f0000	-1.065433e-06
80	0xb617e000	-2.2631139e-06
81	0xb5a27000	-1.2102537e-06
82	0x00000000	0.0
83	0x00000000	0.0
84	0x00000000	0.0
85	0x00000000	0.0
86	0x00000000	0.0
87	0xb31c0000	-3.632158e-08
88	0xb63e2000	-2.8330833e-06
89	0xb8780400	-5.9131533e-05
90	0xb910a500	-0.00013794377
91	0xb9c45800	-0.00037449598
92	0xba12e160	-0.00056030415
93	0xbaac32c0	-0.0013137683
94	0xbadd1b37	-0.0016869073
95	0xbaef8f7c	-0.0018277015
96	0xbb27fd20	-0.0025633052
97	0xbb5a20d0	-0.0033283718
98	0xbb85b482	-0.004080356
99	0xbb95fa80	-0.004576981
100	0xbb993b44	-0.0046762545
101	0xbb86e208	-0.0041163005
102	0xba48ca60	-0.0007659551
103	0xb8d43800	-0.000101193786
104	0xbb26a558	-0.0025428142
105	0xbb20953c	-0.0024503013
106	0xb90cc700	-0.00013425574
107	0xb7e62000	-2.7433038e-05
108	0xb606b000	-2.0070001e-06
109	0xb5a16000	-1.2023374e-06
110	0x00000000	0.0
111	0x00000000	0.0
112	0x00000000	0.0
113	0x00000000	0.0
114	0xb36e0000	-5.5413693e-08
115	0xb7025300	-7.767929e-06
116	0xb8b61900	-8.683093e-05
117	0xb9562a40	-0.0002042437
118	0xb9ec81c0	-0.000451101
119	0xba88f0e4	-0.0010447768
120	0xbb1ee564	-0.0024245614
121	0xbb92ee48	-0.0044839717
122	0xbbc0a058	-0.0058784895
123	0xbbdd1d46	-0.0067478744
124	0xbba182d0	-0.004928924
125	0xbbbc8b04	-0.0057538766
126	0xbbb2c2e0	-0.00545536
127	0xbb82a3d8	-0.003986817
128	0x3b05042f	0.0020296683
129	0x3b4210f0	0.0029612146
130	0x3bba3270	0.005682282
131	0x3c20161c	0.009770896
132	0x3b3245f0	0.002720233
133	0xbb029dd0	-0.001993049
134	0xb96e8900	-0.00022748485
135	0xb9cb4c00	-0.00038775802
136	0xb8380480	-4.387321e-05
137	0xb5a17900	-1.203065e-06
138	0x00000000	0.0
139	0x00000000	0.0
140	0x00000000	0.0
141	0x00000000	0.0
142	0xb76cc800	-1.4113262e-05
143	0xb8872600	-6.44438e-05
144	0xb965b680	-0.00021907128
145	0xba1b70c0	-0.0005929582
146	0xba992b40	-0.0011685863
147	0xbb52fb6e	-0.003219332
148	0xbb99bca8	-0.004691679
149	0xbbd7fa28	-0.0065911002
150	0xbbb85d70	-0.005626373
151	0xbba0c34e	-0.0049060946
152	0xba8ee328	-0.0010901438
153	0xbabc5d40	-0.0014371052
154	0x3b3dfe20	0.0028990582
155	0x3c440138	0.011963181
156	0x3bbdd338	0.0057930015
157	0xb84b3800	-4.8451126e-05
158	0x3b631ab0	0.0034653358
159	0x3c1c3408	0.00953389
160	0x3b86d010	0.0041141585
161	0xbb464590	-0.0030253865
162	0xbaac3dc8	-0.0013140971
163	0x3a1ec324	0.00060563
164	0xb98b9580	-0.00026623532
165	0xb92e3900	-0.00016615167
166	0xb83a2300	-4.4378452e-05
167	0x00000000	0.0
168	0x00000000	0.0
169	0x00000000	0.0
170	0xb7829c00	-1.556985e-05
171	0xb8d9b800	-0.00010381639
172	0xba60c158	-0.00085737323
173	0xbae82608	-0.001771153
174	0xbb2d9098	-0.002648389
175	0xbb91bd00	-0.0044475794
176	0xbbdd649c	-0.0067563783
177	0xbc01ed5f	-0.007930129
178	0xbb9592c2	-0.004564614
179	0x3b08f010	0.0020895042
180	0x3bd1d109	0.0064030928
181	0x3bd78ea0	0.0065782815
182	0x3c41f9e8	0.011839367
183	0x3c7edea8	0.015556015
184	0x3c4ab920	0.012373239
185	0x3c1c0e08	0.00952483
186	0x3c6812e0	0.014164656
187	0x3c5e9108	0.013584383
188	0x3c4a112e	0.0123331975
189	0x3bc5830a	0.006027584
190	0xb9a98080	-0.00032329932
191	0x3a8f51a0	0.001093436
192	0xba1d8d40	-0.00060101226
193	0xb98cea80	-0.00026877597
194	0xb88b5000	-6.642938e-05
195	0xb5cc1000	-1.5203841e-06
196	0x00000000	0.0
197	0x00000000	0.0
198	0xb7b27480	-2.1273503e-05
199	0xb91adc00	-0.00014768541
200	0xba687300	-0.0008867234
201	0xbb10297d	-0.0021997385
202	0xbba6e7b2	-0.005093538
203	0xbc04bc82	-0.008101584
204	0xbc1c236c	-0.00952993
205	0xbbb0c8b8	-0.0053950213
206	0x3b892698	0.004185509
207	0x3c140db8	0.009036474
208	0x3c0f0720	0.008729726
209	0x3bdde23c	0.006771354
210	0x3c5a6d18	0.013331674
211	0x3c80f988	0.015743986
212	0x3ccb352c	0.024805628
213	0x3cb5fd48	0.0222155
214	0x3cd53c68	0.02602978
215	0x3ce743f8	0.028230652
216	0x3c8444e0	0.016146123
217	0x3c207da0	0.009795576
218	0xb637e000	-2.739951e-06
219	0xb986c980	-0.000257086
220	0xba83af20	-0.0010046698
221	0xba08e240	-0.0005221702
222	0xb7a3f4c0	-1.9545085e-05
223	0xb42e0000	-1.6205013e-07
224	0x00000000	0.0
225	0xb7176000	-9.022653e-06
226	0xb8396600	-4.4202432e-05
227	0xba2ed704	-0.0006669613
228	0xbac82860	-0.0015270822
229	0xbb834188	-0.0040056147
230	0xbc02b91a	-0.007978702
231	0xbc03a352	-0.008034544
232	0xb9f94500	-0.0004754439
233	0x3bb14118	0.005409371
234	0x3c233483	0.00996125
235	0x3c5b41ae	0.0133823585
236	0x3c2987bc	0.010347303
237	0x3c387374	0.011257995
238	0x3c868018	0.016418502
239	0x3c5e418c	0.013565432
240	0x3c1c54c0	0.00954169
241	0x3c7c5700	0.015401602
242	0x3c8d3b76	0.017240267
243	0x3cf782e8	0.030213788
244	0x3d01c0d6	0.031678043
245	0x3c5359d6	0.0128998365
246	0x3bd454b1	0.0064798226
247	0xb9ee2c40	-0.00045427866
248	0xba95b5a0	-0.0011421926
249	0xba448790	-0.0007497007
250	0xb6df4000	-6.6533685e-06
251	0x00000000	0.0
252	0x00000000	0.0
253	0xb70d2000	-8.4117055e-06
254	0xb8d55000	-0.000101715326
255	0xba4a15c0	-0.00077089295

fc.bias f4 [10]
0	0xbc601f08	-0.013679273
1	0xbcef1938	-0.02918683
2	0x3e82dfc1	0.25561336
3	0xbd2790ba	-0.040909506
4	0xbd40ee91	-0.047102515
5	0xbd0c0488	-0.03418401
6	0xbd5e99ba	-0.054345824
7	0x3dd79d82	0.10528089
8	0xbdab4148	-0.08362061
9	0xbd6d0425	-0.05786528
