runs/benign/20250813-224933/updates/round_1_node_8_delta.pt (torch, 33357 bytes, 2 tensors)

fc.weight f4 [10, 784]
00000000: 0000 0000 0000 0000 0000 0000 0000 0000
00000010: 0000 0000 0000 0000 0000 0000 0000 0000
00000020: 0000 0000 0000 0000 0000 0000 0000 0000
00000030: 0000 0000 0000 0000 0000 0000 0000 0000
00000040: 0000 0000 0000 0000 0000 0000 0000 0000
00000050: 0000 0000 0000 0000 0000 0000 0000 0000
00000060: 0000 0000 0000 0000 0000 0000 0000 0000
00000070: 0000 0000 0000 0000 0000 0000 0000 0000
00000080: 0000 0000 0000 0000 0066 a5b7 00cc 04b8
00000090: 00a0 5cb6 0000 0000 0060 ffb5 00e0 1eb6
000000a0: a093 80b8 0082 20b8 4010 65b9 0068 69b7
000000b0: c08d 33b8 008e 43b8 00f8 98b7 0000 52b5
000000c0: 0000 0000 0000 0000 0000 0000 0000 0000
000000d0: 0000 0000 0000 0000 0000 0000 0000 0000
000000e0: 0000 0000 0000 0000 0000 0000 0000 0000
000000f0: 0000 0000 0000 0000 00ca e2b7 4021 1fb8
00000100: 0078 d2b7 00f0 4cb7 00d0 00b8 00f6 0eb9
00000110: 80ee 8fb9 c04c dfb9 00e1 1aba a0a2 07ba
00000120: a018 03ba 80d1 6ab9 633c 84b8 003c 38b8
00000130: 0092 2bb8 0028 f4b7 005d d7b7 0080 6ab6
00000140: 0000 0000 0000 0000 0000 0000 0000 0000
00000150: 0000 0000 0000 0000 0000 0000 0000 0000
00000160: 0000 0000 0000 0000 00fc 18b8 004c 2fb8
00000170: 8069 bab8 204a 69b9 007e ceb9 e873 3cba
00000180: 90de 8eba 40cb cbba b257 97ba 7c9c df3a
00000190: 00f5 abb8 b0ff cfba 3421 6a3b e4a4 6c3b
000001a0: 20c0 483a b044 f6b9 0087 d9b9 0038 d5b7
000001b0: 0080 ddb5 0000 0000 0000 0000 0000 0000
000001c0: 0000 0000 0000 0000 0000 0000 0000 0000
000001d0: 00b0 6cb6 00ac 33b7 0073 87b8 4039 f3b8
000001e0: 5800 e7b9 b0d8 8aba 0086 7cb9 006b 6cb9
000001f0: 7097 453b 2932 073c 6c72 613c d8e1 dc3b
00000200: 4d1b c83b 70a2 ed3b a490 cb3b 884d 843b
00000210: 90eb 40bb 907f 57bb 6045 12bb e01c 9bba
00000220: e00b d9b9 8062 edb8 0044 4bb8 0069 7fb7
00000230: 0000 0000 0000 0000 0000 a4b5 00a4 97b7
00000240: 000b 3ab8 00de 16b8 00b8 4db9 f8a6 3cba
00000250: 407d 0ebb 00dd 6eb9 4090 433b 4ea5 7a3b
00000260: ecce 163c 26b0 9d3c ea3f e43c 0335 f93c
00000270: fcce b43c aa79 853c 3b02 883c 0ce9 1b3c
00000280: c0d8 e4b9 00b6 8ab9 81f2 7fbb 0c3a 0dbb
00000290: 40f5 83ba 000f c6b9 0061 e7b8 0036 87b7
000002a0: 0000 0000 0000 0000 0092 84b7 00c5 04b9
000002b0: d0bb 54b9 4050 8cb9 40a9 3cba 401d 2dbb
000002c0: 7c97 42bb 7e28 033b 80a9 b7b9 5809 e93b
000002d0: c205 863c 3c30 de3c e33a dd3c d038 b13c
000002e0: 0086 ce3c 92b8 e03c 4c71 ce3c 9825 903c
000002f0: da6b b33b e094 333a d05e d1bb 8462 72bb
00000300: d02d caba 00d7 0dba 004c d7b8 00ae 84b7
00000310: 0000 68b3 0060 6eb6 c08d 98b8 80fa 8ab9
00000320: d0ce 00ba e13f 76ba 8013 1dbb 194d b8bb
00000330: 58e2 b03a 009c 413a d046 a13b 4d28 793c
00000340: 83ea b43c 3f67 bc3c 1c24 573c 4816 123c
00000350: c84b 323c a837 9e3c 9ce4 b73c 921a e63c
00000360: f267 983c e0f4 ad3a 08bc 19bb 3879 abbb
00000370: e05c 21bb 60ac 8dba c03a c0b9 00a4 c2b7
00000380: 0000 7ab4 0054 97b7 80e6 aeb9 3a2a 4aba
00000390: a07b dbba f0cc 4cbb 341e c0bb 1d34 a1bb
000003a0: 587e 7c3b b084 4b3b 9ce8 5a3c 70b7 953c
000003b0: 74a9 a73c e483 013c d035 ba39 70dc 34bb
000003c0: 6ca8 b2bb 9693 04bc 607d a93b 74bc b33c
000003d0: aef4 d93c a48e 583c c0a6 c6ba fe69 bfbb
000003e0: 4089 72bb 249b d6ba c02e cfb9 003a 15b8
000003f0: 0040 d8b6 0074 87b8 a0f8 00ba 60b6 d0ba
0.0 0.0 0.0 0.0 0.0 0.0 0.0 0.0
0.0 0.0 0.0 0.0 0.0 0.0 0.0 0.0
0.0 0.0 0.0 0.0 0.0 0.0 0.0 0.0
0.0 0.0 0.0 0.0 0.0 0.0 0.0 0.0
0.0 0.0 -1.971703e-05 -3.1661242e-05 -3.2875687e-06 0.0 -1.902692e-06 -2.367422e-06
-6.131013e-05 -3.8268045e-05 -0.00021845195 -1.3912097e-05 -4.280894e-05 -4.662387e-05 -1.8235296e-05 -7.8231096e-07
0.0 0.0 0.0 0.0 0.0 0.0 0.0 0.0
0.0 0.0 0.0 0.0 0.0 0.0 -2.7035363e-05 -3.793952e-05
-2.508983e-05 -1.2215227e-05 -3.0711293e-05 -0.00013633817 -0.00027452782 -0.00042591058 -0.00059081614 -0.00051740743
-0.0005000923 -0.00022394024 -6.3054984e-05 -4.3924898e-05 -4.090555e-05 -2.9105693e-05 -2.5673304e-05 -3.4943223e-06
0.0 0.0 0.0 0.0 0.0 0.0 0.0 0.0
0.0 0.0 -3.6474317e-05 -4.1794032e-05 -8.888822e-05 -0.00022248225 -0.0003938526 -0.0007188902
-0.0010900069 -0.0015548244 -0.0011546521 0.0017060186 -8.19955e-05 -0.0015869047 0.0035725357 0.0036109025
0.00076580234 -0.00046971953 -0.00041490048 -2.5417656e-05 -1.6503036e-06 0.0 0.0 0.0
0.0 0.0 0.0 0.0 -3.5269186e-06 -1.0709278e-05 -6.458722e-05 -0.000115978066
-0.0004406001 -0.0010593142 -0.00024082512 -0.00022546574 0.0030150078 0.008251705 0.01376019 0.00674079
0.00610677 0.00725203 0.006212311 0.0040375628 -0.0029437281 -0.003288243 -0.0022319183 -0.0011834167
-0.00041398313 -0.00011319388 -4.84623e-05 -1.5223632e-05 0.0 0.0 -1.2218952e-06 -1.8076971e-05
-4.43561e-05 -3.596954e-05 -0.00019618869 -0.0007196511 -0.0021742135 -0.00022779778 0.0029840618 0.0038245502
0.009204607 0.019249033 0.027862508 0.030420786 0.022071354 0.016293366 0.016602626 0.009516012
-0.0004364904 -0.00026457012 -0.0039054456 -0.0021549491 -0.0010067597 -0.0003777668 -0.00011033006 -1.61184e-05
0.0 0.0 -1.5803613e-05 -0.00012661889 -0.00020287861 -0.00026762672 -0.0007196851 -0.002641514
-0.0029692343 0.002001315 -0.00035030767 0.0071117096 0.016360167 0.02712261 0.027005618 0.021633536
0.02521038 0.02743176 0.025200509 0.017596051 0.0054755034 0.0006850492 -0.0063894764 -0.003698499
-0.001542503 -0.00054107606 -0.00010266155 -1.5816651e-05 -5.401671e-08 -3.5520643e-06 -7.274328e-05 -0.00026508048
-0.000491363 -0.0009393674 -0.0023967922 -0.005624425 0.001349519 0.00073856115 0.0049217716 0.015207362
0.02208448 0.02299845 0.013131168 0.008916445 0.0108823255 0.019313648 0.022447877 0.028088842
0.018604252 0.0013271831 -0.0023458023 -0.0052329563 -0.0024622008 -0.0010808818 -0.00036664866 -2.320297e-05
-2.3283064e-07 -1.8039718e-05 -0.00033359602 -0.0007711981 -0.0016745217 -0.0031250082 -0.0058629755 -0.0049195425
0.0038527455 0.003105443 0.013361122 0.018275946 0.020466544 0.00790498 0.00035516778 -0.0027597211
-0.0054522064 -0.008091828 0.0051724166 0.021940447 0.02660593 0.013217602 -0.0015155897 -0.0058414927
-0.0037008077 -0.001637314 -0.00039516948 -3.5578385e-05 -6.444752e-06 -6.458908e-05 -0.00049198605 -0.0015923493

fc.bias f4 [10]
00000000: b8bc f6bc fe96 3e3e ada3 c2bd 58be a3bd
00000010: 3be6 0abd 341d a03d aaf6 e6bc 6c1a a33e
00000020: 1387 56be f464 d9bd
-0.030119285 0.18612286 -0.09503875 -0.079952896 -0.03391097 0.0781807 -0.02819379 0.31856096
-0.20949964 -0.106149584
